models/basic_model.pth (torch, 17392 bytes, 6 tensors)

weight f4 [38, 68]
-0.068814285 0.011094508 -0.04208748 0.116076574 0.08607556 0.06612094 -0.013740089 0.0024446328
0.025095282 -0.07121058 -0.06705618 -0.056808226 -0.086665004 0.029284697 0.0037415586 0.03451496
0.052777063 -0.029537613 -0.020359373 0.09099129 -0.02197519 0.043396935 -0.10845406 0.064563975
0.11422997 0.03389615 -0.028627906 -0.11048252 -0.06592884 -0.080998115 0.0425352 -0.083368696
-0.09904814 0.03042409 -0.10413821 0.05271673 0.102143966 0.02142965 0.039763343 -0.04075381
-0.09262299 -0.06876199 0.048442647 -0.065010026 -0.07719896 -0.10116011 -0.029245513 0.089810014
0.0074900887 -0.00507234 0.11643711 0.09631724 -0.010039002 0.10342289 -0.07930733 0.034060404
-0.05093239 -0.09718701 0.082858704 -0.015570637 0.01072689 -0.10805094 0.008959711 0.030691052
0.025959 0.0526363 0.040378947 0.051033486 -0.11092013 -0.11763938 -0.09479995 0.06445759
-0.014968977 -0.100407034 -0.06896249 0.026059244 -0.10594664 0.0999849 -0.06493243 -0.031950817
0.078045405 -0.098398015 -0.0413443 0.106597215 -0.09333701 0.018053839 0.04643915 0.03586326
0.002061628 0.053537406 0.043276574 0.101012684 0.020771751 -0.016815163 0.115992144 -0.104360856
0.043372914 0.11043612 -0.07069346 -0.012237616 -0.0718648 -0.08750802 -0.11945023 0.001245655
-0.010731796 -0.08854138 -0.032478835 0.109910354 0.051624082 0.03849196 0.052829523 -0.02127704
-0.061300237 0.0653809 0.058610413 -0.062291544 0.03987862 0.09276993 -0.10267254 0.013522497
0.11147642 -0.10886124 -0.08449342 0.10263074 -0.06283729 0.052387565 0.04289539 -0.097613275
-0.04049627 0.058276534 0.092450954 -0.018085884 -0.082320824 0.010580449 -0.12066838 0.10930942
-0.014207621 0.04441261 -0.115723915 0.016365994 -0.11891284 -0.067939214 0.08403929 -0.083353564
0.021301838 -0.06696866 0.020285064 -0.11217066 0.112370186 -0.023936056 0.06889361 0.1141961
0.08775776 -0.023436729 0.050819274 0.115407035 -0.068867914 0.08197513 0.040354174 0.011186852
0.046011027 0.041050825 0.11533487 0.060847573 -0.11937796 0.04407954 0.056615375 -0.11918747
-0.00048760397 0.006059833 0.011544885 -0.029497532 -0.04209612 0.018486207 -0.03573338 -0.09141975
0.09284732 -0.07329823 0.009308817 -0.10798937 -0.11342955 -0.077111326 -0.017803859 -0.006997389
0.10464852 0.031902008 0.05137519 -0.117901735 0.0030706893 -0.018249352 -0.05290439 -0.0417507
0.10559401 -0.030221311 0.04929949 -0.041748084 0.057227235 0.08004777 0.011952199 0.024291366
0.09435 0.02954387 -0.06183011 0.043793768 -0.03494922 0.012422574 0.05625397 -0.08549928
-0.01938896 -0.04407302 0.097002365 0.10867069 0.07214943 0.0699632 -0.09294308 0.008613913
-0.00056089915 -0.06743753 0.11266454 0.029095704 -0.05964384 0.03248963 0.06283267 0.109968334
0.050557893 -0.087976374 0.032101568 -0.0522966 0.02528428 -0.03957996 -0.069065206 -0.017706191
0.03669427 0.03155635 0.0959137 -0.106220916 0.10625311 -0.08117616 -0.1031327 0.09025356
0.10981385 0.06389244 0.07094077 -0.039859936 -0.023145957 0.08329691 -0.059424706 0.06800034
-0.094158396 -0.12390427 0.09427535 0.070686854 -0.107616566 0.08103058 -0.0036788464 0.025321348
00000000: 81ee 8cbd bdc5 353c ec63 2cbd 8eb9 ed3d
00000010: 6248 b03d 6a6a 873d 1c1e 61bc 2236 203b
00000020: 9f94 cd3c dad6 91bd c054 89bd beaf 68bd
00000030: 6c7d b1bd 76e6 ef3c f034 753b 8f5f 0d3d
00000040: c32c 583d ddf8 f1bc b3c8 a6bc a459 ba3d
00000050: 5005 b4bc fcc0 313d 2a1d debd 1e3a 843d
00000060: 67f1 e93d b0d6 0a3d 1285 eabc a944 e2bd
00000070: b305 87bd 57e2 a5bd 6439 2e3d 35bd aabd
00000080: c0d9 cabd f13b f93c 6a46 d5bd 7fed 573d
00000090: db30 d13d 3c8d af3c e3de 223d 78ed 26bd
000000a0: 1fb1 bdbd 16d3 8cbd cc6b 463d fa23 85bd
000000b0: 7d1a 9ebd 082d cfbd 4994 efbc 50ee b73d
000000c0: 6b6f f53b df35 a6bb 9476 ee3d f941 c53d
000000d0: a07a 24bc 61cf d33d e26b a2bd ec82 0b3d
000000e0: 7b9e 50bd fc09 c7bd d3b1 a93d fc1b 7fbc
000000f0: d6bf 2f3c d049 ddbd c0cb 123c cd6b fb3c
00000100: f8a7 d43c 2999 573d 6564 253d 7d08 513d
00000110: 182a e3bd eaec f0bd 7a26 c2bd 5702 843d
00000120: 7140 75bc 34a2 cdbd 353c 8dbd 327a d53c
00000130: 8dfa d8bd e2c4 cc3d 4bfb 84bd dcde 02bd
00000140: 45d6 9f3d e684 c9bd a458 29bd a44f da3d
00000150: 7927 bfbd a5e5 933c fa36 3e3d 5be5 123d
00000160: 611c 073b 0a4a 5b3d c742 313d bddf ce3d
00000170: 8529 aa3c f4bf 89bc 4a8d ed3d 25bb d5bd
00000180: cca7 313d 552c e23d bcc7 90bd 4880 48bc
00000190: da2d 93bd 6837 b3bd 52a2 f4bd 3f45 a33a
000001a0: 6ad4 2fbc 2f55 b5bd 8708 05bd ae18 e13d
000001b0: c673 533d bfa9 1d3d c563 583d 304d aebc
000001c0: f515 7bbd 6ce6 853d 7911 703d 6b25 7fbd
000001d0: c457 233d 29fe bd3d fb45 d2bd 778d 5d3c
000001e0: c04d e43d a4f2 debd e30a adbd 1130 d23d
000001f0: d6b0 80bd 5894 563d 14b3 2f3d 78e9 c7bd
00000200: 6bdf 25bd 60b3 6e3d ed56 bd3d d928 94bc
00000210: d297 a8bd 9f59 2d3c fc20 f7bd 9edd df3d
00000220: 15c7 68bc ffe9 353d a900 edbd fa11 863c
00000230: 9388 f3bd b723 8bbd cb1c ac3d 46b5 aabd
00000240: 3181 ae3c dd26 89bd dd2c a63c bbb9 e5bd
00000250: 5722 e63d 8c15 c4bc 1818 8d3d a5df e93d
00000260: 57ba b33d 62fe bfbc df27 503d 865a ec3d
00000270: 9f0a 8dbd 94e2 a73d 6b4a 253d 0f49 373c
00000280: 0f76 3c3d e924 283d b034 ec3d 4e3b 793d
00000290: 6f7c f4bd bf8c 343d 86e5 673d 8f18 f4bd
000002a0: 19a5 ffb9 9091 c63b c226 3d3c cfa4 f1bc
000002b0: fb6c 2cbd 6370 973c 2a5d 12bd 473a bbbd
000002c0: bc26 be3d 621d 96bd 0284 183c 8829 ddbd
000002d0: c04d e8bd 8bec 9dbd 66d9 91bc 5a4a e5bb
000002e0: f751 d63d aeab 023d cb6e 523d 7776 f1bd
000002f0: 9e3d 493b aa7f 95bc 46b2 58bd c802 2bbd
00000300: ac41 d83d af92 f7bc 43ee 493d 0a00 2bbd
00000310: 1b67 6a3d 16f0 a33d 28d3 433c b0fe c63c
00000320: 933a c13d fc05 f23c 9241 7dbd 1861 333d
00000330: ea26 0fbd 0d88 4b3c 906a 663d 3f1a afbd
00000340: 99d5 9ebc e985 34bd 2da9 c63d bd8e de3d
00000350: 15c3 933d de48 8f3d f158 bebd 5f21 0d3c
00000360: 4e09 13ba b01c 8abd abbc e63d 1d5a ee3c
00000370: 194d 74bd d913 053d 6aae 803d 1437 e13d
00000380: cb15 4f3d f52c b4bd ef7c 033d f634 56bd
00000390: fa20 cf3c 991e 22bd 0f72 8dbd 930c 91bc
000003a0: bb4c 163d 3b41 013d 676e c43d 5a8a d9bd
000003b0: 3b9b d93d b03f a6bd 3d37 d3bd dcd6 b83d
000003c0: 15e6 e03d 0ada 823d 6549 913d 2c44 23bd
000003d0: 979c bdbc 9297 aa3d 5267 73bd c343 8b3d
000003e0: 1ed6 c0bd 86c1 fdbd 6f13 c13d 45c4 903d
000003f0: 1366 dcbd 5cf3 a53d cd18 71bb b76e cf3c

bias f4 [38]
-0.034422345 -0.049849562 0.04902993 -0.016173309 -0.06919668 0.0015105506 -0.039563455 -0.030232627
-0.12419912 0.00016073737 -0.088510044 0.044066064 -0.09333151 0.12893401 0.03383129 0.0015064261
0.039257552 0.06353497 -0.12832908 0.040268976 0.04128634 -0.0816183 -0.10520622 0.088261425
-0.06261207 -0.05400124 0.012062379 -0.026162354 0.09627352 -0.042415548 -0.10214564 -0.00601651
-0.011892758 -0.012630802 0.06353455 0.1324439 -0.07992708 0.014484927
00000000: 72fe 0cbd 0e2f 4cbd 9cd3 483d e37d 84bc
00000010: fdb6 8dbd abfd c53a 4a0d 22bd 6aaa f7bc
00000020: 1c5c febd 9c8b 2839 c144 b5bd 9e7e 343d
00000030: 9724 bfbd 4707 043e ae92 0a3d 4673 c53a
00000040: 87cc 203d 9f1e 823d b368 03be 15f1 243d
00000050: de1b 293d 7f27 a7bd 5c76 d7bd 68c2 b43d
00000060: c23a 80bd 6730 5dbd 49a1 453c 6f52 d6bc
00000070: 0d2b c53d edbb 2dbd bc31 d1bd 2526 c5bb
00000080: d8d9 42bc 6cf1 4ebc 671e 823d 609f 073e
00000090: cfb0 a3bd 3052 6d3c

weight f4 [15, 38]
-0.017918084 -0.018708 0.031574003 0.13808979 0.036321428 -0.039572228 -0.066211484 -0.15116777
0.0172578 -0.16084513 0.031709876 0.15524076 0.017978208 -0.016093938 0.07967136 -0.053297188
0.13590401 0.05747769 -0.050641116 -0.023726877 0.15675807 0.0171524 -0.06611066 0.1084371
0.06315563 0.084714785 0.03212738 0.050331544 -0.053510997 0.1420131 0.0900174 -0.14617729
0.01413076 0.049208403 -0.007932109 -0.13062775 -0.004941634 0.11446241 -0.0042749858 -0.13084842
-0.14467269 -0.12373603 -0.06965611 -0.15869133 -0.041778885 -0.08967812 0.14689945 0.075530246
0.12899143 -0.058857717 -0.0070773955 0.08527553 0.07543909 0.14072599 0.11173647 0.1316492
-0.10890584 0.06846415 -0.13155967 -0.12423835 0.04311133 0.08533392 0.005649552 -0.0077565243
0.08177611 0.14428285 -0.05329574 -0.06843464 0.07463925 0.055564385 0.037677754 -0.12003728
0.0015988238 -0.14112346 0.05188788 0.005436841 -0.12785138 -0.031321395 0.09026505 -0.10377796
0.039904892 -0.11594668 -0.096541435 0.10617237 0.07590815 0.08270641 -0.0207282 0.036107216
0.0713667 0.07900411 0.08520952 -0.14187689 0.012502655 0.00095716846 0.062211502 -0.14942403
0.07020209 -0.121895395 0.023154886 0.065130234 0.12906472 0.14826927 -0.113653235 0.06051051
-0.0749111 -0.09220006 0.16129978 -0.00218341 0.06858757 0.030431677 0.06290606 -0.12418329
0.04730589 -0.14115475 0.06439348 0.13631845 -0.12042047 -0.11204227 -0.011004777 -0.035386756
-0.06459916 -0.09134528 -0.10581611 0.012572503 -0.051311467 -0.1154831 0.10839011 0.095848866
0.011769584 0.14300728 -0.061152052 -0.016440846 0.04410331 -0.025370283 -0.025396574 -0.10382744
-0.02230674 -0.06512138 -0.11861429 0.07489447 0.04511625 0.11362741 -0.14310546 -0.06430203
0.14694075 -0.012031346 -0.018230293 0.018568179 0.10960305 0.033987775 -0.0050720787 -0.14154874
0.08218493 -0.0044478723 -0.023495695 0.010821766 0.064107604 0.021508563 -0.060445376 0.01755906
-0.00749243 0.10867493 0.06801186 0.029613743 0.07392458 0.03907704 -0.01940676 0.108633086
0.050927185 0.0072818003 0.13677493 -0.004892396 0.15394089 -0.13208164 0.042715997 0.040531345
-0.010145075 -0.09412682 -0.051493872 0.13026166 -0.088034876 0.094195426 -0.032297995 -0.11265754
0.025798433 0.13422325 0.13360846 -0.044764135 0.108351916 0.1086771 -0.053766623 0.015866043
0.034254704 0.005368177 -0.028084336 -0.094546854 -0.03365313 0.01704035 -0.04876839 -0.07206604
0.05300543 -0.118935205 -0.015922653 -0.086272 0.036576074 -0.0094889365 -0.1320532 0.06707438
-0.13204624 0.13279848 -0.040659994 0.01408486 0.006617212 -0.099842936 -0.15214795 0.106653236
-0.03847164 0.14148006 -0.10207016 -0.15960352 0.0683679 -0.13290222 -0.09486945 0.09272717
0.03551004 0.1399938 0.08537792 0.13163689 0.06443702 -0.017631853 0.13334784 0.11849314
-0.07398081 -0.10362252 -0.1507616 0.10160099 0.13703047 -0.13599077 0.12674059 -0.114207566
-0.06365596 0.07881146 -0.027522441 0.051272795 -0.023368293 -0.15658507 0.12113413 -0.046618786
0.15339859 0.08712823 0.06459007 -0.12504934 0.0480361 -0.06660113 -0.07985661 0.07575245
00000000: f2c8 92bc 8541 99bc be53 013d 6967 0d3e
00000010: c7c5 143d 7d16 22bd e399 87bd b9cb 1abe
00000020: 3b60 8d3c 96b4 24be 37e2 013d 6ff7 1e3e
00000030: 0947 933c 6fd7 83bc bd2a a33d 274e 5abd
00000040: 6c2a 0b3e ba6d 6b3d 0f6d 4fbd de5e c2bc
00000050: 3085 203e 3183 8c3c 0765 87bd 4514 de3d
00000060: bd57 813d f27e ad3d 0098 033d 7328 4e3d
00000070: 592e 5bbd e26b 113e 0b5b b83d 80af 15be
00000080: b484 673c c08e 493d adf5 01bc 48c3 05be
00000090: 6eed a1bb 456b ea3d 2e15 8cbb 21fd 05be
000000a0: 1425 14be 5169 fdbd dda7 8ebd fb7f 22be
000000b0: 5620 2bbd 2aa9 b7bd cf6c 163e 9aaf 9a3d
000000c0: 5416 043e ca14 71bd 7fe9 e7bb f0a4 ae3d
000000d0: cf7f 9a3d 791a 103e 17d6 e43d 0ccf 063e
000000e0: 060a dfbd ef36 8c3d 94b7 06be ad70 febd
000000f0: 8295 303d 8dc3 ae3d e11f b93b 712a febb
00000100: 3c7a a73d e2be 133e a24c 5abd 7627 8cbd
00000110: 77dc 983d 7b97 633d fd53 1a3d 1bd6 f5bd
00000120: a08f d13a ab82 10be 6388 543d 8727 b23b
00000130: 79eb 02be dd4a 00bd e2dc b83d 8a89 d4bd
00000140: 5073 233d 7475 edbd 84b7 c5bd e670 d93d
00000150: bb75 9b3d fa61 a93d 30ce a9bc 29e5 133d
00000160: b428 923d e8cc a13d 5482 ae3d 2d48 11be
00000170: f0d7 4c3c 7dea 7a3a 7dd1 7e3d 9d02 19be
00000180: 1dc6 8f3d 4ba4 f9bd 51af bd3c 0063 853d
00000190: 8b29 043e e6d3 173e 07c3 e8bd ded9 773d
000001a0: fe6a 99bd 63d3 bcbd c52b 253e 8b17 0fbb
000001b0: a477 8c3d da4b f93c e4d4 803d cf53 febd
000001c0: d2c3 413d df8a 10be bbe0 833d 1097 0b3e
000001d0: 029f f6bd 6b76 e5bd 614d 34bc b4f1 10bd
000001e0: 904c 84bd 3c13 bbbd 1eb6 d8bd e6fc 4d3c
000001f0: f92b 52bd 6782 ecbd a2fb dd3d 694c c43d
00000200: 37d5 403c 8070 123e 937a 7abd f4ae 86bc
00000210: aca5 343d 57d5 cfbc 7a0c d0bc 7ba3 d4bd
00000220: a0bc b6bc 5c5e 85bd 0dec f2bd 4662 993d
00000230: d1cb 383d 7db5 e83d 3d8a 12be c8b0 83bd
00000240: a377 163e 1f1f 45bc b257 95bc 4b1c 983c
00000250: 9077 e03d c436 0b3d ae33 a6bb 27f2 10be
00000260: 9350 a83d 75bf 91bb 0b7a c0bc c74d 313c
00000270: d94a 833d ba32 b03c 9295 77bd 05d8 8f3c
00000280: 0f83 f5bb f690 de3d cd49 8b3d 8598 f23c
00000290: c565 973d 3f0f 203d edfa 9ebc 067b de3d
000002a0: 0699 503d 2b9c ee3b ba0e 0c3e 6450 a0bb
000002b0: aea2 1d3e 6940 07be f8f6 2e3d 3204 263d
000002c0: 8737 26bc 90c5 c0bd 3deb 52bd 5063 053e
000002d0: a14b b4bd 88e9 c03d e74a 04bd ffb8 e6bd
000002e0: 3c57 d33c d271 093e a8d0 083e 995a 37bd
000002f0: 9ce7 dd3d 1992 de3d 643a 5cbd 81f9 813c
00000300: a94e 0c3d 88e7 af3b 1f11 e6bc c8a1 c1bd
00000310: ddd7 09bd 3498 8b3c 5dc1 47bd 5c97 93bd
00000320: 391c 593d 4d94 f3bd 3970 82bc 60af b0bd
00000330: cbd0 153d 7c77 1bbc f438 07be 4b5e 893d
00000340: 2137 07be 53fc 073e 188b 26bd 2fc4 663c
00000350: 33d5 d83b 747a ccbd accc 1bbe 036d da3d
00000360: 7094 1dbd 26e0 103e 290a d1bd 1b6f 23be
00000370: 7804 8c3d 8517 08be ea4a c2bd bee7 bd3d
00000380: fa72 113d 895a 0f3e 9eda ae3d d2cb 063e
00000390: 8ef7 833d ad70 90bc 568c 083e 88ac f23d
000003a0: 4083 97bd 0b38 d4bd 4061 1abe 2e14 d03d
000003b0: b751 0c3e 2a41 0bbe 49c8 013e a8e5 e9bd
000003c0: 0e5e 82bd e767 a13d be76 e1bc 6c03 523d
000003d0: dd6e bfbc d657 20be 2c15 f83d 57f3 3ebd
000003e0: 8514 1d3e 4970 b23d cc47 843d ef0c 00be
000003f0: 80c1 443d 2c66 88bd dd8b a3bd 1a24 9b3d

bias f4 [15]
-0.06125599 -0.093754455 -0.14580038 -0.038969044 -0.058452085 -0.06057712 0.06433523 -0.07092659
0.09522476 -0.13800815 -0.07768216 0.055196233 -0.011775587 -0.059760857 -0.10200882
00000000: 90e7 7abd 5602 c0bd b24c 15be 019e 1fbd
00000010: 746b 6fbd b71f 78bd 30c2 833d f641 91bd
00000020: 3305 c33d 0252 0dbe d317 9fbd 7215 623d
00000030: 64ee 40bc cdc7 74bd 00ea d0bd

weight f4 [3, 15]
0.16491492 0.2517314 -0.05082308 -0.07214776 0.09422244 0.19603407 0.15650563 0.15164956
0.10237315 -0.026017716 -0.22939278 -0.10248408 -0.22596575 -0.038798835 -0.092730604 0.24580392
0.030537233 -0.13565244 0.099307105 0.060961373 0.23601678 0.10814001 -0.039563578 0.07066636
-0.22209561 0.17250669 -0.07446863 0.12817186 0.1369724 0.18944368 -0.11969168 -0.20524918
-0.08903473 0.24328873 0.20773195 0.25148925 0.0735194 -0.06952564 -0.032451715 0.10406046
-0.018562904 -0.012515421 -0.20817894 0.014500104 0.06635498
00000000: 75df 283e f0e2 803e dd2b 50bd 34c2 93bd
00000010: b2f7 c03d 28bd 483e 0343 203e 064a 1b3e
00000020: 04a9 d13d 1b23 d5bc f1e5 6abe 2ce3 d1bd
00000030: 9163 67be 87eb 1ebd 8be9 bdbd 06b4 7b3e
00000040: 3829 fa3c 79e8 0abe 8661 cb3d a2b2 793d
00000050: 62ae 713e 8278 dd3d 6b0d 22bd 86b9 903d
00000060: 086d 63be 98a5 303e 0283 98bd 7c3f 033e
00000070: 7e42 0c3e 86fd 413e e920 f5bd d72c 52be
00000080: d757 b6bd ae20 793e afb7 543e 33c3 803e
00000090: 5791 963d 7563 8ebd 17ec 04bd a71d d53d
000000a0: 3b11 98bc 7b0d 4dbc dc2c 55be d891 6d3c
000000b0: 1fe5 873d

bias f4 [3]
-0.01736275 -0.01197119 -0.001963271
00000000: 533c 8ebc cf22 44bc 39aa 00bb
