models/basic_model.pth (torch, 12144 bytes, 8 tensors)

weight f4 [24, 27]
00000000: fe7c c040 9819 8abf c310 683f 6760 cb3f
00000010: 55c2 ad3e 6974 32be a038 16be d37f f13e
00000020: 3365 813f 8d7f 853f 3e2d d73e 0060 573e
00000030: 0779 0e40 38a8 08bf 6361 103f 90b5 323f
00000040: 0dab 2b3f fc54 d4bf 4dec 28c0 767a 383f
00000050: c254 893e 0ca7 8dbf 0c6b d53e a6ac 7dbe
00000060: 0074 a9bf 15cd e7be 160a 90c0 9fb2 b6c0
00000070: ae52 293f 9685 ee3f 2d42 86bf d9ca 293e
00000080: bee5 923f 7ac4 0fbf 0a92 113f 5695 15be
00000090: 314b 02bf b544 293f 84d5 233f c41f d33e
000000a0: b679 9a3e 3115 e53e 6785 2a3f f67a 653f
000000b0: 32c3 38be d8df 153f 9b9a 3e3e 5a03 ae3c
000000c0: aeda 4e3f 40fd 303e bdc3 873f ef20 e5bf
000000d0: f470 b43f 50d7 08c0 4849 1ec0 b42c d03e
000000e0: 1e21 3e41 130e 71be 18f9 2e3f 40fe 7f3f
000000f0: a1bf d9bc 021f a23e 3131 f2be 3e67 143e
00000100: 5379 eebd 768e 6b3f d401 3340 6a90 c73d
00000110: 1d79 b43e 2bd7 f3be 671d 843f bb05 853f
00000120: a014 0dbf b75e ba3e 1d0c 0abf 7240 d03e
00000130: 258f 993e 9ca2 713f efb5 2cc0 fff8 61be
00000140: 2896 1a3e 7d35 b43f d88e ab3e 3645 b341
00000150: 3cfa a13e 4d29 6dbf 9702 6cbe 0045 8bbf
00000160: f090 7b3e 295b f4bd 6275 3e3f aeeb e3bd
00000170: c2a2 993f 19ed 8f3c 6c9c 72bd a840 87be
00000180: f0b7 173f 2cd1 ac3f 938a 62bf 1703 9cbc
00000190: a3f7 86bf 6bf5 a93f 28e9 84be bac7 cbbe
000001a0: 36e7 a8be d5bc 06c0 22b7 84be f211 d3bd
000001b0: 4254 8f3f 65ea 98bf 1963 7bc0 d271 0940
000001c0: 5b4d 89bf a415 733f a5a6 d63b 4183 a13d
000001d0: 10bd d83f ed36 963d adf6 353e aac9 c0bf
000001e0: 9675 08c0 eebe b4bf 4623 4f3f 3a4f 5c3f
000001f0: c6c7 513e 7650 123e 9fe8 2e40 3cd5 9ebf
00000200: c53d 9cbf 501c e03e 4be3 223e 2233 353f
00000210: 2f52 34c0 de07 ae3f 7eab 3ebf 2d15 633f
00000220: 63e6 7ebb d8b1 ce41 fcaa 1e3f 38d1 56bd
00000230: c05f b33e 3abf 073e aa0c 25bf 0036 2e3c
00000240: 11b4 bd3e 685b 8fbc 7a46 83be b6f5 3abd
00000250: 5f93 603e 173a b5be 7d3f 9b3e 3564 6a3d
00000260: f303 ed3f d2b8 39bf b746 7f3e ec50 b5be
00000270: ac9f af3e 0c75 dcbe c172 bd3e 5d7e d1bf
00000280: 742a 963e d9c6 903f 74af c13e 04d8 1d3f
00000290: 8347 dc41 4c6e 923e 4410 cfbe 1e15 d4bd
000002a0: 3881 8bbe 936b a23e 3cea 303f 51d1 a83e
000002b0: 8100 c13e 7efc f3bd 1f4d 97c0 c3d4 6c3e
000002c0: 4448 15bd cbc6 9e3f fd3f a73f c004 283e
000002d0: 28dc 1cbd 19e1 d1be 0cd5 d63d eeec 56bf
000002e0: 6564 883e 0f6d aabe 472a cf3d d938 bd3e
000002f0: e8a3 8d3d 877b 973e d16f 6dbf 29f2 95c1
00000300: e530 5f3e c468 1d40 f729 0cbf 8b00 0dbf
00000310: 2457 46bf a8ea a9bf 8485 68bf 4ba0 18bf
00000320: fa2d 1cbf 3d88 35bf c5b4 53be 83ea c83f
00000330: 221f 62be 2506 82bd 1ca5 59bf 4ac7 90bf
00000340: 26e0 05bf 107b bebf 0d69 17be 4203 803f
00000350: dc73 0bbf c4bf 09c0 4199 54bf 2b46 513e
00000360: 27d6 90bf 4a8f 0fbe f948 3340 b960 1fbf
00000370: 3c26 a6be a3b4 b53c f556 a1bf 292d 7f3e
00000380: ae58 473e 6a6a 693e 12c0 fbbd 980f b83e
00000390: 591d d2c0 ae60 3f3e 2c46 46be b33d b83e
000003a0: d158 41be fa11 733f 06da fc3f 5656 efbe
000003b0: 653b 52be 5fa3 613f aabd 0cbf f716 883c
000003c0: 4630 9c3f 0538 893f 446b 2bbf e78d a040
000003d0: 9a47 ffbe adc4 d240 5072 a03f a300 9a3e
000003e0: 2f7d f63e 08ee 21bf 0a20 1d3f 861c 4bbe
000003f0: 7177 f4be cff5 9c3e 5920 fd3d e642 4ebf
6.015258 -1.078906 0.90650576 1.5888795 0.33937326 -0.1742722 -0.14670038 0.47167835
1.0109009 1.042955 0.42026705 0.21032715 2.226137 -0.5338168 0.563986 0.6980829
0.6705788 -1.6588435 -2.6394227 0.7206186 0.26822478 -1.1066604 0.41683233 -0.24772891
-1.3238525 -0.45273653 -4.501231 -5.7093043 0.66141784 1.8634517 -1.0488945 0.16581286
1.1476362 -0.56159174 0.5686346 -0.14607748 -0.50895983 0.66120464 0.63997674 0.41235173
0.30170983 0.4474273 0.66609806 0.8964075 -0.18043211 0.58544683 0.18613665 0.021241833
0.8080243 0.17284107 1.060661 -1.7900676 1.409697 -2.1381416 -2.4732227 0.40659106
11.883085 -0.23540525 0.68348837 0.9999733 -0.026580634 0.31664282 -0.47303155 0.14492509
-0.116442345 0.92014253 2.7969866 0.09744342 0.35248652 -0.47625098 1.0321473 1.0392374
-0.55109596 0.36400387 -0.53924733 0.40674168 0.29992023 0.9438875 -2.6986043 -0.2206764
0.15096343 1.4078823 0.3350742 22.408794 0.31636226 -0.92641145 -0.23047863 -1.0880432
0.24567008 -0.1193145 0.7439786 -0.11128937 1.2002795 0.017569112 -0.059231207 -0.26416516
0.5926504 1.3501334 -0.884927 -0.019044442 -1.0544323 1.3278021 -0.25959134 -0.39800817
-0.329889 -2.1052754 -0.2592097 -0.10306157 1.1197588 -1.1946532 -3.9279234 2.147572
-1.0726732 0.94954896 0.0065506273 0.07886363 1.6932697 0.07334695 0.1776988 -1.5061543
-2.1321769 -1.4120767 0.809132 0.8605839 0.20486364 0.14288506 2.732948 -1.2408824
-1.220635 0.437716 0.15907018 0.7078115 -2.817516 1.3596151 -0.74480426 0.88704187
-0.0038894645 25.836838 0.6197965 -0.05244562 0.3503399 0.13256541 -0.6447245 0.010632992
0.37051442 -0.01749964 -0.25639707 -0.045644484 0.21931218 -0.35395882 0.30321875 0.05722447
1.851683 -0.7254764 0.2492932 -0.354133 0.34301507 -0.4305805 0.37001613 -1.6366688
0.29329264 1.1310683 0.37829173 0.6165774 27.534918 0.28599775 -0.40442097 -0.1035559
-0.27247024 0.31722698 0.69107413 0.32972196 0.37695697 -0.119133934 -4.728164 0.23128037
-0.03644587 1.2404417 1.3066403 0.16408062 -0.038295895 -0.40992048 0.10489854 -0.83955276
0.26639095 -0.3328633 0.10115486 0.36957434 0.06916028 0.2958643 -0.92748743 -18.743242
0.21795996 2.4595194 -0.54751533 -0.55078954 -0.77476716 -1.3274736 -0.9082873 -0.5961959
-0.61007655 -0.7091101 -0.20674427 1.5696567 -0.22082189 -0.06348828 -0.8501756 -1.1310818
-0.5229515 -1.4881306 -0.14786167 1.0000994 -0.5447366 -2.1523294 -0.83046347 0.20436923
-1.1315354 -0.14019504 2.801329 -0.6225696 -0.32451046 0.02218086 -1.2604662 0.24919571
0.19467422 0.227945 -0.12292494 0.35949397 -6.5660825 0.18689224 -0.19362706 0.35984573
-0.18881537 0.94949305 1.9754035 -0.46745557 -0.2053047 0.8813991 -0.54976904 0.016612513
1.2202232 1.0720221 -0.6696055 5.017322 -0.49859315 6.5865083 1.2534885 0.3007861
0.48142383 -0.6325383 0.6137701 -0.198351 -0.47747377 0.30656287 0.123596855 -0.8057083

bias f4 [24]
00000000: 891a 103f a66e bdbe c094 e8be d5ee e0be
00000010: 8972 5d3f a18a d4bd 3b8d 0abd 2c61 853f
00000020: c463 513d 5f3b 703f d199 af3e 4ebc abbe
00000030: f781 60bf 1f24 af3f 3a6d 11bf 17ce 38be
00000040: b6b7 2f3f b560 e4bf 3394 29bf 6853 393f
00000050: c2a6 0b3f da23 a6bf b9e1 313f 9fd1 113f
0.5629049 -0.3699848 -0.45425987 -0.43932214 0.8650289 -0.10378004 -0.033826094 1.042028
0.051120535 0.93840593 0.3429704 -0.33542103 -0.8769831 1.3682898 -0.5680729 -0.18047367
0.68639696 -1.7842013 -0.6624176 0.7239289 0.5455133 -1.2979691 0.6948505 0.5696048

weight f4 [20, 24]
00000000: 712c d4bf b1a2 3d3f b30f c53f 4e5e 703f
00000010: 70b7 023f 1497 1c40 6cc6 973f 2468 a7c0
00000020: 03ac b23f 2dc8 f6bf 05dd 163f f162 9d40
00000030: 5140 a53f 34ac 3f3f 5256 8ebe 8266 623f
00000040: df77 d1bf 1b7c ad3e 20f3 bbbf d9f5 b03c
00000050: 4449 0fbf 7535 873f a761 3bc0 84ba 2fbf
00000060: 0d83 ba3f fbc2 b6bc 6823 6f3f 4793 933f
00000070: 29f0 1e3f 6a9f 0940 cb72 af3f 2095 6b3d
00000080: fe0f fd3f abca 2240 38bc 1a3f ef05 6a40
00000090: e83e 67bf c943 2ebf 96e7 b73e c1d7 363f
000000a0: fda5 a73f 125f 9cbf 0c0f c83e 73b7 4ebf
000000b0: f440 20c0 32ad c6be 4e8f ec3f 2828 063f
000000c0: 9507 133f c789 a73f bc4d 863f e59d 913d
000000d0: 0a8f 593f ac3a b73e dcd1 27bf d073 36c0
000000e0: c474 0b3f 631f 78c0 0cee fe3e dc38 3ec0
000000f0: 79d2 e1bf d221 ed3f b8de 2ac0 4cdc bc3f
00000100: 9c32 a53c 52ea c13f edba 733d ae9b 45c0
00000110: 509a 4abf 8a02 033f 05c4 8fbf 61ce 5e40
00000120: e124 b03f a37a 4940 0198 c83d 8521 f43f
00000130: 56f4 a8bf dda9 56bf 81ea 9b3f 8e3b 8a40
00000140: 9f03 bf3f dece 9940 fa9f 883f f4e9 7e3e
00000150: 28b2 dcbd c8d0 8cbb 0f9d cb3f 439d 97bf
00000160: 9f1c b33f ecc3 f6bf c7ae a43f 702f 3a40
00000170: 4ac2 20c0 704b 47bf 880c 8bbf 6b1b 183f
00000180: da7e 1ec0 7c15 d840 5ee6 973f e7dc 003f
00000190: c361 0540 9f73 cebf 60f5 86c0 f050 bd3f
000001a0: 72f9 06bf 708c 03c1 e320 263f 19fb 79c0
000001b0: 50b8 52be 11fe 20bf 5b2a 35bf 29fa c5bf
000001c0: 26bc 26bf 46cc 60bf c41d 9f3f e0b5 dd3f
000001d0: dc57 823c cef0 aabf d1a3 743f 5a3f f9be
000001e0: 754c 1840 3822 7c3f c024 803f 9431 a63f
000001f0: e433 20be 6ede ff3f 97a6 6f3f 40e8 00c0
00000200: 79b2 1ebe dc16 de3f 5b10 8bbf 93e7 4540
00000210: 5419 1bbe 4053 00bf 5aeb 0f3f dc8e c1be
00000220: c94f 0f3f 2844 9c3f 9a6e cfbf 89e6 1b40
00000230: 075e 8dbf 5df4 babe 9b30 713e 0639 a0bf
00000240: d7aa 0340 465d 8a3f 982e 013f 41b8 1540
00000250: 69a9 1f3e c0c5 dd3d e40f bd3e 6559 5d40
00000260: 09b3 893f f270 c540 e1cc 7bbe 1005 823e
00000270: fc02 3abd 523e 46be 9e6d 203f ccbd 4dbf
00000280: 7e65 3dbf b2fb 8dbf 32cd a33f 1fa1 0840
00000290: d6ca 88be a30a 0cbe 43ea e2bf a2e2 dbbe
000002a0: 8bc1 233f 2e22 383e d512 d93f 9374 3c40
000002b0: daa7 af3e cc88 3f40 0b06 503e af80 e33e
000002c0: bb66 583f 7ee3 763f 4834 45bf 3537 4f40
000002d0: 9397 47bf af13 90bf 1962 743f 1f93 bcbf
000002e0: e5e6 0740 8c05 95bf b1ec 7abd d3bf 003f
000002f0: 0621 c4c0 1cc2 9bbe 2fa8 073a 838e a13e
00000300: 2595 2e40 f2f9 b8bf 2d00 ae3d 5171 163f
00000310: adba 2e3e a6b8 2240 7091 ad3e 35df 133e
00000320: a6e3 08c1 fa4c b63f ea84 c63f 3953 b93f
00000330: 14a7 0b3f cd47 683f a103 40be b74b 86be
00000340: 7c81 28bf e28f 573f 2cce 813e 332d 453f
00000350: 150b 5a3d 22dd 973e b2a3 50bf 83af 5a3f
00000360: e066 d03e df8a fabf d311 2abf 8c66 1fc0
00000370: 64fd 12bf bab0 8fbf 0240 ddbf f7db 0a3f
00000380: 7d37 46bf b84c 43c0 44f5 1ac0 3636 9fc0
00000390: 65e3 af3f c200 8ebe 1e80 ab3f ecd6 d23f
000003a0: a6e9 1ac0 9c5f d93f 3212 ab3f ff9c f3bf
000003b0: 6e66 523f 0fa2 923f ba0f 3a3f d5df 59c0
000003c0: 3690 afbf d557 953e 1fa1 36c0 f7a8 c6c0
000003d0: 8d00 8ebf 7f0f 6bc0 645f 41c0 ddf5 92bf
000003e0: 89e1 73bf f82e 02c0 daf7 29c0 3885 43c0
000003f0: f5fa 1ac0 d091 69be 0cc6 5dbf e828 ec3d
-1.6576062 0.7407637 1.5395416 0.938939 0.51061153 2.446721 1.1857429 -5.2314625
1.3958744 -1.9279839 0.58931 4.918328 1.2910253 0.74872136 -0.27800232 0.88437665
-1.6364707 0.33883747 -1.4683571 0.021601604 -0.5597117 1.0563189 -2.9278352 -0.68643975
1.4571244 -0.02230977 0.934134 1.152932 0.62085205 2.1503549 1.3706907 0.057515264
1.9770505 2.5436199 0.6044345 3.6566122 -0.9033036 -0.6807218 0.35918874 0.71422964
1.3097531 -1.2216513 0.3907398 -0.8074867 -2.5039644 -0.38804013 1.8481233 0.52405024
0.57433444 1.3088921 1.0492473 0.07110194 0.84983885 0.3578695 -0.65554595 -2.8508186
0.54475045 -3.8769157 0.4979099 -2.9722204 -1.7642356 1.8525946 -2.6698437 1.4754729
0.020165734 1.5149634 0.05950444 -3.087627 -0.7914171 0.5117575 -1.1231695 3.4813464
1.3761255 3.1481102 0.097946174 1.9072729 -1.3199565 -0.8385294 1.218094 4.31977
1.492298 4.8065023 1.0673821 0.24893934 -0.10776168 -0.0042973496 1.5907305 -1.1844867
1.399311 -1.9278541 1.2865838 2.9091454 -2.5118585 -0.77849483 -1.0863199 0.59416837
-2.4764924 6.7526226 1.1867177 0.5033707 2.084092 -1.6129035 -4.217453 1.4790325
-0.52724373 -8.2217865 0.6489393 -3.9059508 -0.20578122 -0.62887675 -0.70767754 -1.5466968
-0.6513084 -0.87811697 1.2430959 1.7321129 0.015911035 -1.3354738 0.95562464 -0.48681146
2.3796666 0.98489714 1.0011215 1.298388 -0.15644795 1.9989755 0.9361357 -2.0141754
-0.1549777 1.7350726 -1.0864366 3.0922592 -0.1514638 -0.5012703 0.56218493 -0.37804306
0.5598112 1.22083 -1.6205628 2.4359457 -1.104432 -0.3651456 0.23553698 -1.2517402
2.0573022 1.0809715 0.5046172 2.339371 0.15591969 0.108287334 0.36926186 3.4585812
1.0757762 6.1700373 -0.24589874 0.25394487 -0.045413002 -0.19359711 0.6266726 -0.8036773
-0.7398299 -1.1092436 1.2796996 2.134834 -0.26717252 -0.13675933 -1.7727741 -0.42946345
0.639672 0.17981789 1.6958872 2.9446151 0.34307748 2.9927244 0.20314805 0.44434115
0.84531754 0.96440876 -0.770329 3.2377446 -0.7796566 -1.1256007 0.95462185 -1.4732398
2.1234677 -1.1642318 -0.061260883 0.502927 -6.129031 -0.3042153 0.00051749026 0.3155404
2.727853 -1.4451277 0.08496127 0.5876666 0.17063399 2.54252 0.33900023 0.14440615
-8.555578 1.4242241 1.5509312 1.4478523 0.54551816 0.9073456 -0.18751384 -0.2622964
-0.6582258 0.8420392 0.2535261 0.77022094 0.053233225 0.29660898 -0.8149978 0.8542406
0.40703487 -1.957363 -0.6643345 -2.490634 -0.57417893 -1.1225808 -1.7285159 0.5424189
-0.7742842 -3.0515575 -2.4212198 -4.9753675 1.374127 -0.27734953 1.3398473 1.6471839
-2.4205108 1.6982303 1.3364928 -1.9032286 0.82187545 1.1455706 0.72680247 -3.4042866
-1.3715885 0.29168573 -2.853584 -6.2081256 -1.1093918 -3.6728208 -3.0214472 -1.1481282
-0.95266014 -2.0341167 -2.6557527 -3.055006 -2.4215672 -0.2280953 -0.8663032 0.1153124

bias f4 [20]
00000000: d2b9 6b3d 6d31 2dc0 3131 f53e 0cdf 89be
00000010: 1a79 83bf be8e 983c 8ccc 1c3f 0aa4 1dc0
00000020: 8c9a 2c3f 2a71 5c3f 6ba3 f43f 248a 73be
00000030: 9985 f1bf 4d24 673e 26b7 ee3f 21f3 4fbf
00000040: 280a 953d 31dc 3bbf 1e1a 93bf 10b7 c3bf
0.05755026 -2.7061417 0.47889093 -0.26927984 -1.0271332 0.018622752 0.61249614 -2.4631371
0.6742332 0.86110175 1.9112371 -0.23783165 -1.8868896 0.22572441 1.8649642 -0.8123036
0.07277328 -0.7338286 -1.1492345 -1.5290241

weight f4 [15, 20]
00000000: 538d 2940 fa2f 7f3f c521 913f 401c a4c0
00000010: c08c 543f 4540 9d3f ffcb a3bf 3908 5cbf
00000020: 2a47 5e3e c3be 67bd c58f 0cc0 318c 92be
00000030: 325f 523f e9ac 6740 937c 15c0 7bd3 ea3f
00000040: b140 bcbf e14e 31bf e049 4f3f 2ec9 5c40
00000050: f24a a23f 78ca 903e 7db4 21bf 8bb9 6c3f
00000060: 64ec 3dbe 88d1 423f f8a1 a9bd 8999 953f
00000070: 4dc7 753f e96b f5be 13ac 95bf 1c45 04bf
00000080: 098d cc3e 8515 6e3f 898a e9bf eada 1e3b
00000090: 4b9e babf 7215 623f c2e6 2bbf b3c7 823f
000000a0: e412 e6c0 96ac 3ebf 7998 993d cea4 82bf
000000b0: 270c 46be cf33 9ebf 8f90 4240 9fb7 f8bf
000000c0: 7a9c 0bc0 f4b7 50bd cb44 953f c3db d43e
000000d0: 63da 463f 016d b6be ec2f 8ebd 5256 a1bf
000000e0: 9e51 9f3f 0287 49be 8b1d e7be 3c43 43c0
000000f0: 8878 b23e 903a 97be 49d7 bdbf b3f7 5740
00000100: 7ead 6c40 5012 ab3f 3f7d a43f 8e9e 2340
00000110: 106f bc3f 40d1 6e3f 3f8b ea3f b4c9 633d
00000120: a64b c7be 4d91 f6bf 2ea1 45c0 ece1 b6be
00000130: 1732 0a40 cbfd 123e b433 263e 48fb 683f
00000140: a695 cf3e 07e9 753e 6f84 1840 f6cd 01c0
00000150: 874d e0bf c247 a3bf 052d 97c0 24c0 6e3f
00000160: cdf1 29c0 9f35 36bf 896a 913f 42e6 e0c0
00000170: 1c75 cc3f 68a0 163c 56be f73e 7e4d 983f
00000180: 1001 89be dece 4dc1 ab42 15be 45b3 3a3f
00000190: e17f 84bf d887 d5bf f8aa 213f fd03 55c0
000001a0: c966 143f 9cf0 64bf b11d 59be 2771 9ebf
000001b0: d0b2 9e3f 6f82 86bd ad2a 9cbe 92b0 d9be
000001c0: 7473 87c0 054a efbe 0bb0 adbe 8a3e 433f
000001d0: ecfb ff3f e327 51bf 09bc 1dbf 6976 5fbf
000001e0: 43b1 cf3f 5ae9 663d b3f1 bbbf c615 c2bf
000001f0: 31f5 87c0 f556 91bf 617a 983f c93e b7bf
00000200: 77ef 5cc0 55a1 25bf ba15 48bf 3624 d03e
00000210: 25b0 a33d 51aa e5be b973 323f 6437 7abe
00000220: 609b a23e b595 203f 2ec0 7e3f 7006 adbe
00000230: cc49 9fbc 6b2d 31be e84b 743e 38f4 1b3e
00000240: f479 c1bd b014 ffbd 3428 84bd 47ca 06be
00000250: b143 88bd 2297 3fbe 13dc ebbd cad2 7dbe
00000260: 01b6 e7bd 6f76 8fbd 0c4f 8bbe e341 0e3e
00000270: 743a 473e 71f6 a43d 6d42 443e 9270 0abe
00000280: c58a bfc0 f610 933e 013c 0fc0 5e15 1140
00000290: b7fa f13e ad7e a73f 58df 983f b92e 3540
000002a0: 6156 59bd 8590 d8be a82a 46be 0253 f03e
000002b0: 25d6 e0c0 7d0a 16c1 1bc3 51bd 2535 39c0
000002c0: a7ec ab3f 6d60 8b3f fc12 a23f e5e8 043f
000002d0: f4ba 7c3f 6db5 05bf de20 0840 c1a3 5cbf
000002e0: 4db9 303f d376 453f 3141 a33f cade 683f
000002f0: 8ba8 3940 e362 ae3f 1529 063f fe15 f4be
00000300: 6572 3ebe f07a b23e 812d 67c0 81ce c83f
00000310: af43 923e 50d2 f1bd 9b78 88bd 4d68 073f
00000320: 29ae 9e3f 2059 2dc0 c43b f03e a091 ccbd
00000330: 8fcd d0be a79c ae3f 21ad 07be 5f14 c4be
00000340: 4fdf 943f a421 adbf 3452 0ec0 b6c0 073d
00000350: 496f 8c3f 0d29 173f 41d3 febd 5709 9abb
00000360: 53a1 59bf f932 483d 3226 43bf efb7 123f
00000370: a833 1340 99a7 40c0 6bfb 90bf 2f8a 8e3f
00000380: 2aef afbf fab0 07bf 52eb 703f 1d45 ccbf
00000390: dd36 1d3f 6f50 e83e cb2e 43bf 8eb1 c33e
000003a0: 30aa 4440 0959 c5c0 4172 d03d f08b 0440
000003b0: c250 66be ca31 933d f931 27bf 0c3d d8be
000003c0: ec1c 1cbe e494 893f 79fa f3bf 03e9 ef3f
000003d0: 04a3 9b3f 1c94 373f 46be 923f ea14 4040
000003e0: 149e b7be a5b2 46c0 f00f 84be 1a1e ecbf
000003f0: 6f5a 68bf ec66 e3bd 070e 32c0 8be2 3fbf
2.6492507 0.9968258 1.1338431 -5.1284485 0.8302727 1.2285239 -1.279663 -0.85950047
0.21706834 -0.05657841 -2.196275 -0.28622583 0.82176507 3.6199286 -2.3357284 1.8345789
-1.4707242 -0.69260985 0.809721 3.449779 1.2679121 0.2827947 -0.6316603 0.92470616
-0.18547207 0.7610097 -0.08282846 1.168748 0.96007234 -0.4793389 -1.1693138 -0.5166795
0.3995135 0.93001586 -1.8245403 0.002423937 -1.4579557 0.8831397 -0.67148983 1.0217193
-7.189806 -0.74482095 0.07499785 -1.0206544 -0.19340573 -1.2359561 3.0400732 -1.9431037
-2.1814256 -0.05095668 1.1661619 0.41573915 0.7767698 -0.35630038 -0.06942734 -1.2604468
1.2446783 -0.19680408 -0.45139727 -3.0509787 0.34857583 -0.29536867 -1.4831325 3.3744934
3.6980891 1.3364964 1.2850722 2.5565524 1.4721394 0.9328804 1.8323745 0.05561228
-0.38924903 -1.9263092 -3.0879626 -0.3571924 2.1593072 0.14354627 0.1623066 0.91008425
0.4054386 0.24014674 2.383083 -2.0281959 -1.752366 -1.2756274 -4.7242455 0.93261933
-2.6553833 -0.7117557 1.1360637 -7.0281076 1.5973239 0.009193517 0.48387402 1.1898649
-0.26758623 -12.863005 -0.14576213 0.72929794 -1.0351526 -1.6682081 0.631515 -3.3283684
0.5796934 -0.8942964 -0.21202733 -1.2378281 1.2398319 -0.06567847 -0.3050131 -0.42517525
-4.2328434 -0.4673616 -0.33923373 0.762673 1.9998755 -0.8170149 -0.61615044 -0.87290055
1.6225971 0.056374885 -1.4683136 -1.5162895 -4.2486806 -1.1354662 1.1912347 -1.4316036
-3.4521158 -0.646993 -0.7815815 0.40652627 0.07992581 -0.44856504 0.6970783 -0.24435192
0.31759167 0.62728435 0.9951199 -0.33793974 -0.019444369 -0.17302482 0.23857081 0.15229881
-0.09447089 -0.12455118 -0.06452981 -0.131631 -0.06653536 -0.18709996 -0.11516585 -0.24787441
-0.11314011 -0.07005011 -0.27208745 0.13892321 0.19455892 0.080548175 0.19165964 -0.13519505
-5.9856896 0.28723878 -2.2380373 2.2669291 0.47261593 1.3085533 1.1943159 2.8309767
-0.053060893 -0.4229776 -0.1935221 0.4693833 -7.0261407 -9.377561 -0.051211458 -2.8938687
1.3431596 1.0888802 1.2662044 0.5191787 0.9872277 -0.5222996 2.127006 -0.8618737
0.69032747 0.77134436 1.275427 0.9096495 2.900912 1.3623928 0.52406436 -0.4767303
-0.18598326 0.3485942 -3.6121523 1.568802 0.28567263 -0.11807692 -0.06663629 0.52893525
1.23969 -2.7085648 0.46920598 -0.09988713 -0.4078183 1.3641557 -0.13249637 -0.38296792
1.1630648 -1.3525891 -2.2237673 0.033142768 1.0971462 0.59047014 -0.12442637 -0.0047008204
-0.85011786 0.048876736 -0.76230156 0.5731191 2.3000278 -3.0102293 -1.1326727 1.113592
-1.3744862 -0.5300442 0.9410907 -1.5958592 0.6141184 0.45373866 -0.76243275 0.382214
3.0728874 -6.1671185 0.10178042 2.071041 -0.22491744 0.07187231 -0.6531063 -0.42234075
-0.15245408 1.0748563 -1.9060813 1.8742985 1.2159123 0.7171037 1.1464317 3.0012765
-0.35862792 -3.1046536 -0.2579341 -1.8446686 -0.9076299 -0.11103615 -2.7821062 -0.7495505

bias f4 [15]
00000000: ba79 b6be 65cd 76bf 50d6 4d3e 3beb 2ebf
00000010: fa12 513d 9fef 763f 2c38 6cbd ac39 dbbd
00000020: 1022 9d3d b45d 03bf 98c2 8fbf bf8b 79bf
00000030: 56ba a1bf 1e17 a2be c33f d7be
-0.35639745 -0.9640716 0.20101285 -0.68327683 0.051043488 0.9645938 -0.057670757 -0.107043594
0.076725125 -0.51314855 -1.123126 -0.9747886 -1.263499 -0.31658262 -0.42040834

weight f4 [9, 15]
00000000: b0d0 68bf 325d 663f e6f5 92c0 c8a1 bb3e
00000010: b907 f5bf a5a1 2cc0 a908 2dc0 c2a0 c1be
00000020: 6919 9d3f 62e7 b6be 12fa 84bf 6638 29c0
00000030: 5af6 a53f 3d81 b23f 988a 0bbf 1a5a 4ac0
00000040: 1014 7e3f 7007 9b3e 17f5 31bd 362e 15be
00000050: 7103 be3e eb44 9fbe d809 ce3d 9f9c 0d3f
00000060: 411b 0cc1 efa0 293f a1c5 fe3e c45f 2cc0
00000070: cf2c b4be 7ffd 54bf 1ed0 39c0 a0d6 01bf
00000080: f1b5 b33e bb7e 37be a1bf b7bf 89f5 96bf
00000090: bbb5 5ebf 279c f93d 1ab1 bd3e e3be 0bbf
000000a0: 2899 97c0 b83f 833f b156 f3be b963 64be
000000b0: d001 91be b1ae 623f ef1b 143f 347e cabf
000000c0: bfeb cbbd 0958 17c1 8391 febf 77e4 f2c1
000000d0: 3a24 5e3e 6f8a 2cbf dd98 f33e 2dfc a53d
000000e0: 67ac d4bf 69b6 b4c0 af03 4ac0 838d 3040
000000f0: a233 ba3f 9576 7d3d dff8 0ac1 a6fa 52bf
00000100: 8e55 a7c0 1251 55c0 86df 29c0 1a1b 693e
00000110: 2650 37c0 5807 49c0 790e 3c3e 96b8 7cc0
00000120: 35dd 92bf 7b6d d7be ea44 33c0 1e03 5dc0
00000130: c5d0 8bbf a166 9bbe fc2a 283d aa25 153e
00000140: 59c5 bebe da36 9f3e a965 12bc f9eb 0cbf
00000150: f1eb 81c0 908f 29bf 07b8 febe 1796 1cc0
00000160: f755 b43e e966 68c0 9a88 94c0 22d4 61c0
00000170: ac4d d6bf 4b9b 2e3f 0d4b 7dc1 0ae1 3bbe
00000180: ba57 98c1 4da3 20be 893b 30c0 05f3 133f
00000190: 9497 aa3d cb3e 9d3f 8985 15c0 367f 2ebf
000001a0: bedc 30c0 4a6a 24c0 7cef 803f edf6 e5bf
000001b0: 31c3 8ebf 8e44 143f b1ec f8bf 114b 9bc1
000001c0: e5f8 ad3c 6875 5dbf 8e8f 163f 7273 4d3e
000001d0: 0afe a1bf 801f 10bf b17d 8c3f bda1 f23f
000001e0: b2c3 83be 8125 56bf 0e93 d4c1 4527 42c0
000001f0: e234 a33f 1ea5 f9bf b05d 01c0 1a58 4d3e
00000200: e2fd 22c0 1525 43c0 c2bb f8bf aedb ebc0
00000210: 0883 9c3e b030 5cc0 6fe8 8fbe
-0.9094343 0.89985955 -4.592517 0.36646867 -1.9142982 -2.697366 -2.7036536 -0.3781796
1.227338 -0.35723406 -1.0388815 -2.6440673 1.2965806 1.394569 -0.5450835 -3.1617494
0.9924936 0.30279112 -0.043446627 -0.1456841 0.37112 -0.31107268 0.10060471 0.5531711
-8.756654 0.6626119 0.49760154 -2.693345 -0.35190436 -0.83199304 -2.9033275 -0.50718117
0.35099748 -0.17919438 -1.4355356 -1.1793681 -0.8699605 0.12187987 0.3704918 -0.54588145
-4.737446 1.025382 -0.47527078 -0.22303666 -0.28321695 0.8854781 0.57855123 -1.5819764
-0.099570744 -9.458993 -1.9888157 -30.361555 0.21693507 -0.6739873 0.47577563 0.08104739
-1.6615113 -5.647267 -3.1564748 2.7586372 1.4547007 0.061880667 -8.68576 -0.8241371
-5.2291937 -3.3330731 -2.6542678 0.22764245 -2.8642669 -3.1410732 0.18364896 -3.9487662
-1.1473757 -0.42075714 -2.8010812 -3.4533153 -1.0923086 -0.30351737 0.041056618 0.14565149
-0.3725994 0.31096536 -0.0089353705 -0.55047566 -4.0600514 -0.66234684 -0.49749777 -2.4466608
0.35221836 -3.6312811 -4.641675 -3.5285726 -1.6742454 0.6820571 -15.830823 -0.18347564
-19.042835 -0.15687294 -2.7536337 0.57792693 0.083296925 1.2284788 -2.3362753 -0.6816286
-2.763473 -2.5689874 1.0073085 -1.7965981 -1.1153318 0.57917106 -1.9447232 -19.411654
0.021236846 -0.8650727 0.588128 0.2006357 -1.2655652 -0.56298065 1.0975858 1.8955609
-0.2573524 -0.83650976 -26.571804 -3.0336468 1.2750514 -1.9503515 -2.0213432 0.2005314
-2.5467458 -3.0491383 -1.9432299 -7.3705664 0.3056872 -3.4404716 -0.2810702

bias f4 [9]
00000000: 069c c6c0 9f03 ccbd 9556 46c1 af4c ccc0
00000010: 513d a5c0 17f9 cb3d 68cc eac0 f99d 3dc1
00000020: e47c 0bc1
-6.206546 -0.09961628 -12.396138 -6.384361 -5.163735 0.099596195 -7.337452 -11.851068
-8.717991
