models/basic_model.pth (torch, 18288 bytes, 6 tensors)

weight f4 [38, 68]
0	0xbcee0cfb	-0.029058924
1	0xbdc122ed	-0.0943049
2	0xbc90af56	-0.017661732
3	0xbc6579fb	-0.014006133
4	0xbdbed6ee	-0.09318338
5	0x3d661157	0.05616888
6	0xbd4d8ae3	-0.05018128
7	0xbd5a0c26	-0.053234242
8	0x3dd38f4b	0.10330065
9	0xbd9c0d4e	-0.07619725
10	0xbc532f8d	-0.012889755
11	0xbdd31214	-0.103061825
12	0x3b535f22	0.0032252748
13	0xbd4c2168	-0.049836546
14	0xbdde6c16	-0.108604595
15	0xbd78e8ac	-0.06076877
16	0xbd874b4b	-0.06606158
17	0x3d87ab26	0.06624441
18	0x3c8a08cd	0.0168499
19	0x3dbd6203	0.0924721
20	0x3dbf7669	0.09348757
21	0xbdde2489	-0.10846812
22	0x3da2583f	0.07926988
23	0x3db4ee7d	0.088345505
24	0xbdc95102	-0.09829904
25	0x3dea3ca2	0.11437346
26	0x3c9e8be2	0.01935381
27	0xbd9ebd71	-0.07750977
28	0xbcf8317e	-0.030297037
29	0x3d0062f4	0.03134437
30	0x3deadc30	0.11467779
31	0xbd0bd9e1	-0.034143332
32	0x3c2c105e	0.010501949
33	0x3a75024b	0.000934635
34	0x3da499e1	0.080371626
35	0x3c2e9704	0.010656122
36	0xbd3d5e04	-0.04623224
37	0xbdb3c812	-0.08778395
38	0xbdc3e024	-0.09564236
39	0xbd000d47	-0.031262662
40	0xbd90aab3	-0.07063808
41	0x3ce51015	0.02796177
42	0x3c6df90f	0.014524712
43	0x3de85e91	0.11346162
44	0xbd37cf56	-0.044875465
45	0x3bee89ad	0.007279596
46	0xba823c1a	-0.0009936125
47	0xbccff24a	-0.025384087
48	0xbdd74a79	-0.105122514
49	0x3b92d456	0.004480879
50	0xbd6ab8d2	-0.057305165
51	0x3c8bd51a	0.017069388
52	0xbd3057ad	-0.043052364
53	0x3d54a430	0.051914394
54	0xbdf51797	-0.1196739
55	0xbbc4e7f1	-0.006009095
56	0x3dd18c47	0.10231834
57	0xbd0f7be9	-0.03503028
58	0x3d7d49d1	0.061837975
59	0x3d73ccc3	0.059521448
60	0xbdf68e75	-0.1203889
61	0xbbe8c6ea	-0.0071037905
62	0xbd901297	-0.07034796
63	0xbd79837d	-0.060916413
64	0x3d90a170	0.07062042
65	0x3d6f0d20	0.058362126
66	0x3ca2c316	0.019868415
67	0x3b9548bf	0.004555791
68	0xbe829519	-0.25504377
69	0x3cd94100	0.026520252
70	0x3daccd0b	0.08437546
71	0x3d83da61	0.06438137
72	0xbc79f86e	-0.015256984
73	0x3d9ee60d	0.077587225
74	0xbc9e0453	-0.019289171
75	0x3d9197da	0.071090415
76	0xbc2f316f	-0.010692938
77	0x3d814a12	0.06312956
78	0x3c757f14	0.014983911
79	0x3cc8be02	0.024504665
80	0x3da091ab	0.07840284
81	0x3d4faf1e	0.050704114
82	0xbd6b1dc1	-0.057401422
83	0xbd9506b0	-0.07276666
84	0x3d03d012	0.032180853
85	0xbd6f6f77	-0.05845591
86	0xbc7d9510	-0.015477434
87	0xbd95445e	-0.07288431
88	0x3ca858af	0.0205501
89	0x3d9cabb2	0.07649936
90	0xbd3863ce	-0.045017056
91	0xbdc07b8a	-0.09398563
92	0x3c514265	0.012772177
93	0xbde015e6	-0.10941677
94	0x3c1b4972	0.00947796
95	0x3d4292f1	0.047503415
96	0xbd92dc3e	-0.07170914
97	0xbda6520a	-0.081211165
98	0xbd8b4c4f	-0.06801664
99	0xbdf675ce	-0.12034188
100	0x3cbfddc0	0.023421168
101	0x3d2a6ad5	0.04160579
102	0xbd73c8db	-0.059517723
103	0xbdc03338	-0.09384769
104	0xbc3b1a82	-0.011419894
105	0xbd8e631f	-0.069524996
106	0x3cf28a23	0.029606884
107	0xbd5e1331	-0.05421752
108	0x3df5d8f9	0.12004275
109	0xbd13336a	-0.035937704
110	0x3d1384ae	0.036015205
111	0xbd428a61	-0.04749525
112	0x3c5b7ef0	0.0133969635
113	0x3c8774bd	0.016535157
114	0xbdb2a498	-0.087228
115	0x3bae9716	0.0053280694
116	0x3d465482	0.048420437
117	0xbd8c72fb	-0.06857868
118	0xbd97fcc6	-0.074212596
119	0x3d41f844	0.047355905
120	0xbdd4fd0e	-0.10399829
121	0x3da8c615	0.08240906
122	0x3d073331	0.033007804
123	0x3dacaee4	0.08431795
124	0xbeb6506d	-0.35608235
125	0x3c90e24f	0.017686037
126	0xbca8b5a9	-0.020594435
127	0x3ed2fe55	0.41209665
128	0xbcee6f01	-0.029105665
129	0xbc651472	-0.013981925
130	0xbd74f060	-0.059799552
131	0x3b39061f	0.0028232408
132	0xbde24ee3	-0.11050203
133	0x3c8d6a48	0.017262593
134	0xbc81df22	-0.015853468
135	0xba3ee025	-0.0007281325
136	0xbefbcce2	-0.4917975
137	0xbde11e02	-0.10992052
138	0x3dac3eda	0.084104255
139	0xbdd72753	-0.105055474
140	0xbd5d20cd	-0.05398636
141	0xbd990a69	-0.07472689
142	0x3d46eddd	0.048566688
143	0x3d831b35	0.06401674
144	0xbdc6f6b1	-0.097150214
145	0xbd5f09af	-0.054452594
146	0xbd272a2a	-0.040811695
147	0xbcdd98c5	-0.027050385
148	0xbdd4449e	-0.1036465
149	0x3de8cab7	0.1136679
150	0xbaa93c38	-0.0012911623
151	0xbdb3b638	-0.0877499
152	0x3d9ecbfd	0.077537514
153	0x3c4d1adc	0.012518611
154	0xbdb40c31	-0.08791388
155	0xbc8dcf24	-0.017310686
156	0xbc95b881	-0.018276455
157	0x3de64de5	0.11245326
158	0x3cfa2438	0.030534849
159	0xbbb6cacd	-0.005578375
160	0x3dcc9135	0.099886335
161	0x3d5f7a9a	0.05456028
162	0xbdf8a229	-0.121403046
163	0xbdf0c6a0	-0.11756635
164	0x3cb7be68	0.02242966
165	0x3d42e18c	0.04757838
166	0xbddbfe34	-0.10741845
167	0x3cf0ad63	0.029379552
168	0xbddaec78	-0.10689634
169	0xbd072ab7	-0.03299972
170	0xbd2c4194	-0.042054728
171	0xbbf68074	-0.007522637
172	0x3d23d9a7	0.04000249
173	0x3cdfa3e8	0.027299836
174	0xbd79341a	-0.060840704
175	0xbd10efbd	-0.035384882
176	0x3dc1f2a2	0.09470107
177	0xbd2e82e5	-0.0426053
178	0xbdc91330	-0.09818113
179	0x3d9df910	0.077135205
180	0xbdf56b3b	-0.11983343
181	0x3d2b0169	0.04174939
182	0x3cd529c4	0.026020892
183	0x3ca0b0ac	0.019615494
184	0xbbe26567	-0.0069090608
185	0xbd99365e	-0.07481073
186	0xbd7a12bd	-0.061053026
187	0xbd669f8f	-0.05630451
188	0x3dedbb4c	0.1160799
189	0xbddebc5a	-0.10875769
190	0x3d09d8b4	0.03365393
191	0xbcd56b91	-0.026052268
192	0x3ed5c1be	0.41749376
193	0xbe8bf1b4	-0.27332842
194	0xbd5358a6	-0.051598214
195	0x3e74a629	0.2389151
196	0x3cccc278	0.024995074
197	0xbd805102	-0.06265451
198	0x3c63d89a	0.013906622
199	0xbdb01b03	-0.08598902
200	0xbcbc7bfe	-0.023008343
201	0xbdcff654	-0.10154405
202	0xbdf5a3fe	-0.1199417
203	0x3d3a7afd	0.045527447
204	0x3d3695ab	0.04457633
205	0xbdea91ed	-0.114536144
206	0x3da73cfb	0.08165928
207	0x3d0ea467	0.034824755
208	0xbde222fd	-0.1104183
209	0x3dcd82ef	0.10034739
210	0x3d85f3e5	0.0654066
211	0xbd33afb4	-0.043868735
212	0xbd94cad8	-0.07265252
213	0x3d386330	0.045016468
214	0x3b5bb357	0.0033523643
215	0xbd6430b3	-0.055710506
216	0xbd5dd82f	-0.054161247
217	0xbd8ab4cc	-0.067727655
218	0x3dc4bdc4	0.096065074
219	0x3dd94fc1	0.10610915
220	0xbd201d99	-0.039090727
221	0xbd6c0c67	-0.057629015
222	0xbdd2e7c9	-0.10298116
223	0x3dec7125	0.11545018
224	0x3d773eeb	0.060362738
225	0xbd4f76de	-0.05065047
226	0x3d3e5ca4	0.046475068
227	0xbd060c45	-0.032726545
228	0x3dda6d9f	0.1066544
229	0xbcb7ee75	-0.022452572
230	0x3c45b828	0.012067832
231	0x3dbdb2d3	0.09262624
232	0x3db1f3e5	0.08689097
233	0xbd8586d1	-0.06519855
234	0xbd1bf6e5	-0.038077254
235	0xbc07c27c	-0.008286115
236	0x3cbcdd19	0.023054646
237	0xbdd7c767	-0.1053608
238	0x3cc6653f	0.0242182
239	0x3d9e8391	0.07739938
240	0x3d45893b	0.048226576
241	0x3d737c87	0.05944493
242	0xb8b760a2	-8.744119e-05
243	0x3dfa2b78	0.12215322
244	0xbd069562	-0.032857306
245	0x3d8d2035	0.06890909
246	0xbc46eb8c	-0.01214112
247	0x3bb79a53	0.0056031137
248	0x3d9c0911	0.07618917
249	0x3d1b3571	0.037892763
250	0xbda04380	-0.078253746
251	0xbd26e9fa	-0.04075048
252	0x3df567b0	0.119826674
253	0xbdd56c5e	-0.1042106
254	0x3d2598f6	0.040429078
255	0xbcc96af5	-0.024587134

bias f4 [38]
0	0xbdd8cecb	-0.10586318
1	0xbd68899a	-0.056771852
2	0xbd8fbeeb	-0.070188366
3	0xbd0b967a	-0.034079053
4	0xbe459add	-0.19297357
5	0xbccc17d0	-0.024913698
6	0x3d7ea619	0.06217012
7	0x3dd96edf	0.1061685
8	0x3e022be2	0.12712052
9	0x3d716b32	0.05894012
10	0x3de0376e	0.109480724
11	0xbe274f8d	-0.1633894
12	0xbdccd813	-0.100021504
13	0xbd7a5081	-0.06111193
14	0x3e0da78a	0.13833442
15	0x3c76ad60	0.015055984
16	0x3ddcc53c	0.10779807
17	0xbd8bc032	-0.06823768
18	0xbdb67d4c	-0.08910617
19	0x3e322039	0.17395104
20	0xbe02177c	-0.12704271
21	0x3d7048b3	0.05866308
22	0xbe133477	-0.14375482
23	0xbd27f210	-0.041002333
24	0x3e265908	0.162449
25	0xbcb4180a	-0.021984119
26	0xbd9fee38	-0.078091085
27	0xbdc5981a	-0.09648152
28	0x3dd62423	0.10456111
29	0x3d458f09	0.048232112
30	0xbd77292c	-0.060342
31	0xbd7fc808	-0.062446624
32	0x3d189370	0.037249982
33	0x3dd2d4bc	0.10294482
34	0xbdda669f	-0.10664105
35	0xbd60f6f1	-0.054923
36	0x3e15b4a9	0.14619698
37	0x3d92b30e	0.07163058

weight f4 [15, 38]
0	0x3e18c2d4	0.14918071
1	0x3ec4e2ed	0.3845438
2	0xbd2f8e0e	-0.042860083
3	0xbd6d4875	-0.05793043
4	0x3e716203	0.23572545
5	0xbd8aa1a6	-0.06769113
6	0x3db97c22	0.090568796
7	0x3dc12ddc	0.09432575
8	0xbbf378c3	-0.0074301674
9	0x3dcfbc23	0.10143306
10	0x3d45722f	0.048204597
11	0x3f00e1eb	0.50344723
12	0xbd0ad817	-0.033897486
13	0xbdc52029	-0.09625275
14	0xbe1848ec	-0.14871567
15	0xbd538276	-0.05163809
16	0xbd1bb9ba	-0.03801892
17	0x3debebbe	0.11519574
18	0xbce3edb2	-0.027823303
19	0xbd96964c	-0.073528856
20	0x3ef932d3	0.48671588
21	0xbdc36629	-0.0954097
22	0xbd40a379	-0.0470309
23	0x3de55db3	0.11199512
24	0xbba62343	-0.0050701215
25	0xbe08a527	-0.1334425
26	0x3f072067	0.5278382
27	0x3edb0144	0.42774403
28	0xbb8d2a0c	-0.004307991
29	0xbd99f1e9	-0.07516844
30	0xbd6ed002	-0.05830384
31	0xbcfa28a3	-0.030536955
32	0xbc270dce	-0.010196162
33	0x3e0b47a8	0.13601553
34	0x3f1280e2	0.5722791
35	0xbdd8b090	-0.105805516
36	0x3d8354d3	0.06412663
37	0xbc348458	-0.011017881
38	0x3d8f542c	0.069984764
39	0xbe56920e	-0.20954153
40	0xbe558fe3	-0.2085567
41	0x3e126a52	0.1429837
42	0x39412440	0.00018419418
43	0xbe668887	-0.22513019
44	0xbd6e5921	-0.05819047
45	0xbd33959a	-0.043843843
46	0xbcba373c	-0.022731416
47	0xbcd24ba8	-0.025670841
48	0xbcc44e30	-0.023963064
49	0xbe0610a2	-0.13092282
50	0xbe0f59fa	-0.13999167
51	0xbe6cb070	-0.2311418
52	0x3df0f250	0.117649674
53	0xbcb1ab3f	-0.021688102
54	0xbd683353	-0.05668957
55	0xbe4d8bb0	-0.20072818
56	0xbdbf9ff3	-0.0935668
57	0x3de5cfaa	0.112212494
58	0xbdf840e6	-0.121217534
59	0xbd861f07	-0.06548887
60	0xbe43066b	-0.19045417
61	0x3e0cbf15	0.13744767
62	0x3d4cca94	0.04999788
63	0xbd325ad3	-0.043543648
64	0xbdac3b8d	-0.08409796
65	0xbddbce36	-0.10732691
66	0xbda13e13	-0.07873168
67	0x3e0d4d4f	0.13799022
68	0xbe3b005a	-0.18261853
69	0xbdf63445	-0.12021688
70	0x3e2d1afa	0.16904822
71	0xbd8978de	-0.06712507
72	0xbda0866a	-0.078381374
73	0xbb891876	-0.004183824
74	0xbd1cb3ef	-0.038257536
75	0xbda2ff4e	-0.07958852
76	0xbe02060f	-0.12697624
77	0xbdab6b1e	-0.0837004
78	0xbdb08e05	-0.08620838
79	0xbd90a932	-0.070635214
80	0xbe055300	-0.13019943
81	0xbd36b178	-0.04460284
82	0xbd2750db	-0.040848594
83	0xbde42d33	-0.111414336
84	0x3ed18758	0.40923572
85	0x3e7cd81b	0.24691813
86	0xbd8de86a	-0.06929095
87	0xb858b4df	-5.1666862e-05
88	0xbe0eaa8e	-0.13932249
89	0xbe0e4368	-0.13892901
90	0x3ec8e8fc	0.39240253
91	0x3f04cd22	0.5187551
92	0x3ef7172e	0.48259872
93	0xba05c5fe	-0.00051030505
94	0xbdad5b81	-0.084647186
95	0x3ed44c98	0.41464686
96	0xbd44eac8	-0.048075467
97	0xbdb58e7c	-0.08865067
98	0xbe16bac0	-0.14719677
99	0xbe099f23	-0.13439612
100	0xbd52e51e	-0.051488034
101	0xbe0621d6	-0.13098845
102	0xbd9def0b	-0.077116095
103	0xbd44817a	-0.04797504
104	0xbddde2ee	-0.10834299
105	0xbd9a8f4e	-0.075468644
106	0xbd7efb69	-0.062251482
107	0x3eacb4af	0.337316
108	0xbd185597	-0.037191
109	0xbd25093f	-0.04029202
110	0x3ba2872f	0.004959963
111	0xbd411889	-0.04714254
112	0x3ecfbba4	0.40572846
113	0x3e9fbd5f	0.31199166
114	0x3e04458f	0.1291716
115	0xbe1c1d59	-0.1524557
116	0xbdaef9a5	-0.0854371
117	0xbe1bcb30	-0.15214229
118	0x3e99f9a1	0.30073264
119	0x3e09c7e0	0.13455153
120	0xbe25761a	-0.16158333
121	0xbde628d5	-0.11238257
122	0xbe1b7626	-0.15181789
123	0x3dce0f02	0.10061456
124	0xbd80864f	-0.06275617
125	0xbdb1cc5c	-0.086815566
126	0x3d8851ee	0.06656252
127	0x3d9e20d4	0.07721105
128	0xbd0b295c	-0.03397499
129	0x3dbd609c	0.092469424
130	0xbc869dc2	-0.016432647
131	0x3e2d502a	0.16925111
132	0x3ec51439	0.3849199
133	0xbe141718	-0.14461935
134	0xbe11617e	-0.14197347
135	0x3e175c1f	0.14781235
136	0xbd69d2bf	-0.05708575
137	0xbd2efcef	-0.042721685
138	0xbe0bd243	-0.13654427
139	0xbc10b9b6	-0.008833339
140	0xbd8c38a3	-0.0684674
141	0xbdf5e90e	-0.12007342
142	0xbde74ee9	-0.11294348
143	0x3e8f5c27	0.27999994
144	0xbdf8fe14	-0.121578366
145	0xbd0b73b2	-0.034045883
146	0x3e9c05f2	0.30473286
147	0x3dca9014	0.09890762
148	0xbd80dab7	-0.062917165
149	0xbd29c90c	-0.0414515
150	0x3d9a9813	0.07548537
151	0x3d921ba2	0.07134177
152	0xbcc783d1	-0.024354847
153	0xbe98ad32	-0.29819638
154	0xbeaaf563	-0.3339034
155	0x3e0e2288	0.1388036
156	0x3bc65d49	0.006053601
157	0xbebb8b74	-0.36629832
158	0x3bc6f218	0.0060713403
159	0x3d3df348	0.04637459
160	0x3e07e2e4	0.13270146
161	0x3e00bdea	0.12572446
162	0x3df62466	0.12018661
163	0xbe870464	-0.26370537
164	0xbd26c7fd	-0.040718067
165	0xbebfe074	-0.37475932
166	0x3d4b65e3	0.049657714
167	0x3d8419d0	0.06450236
168	0x3d90d5e6	0.07072048
169	0xbeac3fc4	-0.336424
170	0x3d7483de	0.05969607
171	0xbdd58494	-0.10425678
172	0xbe8504d2	-0.2598024
173	0xbe138838	-0.14407432
174	0x3c969119	0.018379735
175	0x3e0aca67	0.13553773
176	0x3d78e0d4	0.060761288
177	0xbe5e2e88	-0.21697438
178	0xbe7c7d4c	-0.24657172
179	0xbe2b0c58	-0.16703928
180	0x3d5dc394	0.054141596
181	0x3ca737b5	0.020412305
182	0xbea83eb3	-0.32860336
183	0xbdc340e3	-0.095338605
184	0x3d7262ed	0.059176374
185	0x3ddc1d1d	0.107477404
186	0xbe5d7b21	-0.21629001
187	0xbc28d27e	-0.0103040915
188	0x3d1ce8b3	0.038307857
189	0xbc8d0b02	-0.017217163
190	0x3e220956	0.15823874
191	0xbd65131f	-0.05592644
192	0xbd0e1bc1	-0.034694437
193	0x3da3de5c	0.08001396
194	0x3de4b9e9	0.11168272
195	0x3eca4f37	0.3951356
196	0xbd804df8	-0.06264871
197	0xbd60bff0	-0.054870546
198	0x3b9b304f	0.0047359834
199	0xbde84c4b	-0.11342677
200	0x3c054391	0.008133785
201	0xbd9b29a9	-0.075763054
202	0x3e028b40	0.12748432
203	0xbe238073	-0.15966968
204	0xbbdcb9f7	-0.006736036
205	0xbd742e9a	-0.059614755
206	0xbddb9bb5	-0.10723058
207	0xbc4af7d0	-0.012388185
208	0x3e3b0a1c	0.18265575
209	0xbdfbd5c1	-0.1229663
210	0x3e33bd96	0.1755279
211	0xbc073287	-0.008251793
212	0xbd27db8a	-0.040980853
213	0x3d85edcd	0.065394975
214	0xbdddcb0a	-0.10829742
215	0xbd126b57	-0.0357469
216	0xbc935997	-0.017987056
217	0x3ead17b3	0.33807144
218	0xbddd2afd	-0.10799215
219	0x3d54f9cc	0.051996037
220	0xbd9dccc6	-0.07705073
221	0xbdbf4c52	-0.09340729
222	0xbd502ff4	-0.05082698
223	0x3b96c06b	0.0046005747
224	0xbd1acca7	-0.037792828
225	0xbdd60bcd	-0.104514696
226	0xba89ba32	-0.0010507761
227	0xbc5b4de2	-0.013385268
228	0x3b2e373d	0.0026583218
229	0x3dfff259	0.12497396
230	0xbd1fef10	-0.039046347
231	0x3c41c9d3	0.011827904
232	0xbd0b0db8	-0.03394863
233	0xbd5f974e	-0.054587655
234	0x3f0b21d6	0.54348505
235	0x3ee967d2	0.4558702
236	0x3e8517e7	0.259948
237	0x3e8ea43d	0.2785968
238	0x3edb06ba	0.4277857
239	0xbe092873	-0.13394336
240	0xbdf58494	-0.11988178
241	0xbdbe9cbe	-0.0930724
242	0x3e911ee3	0.28343877
243	0xbe02299a	-0.12711182
244	0xbdaf2983	-0.085528396
245	0xbc864b09	-0.016393201
246	0x3a8713ea	0.0010305617
247	0x3ea328b6	0.31866997
248	0xbae2e13d	-0.0017309558
249	0xbdc7fa09	-0.09764487
250	0xbe0b04ea	-0.13576093
251	0xbc13fc33	-0.009032297
252	0x3ec05361	0.37563613
253	0xbda07408	-0.07834631
254	0xbd461602	-0.048360832
255	0xbc888d18	-0.016668841

bias f4 [15]
0	0xbcd8f045	-0.026481757
1	0x3f4163fa	0.7554318
2	0xbbc414ae	-0.0059839105
3	0xbf0c3ab7	-0.5477709
4	0x3f790b27	0.9728264
5	0xbddd6e08	-0.108120024
6	0xbca6c1f4	-0.020356156
7	0x3fc9aa1f	1.5755042
8	0x3e12e064	0.1434341
9	0xbdf9881f	-0.12184166
10	0x3c140d96	0.009036442
11	0x3e9beddd	0.30454913
12	0x3f22b640	0.6355934
13	0x3eeb3c29	0.45944336
14	0x3ea08c36	0.31356972

weight f4 [9, 15]
0	0xbf56588d	-0.8372887
1	0xbf0239f2	-0.5086967
2	0x3ef7122d	0.48256055
3	0x3e842793	0.25811443
4	0xbf26c9ce	-0.6515168
5	0xbf20d503	-0.6282503
6	0x3f0e651c	0.5562303
7	0xbfb98d55	-1.4496256
8	0xbe2b0c72	-0.16703966
9	0xbf9a6c41	-1.2064286
10	0xbf16c232	-0.5889007
11	0xbe54d3c5	-0.20783909
12	0xbec95754	-0.3932444
13	0xbe35ab04	-0.17741019
14	0xbe9e2c11	-0.30892995
15	0xbc69bb62	-0.014265867
16	0xbf2501c2	-0.6445581
17	0xbe32ea06	-0.17472085
18	0x3dccdf0a	0.10003479
19	0xbf70fc78	-0.94135237
20	0x3d54775c	0.051871642
21	0xbe8a8713	-0.27056178
22	0xbf375b86	-0.7162403
23	0xbbd60bcf	-0.0065321694
24	0xbcc16cf2	-0.02361152
25	0x3d54554b	0.051839154
26	0xbecc93da	-0.39956552
27	0xbecbc253	-0.39796695
28	0xbee48211	-0.44630483
29	0xbeac2011	-0.33618215
30	0x3bac64b8	0.00526103
31	0xbf29fdcc	-0.6640289
32	0xbe1f6086	-0.15564165
33	0xbe687868	-0.22702181
34	0xbf6c4c4e	-0.9230393
35	0x3dc5c882	0.096573845
36	0xbe77b663	-0.24190669
37	0xbf286693	-0.65781516
38	0xbde435e3	-0.111430906
39	0xbd34de23	-0.04415716
40	0x3d5ec208	0.05438426
41	0xbf041adf	-0.516035
42	0xbf0d9321	-0.55302626
43	0xbf047f54	-0.5175679
44	0xbe906b46	-0.28206843
45	0x3e2c37f2	0.16818216
46	0xbf0cde8f	-0.550271
47	0xbc23bfe9	-0.009994485
48	0x3d76d513	0.060261797
49	0xbf87f7ab	-1.0622457
50	0xbe6a03fd	-0.22853084
51	0xbe4d29a5	-0.20035417
52	0xbf4ca31d	-0.7993639
53	0xbe20c115	-0.15698655
54	0xbe5a458d	-0.21315594
55	0xbe35c1b1	-0.17749669
56	0xbf053a09	-0.5204168
57	0xbf4b45b2	-0.7940322
58	0xbf61f14f	-0.8825883
59	0xbf3292fb	-0.69755524
60	0xbe279103	-0.16363911
61	0xbf469dab	-0.7758433
62	0xbd8f0a7c	-0.069844216
63	0xbe5cb93e	-0.2155504
64	0xbf80c346	-1.0059593
65	0xbd0fe0c9	-0.03512648
66	0xbe334aa6	-0.17508945
67	0xbf9c318b	-1.2202619
68	0xbead81d8	-0.33888125
69	0xbe4fb56b	-0.20284049
70	0xbe9bf6df	-0.30461785
71	0xbf69642e	-0.9116849
72	0xbf39e474	-0.72614217
73	0xbf2b6da2	-0.6696416
74	0xbf149a8d	-0.58048326
75	0x3ddba187	0.10724168
76	0xbef019e8	-0.46894765
77	0xbd7ebf53	-0.06219418
78	0x3da0485e	0.07826303
79	0xbf51db80	-0.81975555
80	0xbdc36568	-0.09540826
81	0xbe824e86	-0.25450534
82	0xbf578ede	-0.84202373
83	0xbe82122b	-0.25404486
84	0x3bb8cbe2	0.005639539
85	0x3db7c75f	0.08973574
86	0xbe78539f	-0.24250649
87	0xbede08c3	-0.4336606
88	0xbf362f7f	-0.71166223
89	0xbda44018	-0.080200374
90	0x3ee133da	0.43984872
91	0xbe5b66ff	-0.21426009
92	0xbea453b9	-0.32095125
93	0xbec04604	-0.37553418
94	0xbef80f32	-0.48449093
95	0x3dae9e86	0.0852633
96	0xbeb5a4da	-0.35477334
97	0x3e30c1f4	0.17261487
98	0xbcf64bc0	-0.030065417
99	0x3c991acc	0.018689536
100	0xbd780962	-0.060555823
101	0x3c850d24	0.016241618
102	0x3d7a6845	0.061134595
103	0x3d013e67	0.031553652
104	0xbebe3599	-0.37150267
105	0xbf499bfe	-0.7875365
106	0x3f1a5eff	0.603012
107	0xbf8145d2	-1.0099432
108	0x3f2f0cf1	0.6837912
109	0x3f65aca1	0.89716536
110	0x3e17727a	0.14789763
111	0xbf7e07b2	-0.9923049
112	0x3f6938f3	0.9110252
113	0xbdeb436d	-0.1148747
114	0x3ed7eec6	0.42174357
115	0x3eab4cf6	0.33457154
116	0xbe5c051a	-0.21486321
117	0x3f48f54d	0.784993
118	0x3ec016cc	0.37517393
119	0x3de5e2c2	0.11224891
120	0xbe59b633	-0.2126091
121	0x3eead305	0.4586412
122	0xbdc1b7d6	-0.09458892
123	0xbeb9352a	-0.36173373
124	0x3f1914ce	0.5979737
125	0xbd288525	-0.0411426
126	0xbe43cf1e	-0.19121978
127	0x3e9fa207	0.31178305
128	0x3e37765c	0.17916244
129	0xbe42fd31	-0.19041897
130	0x3ea1e258	0.31618
131	0x3e453594	0.1925872
132	0xbe94c50b	-0.29056582
133	0x3e86544a	0.26236182
134	0x3e467d70	0.19383788

bias f4 [9]
0	0x3fb3566b	1.4010748
1	0xbf781435	-0.96905833
2	0xbf51579e	-0.8177432
3	0xbfc09271	-1.504469
4	0xbfc11621	-1.5084878
5	0xbfb65793	-1.4245476
6	0xbff313d2	-1.8990424
7	0xc0858b10	-4.1732254
8	0xc02cc2e3	-2.699395
