models/basic_model.pth (torch, 17968 bytes, 6 tensors)

weight f4 [38, 68]
1.2094613 0.35578412 0.062152356 -0.07162003 -0.11831821 0.019688368 0.06451021 -0.008314723
0.04603494 0.021447048 0.045607485 0.032505788 0.05828436 0.15820745 -0.10119368 0.027178269
0.0012827609 -0.11847815 -0.09509549 0.06297844 0.045193527 -0.017910426 -0.056551963 0.012909128
0.09042378 0.024109818 0.5384153 -0.010776167 -0.13275246 0.061290078 -0.1489257 0.15055399
0.11978221 0.108422294 -0.49114683 -1.0790184 -0.046018016 -0.0068244077 0.048304494 0.0744495
-0.062637135 -0.0038838575 0.11158955 -0.54376596 0.099111505 -0.0022322345 0.5064838 -0.44268575
0.013637799 0.03444004 -0.050593086 0.15377602 0.08868621 0.05835935 0.10354363 0.015753767
0.15790169 0.7046941 -0.084038556 -1.8645905 -0.06433045 -0.04308352 -0.018564546 -0.09717517
-0.08042473 -0.05671954 -0.022451587 -0.014349703 0.8548839 0.11650756 -0.08789229 0.033906773
0.10285262 -0.07551429 0.043362696 0.07871984 -0.036166977 0.025574734 -0.10885499 -0.13547042
0.04197938 -0.24529305 -0.6345003 0.091837086 0.089442275 -0.033811696 0.051274754 0.0037390243
0.03816913 0.07201061 -0.027501965 0.10860634 0.0031721655 0.057295803 -0.068825826 -0.092816256
-0.25959405 -0.13335639 0.01164639 -0.10146075 -0.12098882 0.037461672 0.19434209 0.36505538
-0.010906341 0.028616352 -0.18392828 0.024968214 -0.012405529 -0.013907342 -0.056932315 0.0086240405
0.83227926 -0.13648097 -0.6288904 0.035820752 -0.03627927 -0.1588991 0.056965012 -0.16191001
-0.048897743 -0.046947837 -0.11230709 -0.054658484 0.70243585 -0.21656667 0.039543245 -1.1414242
-0.022888327 -0.09869916 -0.13332911 0.094836734 -0.0841992 0.06482539 0.027017882 -0.014496843
0.15666978 -0.097059645 -0.10384703 0.017905865 0.014793581 0.10742301 -0.07459967 -0.0166445
0.012993592 -0.030983325 -0.16341865 0.076585844 0.065860614 -0.5848674 -1.3356065 0.0052364585
-0.039535962 -0.019701192 -0.08953642 0.015228572 0.08614422 -0.07985112 -0.008818532 -0.09560604
-0.11867518 -0.08801811 -0.87497693 -0.06899602 -0.3664232 -0.38996172 0.12887783 -0.38771388
0.112258084 0.09241932 0.023363551 0.16379645 -0.045832906 0.07860607 -0.29259807 -0.033012155
0.078630775 0.05523758 -0.18115516 0.71912265 0.3761628 0.16328877 0.15734385 0.6359862
-0.071406744 -0.17999636 0.03271594 -0.5524128 0.06214923 0.10960642 -0.061893295 -0.037095528
0.02076829 -0.789139 0.07750424 0.34141958 -0.07095811 -0.043614738 -0.05593449 -0.043647427
-0.10449592 -0.10263258 -0.11746013 -0.04748737 -0.11032283 0.06861517 -0.034583725 -0.07473235
0.06817589 0.07662521 -0.024413085 -0.061955642 -0.1203637 0.12016684 0.041968532 -0.08179108
-0.04186924 -0.024080118 0.042852044 0.0106738005 -0.10056522 0.093580395 0.01692565 -0.10072208
0.022056 -0.058266923 0.011269267 -0.07501939 -0.07420429 -0.03332291 -0.085017785 -0.018006342
0.078357965 -0.023357287 0.0006539695 -0.10800783 0.047959544 -0.0033675218 0.06413606 0.024031334
0.02165514 -0.023282202 -0.06284042 -0.08941018 0.114564106 -0.025523333 0.09450503 -0.1103751
0.06511498 -0.008049933 0.037816074 -0.090487115 0.10292503 -0.113575436 -0.049280673 -0.08057896
00000000: a1cf 9a3f 5629 b63e 7893 7e3d 86ad 92bd
00000010: d150 f2bd 8049 a13c ee1d 843d 7a3a 08bc
00000020: 228f 3c3d b8b1 af3c eace 3a3d ca24 053d
00000030: 95bb 6e3d 2201 223e a23e cfbd f6a4 de3c
00000040: 5022 a83a aca4 f2bd 6dc1 c2bd d7fa 803d
00000050: d91c 393d e3b8 92bc 08a3 67bd cf80 533c
00000060: 1a30 b93d f481 c53c 96d5 093f 858e 30bc
00000070: 43f0 07be 4e0b 7b3d fb7f 18be d32a 1a3e
00000080: 6050 f53d 820c de3d 9977 fbbe 461d 8abf
00000090: 637d 3cbd 489f dfbb efda 453d fb78 983d
000000a0: e647 80bd 5188 7ebb 1089 e43d 3f34 0bbf
000000b0: f9fa ca3d ae4a 12bb eca8 013f b5a7 e2be
000000c0: 1371 5f3c 0011 0d3d b23a 4fbd 7677 1d3e
000000d0: 1ea1 b53d 370a 6f3d af0e d43d 0b0e 813c
000000e0: fbb0 213e d566 343f 681c acbd e7aa eebf
000000f0: afbf 83bd 5878 30bd ad14 98bc c703 c7bd
00000100: b9b5 a4bd c052 68bd 64ec b7bc 041b 6bbc
00000110: acd9 5a3f 849b ee3d df00 b4bd d4e1 0a3d
00000120: 65a4 d23d 3ca7 9abd 159d 313d de37 a13d
00000130: d323 14bd 1b82 d13c 5def debd c2b8 0abe
00000140: 92f2 2b3d 1a2e 7bbe 9d6e 22bf 1515 bc3d
00000150: 832d b73d 227e 0abd 7a05 523d 6b0a 753b
00000160: 3c57 1c3d 4c7a 933d cd4b e1bc 006d de3d
00000170: 1be4 4f3b 01af 6a3d 8ef4 8cbd 7316 bebd
00000180: 83e9 84be 948e 08be 80d0 3e3c a7ca cfbd
00000190: fdc8 f7bd 6971 193d 9d01 473e 8ae8 ba3e
000001a0: 82b0 32bc d76c ea3c b257 3cbe 248a cc3c
000001b0: 8f40 4bbc 9fdb 63bc dc31 69bd d94b 0d3c
000001c0: 4110 553f abc1 0bbe f6fe 20bf c8b8 123d
000001d0: 9299 14bd 72b6 22be 2554 693d bdcb 25be
000001e0: 0049 48bd 604c 40bd 4201 e6bd 93e1 5fbd
000001f0: d6d2 333f a7c3 5dbe 19f8 213d 301a 92bf
00000200: 4d80 bbbc c922 cabd 6d87 08be c339 c23d
00000210: a170 acbd 2dc3 843d 9b54 dd3c 2b84 6dbc
00000220: 0b6e 203e 35c7 c6bd c0ad d4bd 52af 923c
00000230: c760 723c 9800 dc3d b6c7 98bd 0c5a 88bc
00000240: 13e3 543c bed0 fdbc 3857 27be 0ad9 9c3d
00000250: eee1 863d dfb9 15bf 27f5 aabf 9996 ab3b
00000260: 76f0 21bd 6564 a1bc df5e b7bd 4381 793c
00000270: 616c b03d fc88 a3bd 9b7b 10bc 19cd c3bd
00000280: f90b f3bd d742 b4bd 7dfe 5fbf c94d 8dbd
00000290: d29b bbbe 10a9 c7be 8df8 033e 6f82 c6be
000002a0: 91e7 e53d 5746 bd3d eb64 bf3c 42ba 273e
000002b0: 49bb 3bbd 38fc a03d 6acf 95be c137 07bd
000002c0: 2c09 a13d cd40 623d bd80 39be 6c18 383f
000002d0: 6998 c03e 2c35 273e bf1e 213e fecf 223f
000002e0: b33d 92bd f750 38be 2601 063d ed6a 0dbf
000002f0: 3190 7e3d 5579 e03d d383 7dbd 7bf1 17bd
00000300: 4322 aa3c 0305 4abf 8bba 9e3d 8cce ae3e
00000310: 7c52 91bd 5ea5 32bd 901b 65bd a5c7 32bd
00000320: f501 d6bd 0831 d2bd f08e f0bd 1e82 42bd
00000330: f0f0 e1bd 1c86 8c3d aaa7 0dbd 460d 99bd
00000340: cd9f 8b3d aeed 9c3d f3fd c7bc 33c5 7dbd
00000350: 3e81 f6bd 081a f63d 32e7 2b3d 1582 a7bd
00000360: 157f 2bbd ab43 c5bc a085 2f3d 2ae1 2e3c
00000370: 23f5 cdbd 14a7 bf3d a9a7 8a3c 6147 cebd
00000380: c9ae b43c 4ca9 6ebd bba2 383c c4a3 99bd
00000390: 6bf8 97bd 9b7d 08bd ce1d aebd 0982 93bc
000003a0: 247a a03d c857 bfbc 266f 2b3a 3633 ddbd
000003b0: 3a71 443d a4b1 5cbb c459 833d 5cdd c43c
000003c0: 1f66 b13c 51ba bebc 7ab2 80bd af1c b7bd
000003d0: 96a0 ea3d 4f16 d1bc da8b c13d 570c e2bd
000003e0: 015b 853d dee3 03bc 07e5 1a3d 4f51 b9bd
000003f0: 5cca d23d 3d9a e8bd 88da 49bd 9506 a5bd

bias f4 [38]
0.38775483 0.7802493 0.36566564 -0.04788445 0.550362 0.41556802 -0.16602004 0.2936431
0.14683299 -0.084618956 0.18374427 -0.061061606 -0.16707346 0.047413725 -0.011908774 0.57252896
0.6329718 -0.1357707 0.11540488 0.29333565 0.9008504 0.21445324 0.20297901 -0.43043518
-0.0036403832 -0.041320283 0.06021805 -0.17870529 -0.115325436 -0.029719591 0.32457346 0.4832592
0.54641473 0.22246289 -0.33249742 -0.106557414 0.18424805 0.13769959
00000000: cd87 c63e 6bbe 473f 8738 bb3e 7c22 44bd
00000010: 86e4 0c3f 55c5 d43e 2801 2abe 6358 963e
00000020: 635b 163e b44c adbd 7527 3c3e bc1b 7abd
00000030: 4e15 2bbe e534 423d 051d 43bc 4291 123f
00000040: 710a 223f 7907 0bbe 6559 ec3d 1730 963e
00000050: 229e 663f a199 5b3e bbd9 4f3e 0062 dcbe
00000060: 7f93 6ebb 753f 29bd 34a7 763d 85fe 36be
00000070: be2f ecbd 8076 f3bc 7e2e a63e c06d f73e
00000080: d6e1 0b3f 50cd 633e 1a3d aabe c63a dabd
00000090: 85ab 3c3e 1f01 0d3e

weight f4 [15, 38]
-1.0652809 -0.87159073 -0.124223605 -0.10285753 -0.72230685 -0.89788705 1.2238735 -0.4357758
-0.18986203 -0.13273 -0.016544327 0.065566435 -0.20070885 -0.1266782 -0.058414813 -0.82435566
-1.1299098 -0.6553394 0.55561453 0.56985974 -2.1928937 0.5000972 -0.16088735 0.4660033
-0.040726103 -0.14533548 0.19290112 -0.015038749 -0.12299263 0.0492938 -0.7864537 -1.2827256
-0.3989397 -0.81307495 2.3921788 0.11999569 -0.26925695 -0.41409987 1.1981072 0.2467867
0.34767085 0.012407971 0.5925723 0.9965511 -0.9884548 0.28150335 0.22107796 -0.33571836
0.5165936 0.14064799 0.6115937 0.31015444 -0.093988456 0.7739932 2.135713 1.3532207
-0.6409144 1.4922546 0.7736931 0.09200237 0.16244498 -0.32786626 0.07498296 0.11723644
-0.09346535 -0.63922864 0.14609048 0.15275817 -0.068964474 1.3438646 -0.95150846 1.0161669
-1.3278406 -0.09472191 0.8399429 0.24618356 0.45499364 0.49089652 0.052219965 -0.14819416
0.34955573 0.061661325 0.07099048 -0.20765586 -0.25538027 0.46006635 -0.38809752 0.21081568
0.13136487 0.16456458 -0.1387214 -0.3953395 -0.43609074 0.3703057 0.19222453 -1.5699238
0.68599385 -0.8185568 -0.05830513 0.029848957 -0.12605095 0.13767669 -0.014760475 0.091500595
0.01683577 -0.049138304 0.9739102 0.5817991 0.8292932 0.8874549 -0.06568838 -0.057293817
0.2884099 0.47865757 -0.33108425 0.37150106 0.9413806 0.14903386 0.5612458 -0.43861791
0.5781228 -0.3604315 -0.7348056 -0.07339992 -0.3382448 0.12298498 -0.32192805 -0.11391621
-0.11141527 -0.32871968 -0.7684391 -1.2199001 0.19981374 -0.7042198 -0.18216312 -1.3617871
-0.4807911 0.8857542 0.07458351 0.07565897 0.1770413 -0.044844892 0.14549175 0.07368191
-0.21591015 0.019475622 0.12665665 -0.89483 1.2717435 0.1157882 -0.19847699 -0.24789019
-0.06395117 0.10647689 0.047035795 -0.1325405 0.05619784 0.0053862086 0.029513916 -0.00956892
-0.05678797 -0.16263011 -0.11847728 -0.15160628 -0.112038165 0.15032028 0.047228724 -0.019038698
-0.011883522 0.031380948 0.090036474 -0.05622878 -0.03274229 -0.15694377 -0.18492755 0.008837016
0.16060275 0.15689051 0.14733662 -0.05063217 0.004236346 0.040034927 -0.17656435 0.05170666
-0.030722514 -0.020380586 0.007430123 -0.074205466 -0.13703528 -0.006744242 0.14228296 1.1152358
0.29631174 0.08707307 0.6906483 0.13445109 0.11784951 0.6167045 -0.17928185 -0.661658
-0.22990108 -0.027695855 0.44711804 0.11809715 -0.0066206763 0.5822718 -0.13854271 0.71236557
0.88720423 0.083220564 0.8982626 -0.0042816293 -0.16133171 0.012819722 0.10621689 -0.040150106
0.2518224 0.0792326 -0.093066856 -0.011157822 0.3273535 -0.035207756 0.7358149 0.48832312
-0.5564427 0.033709027 -0.5509078 -0.0858769 -0.02084957 -0.4535753 0.22763848 -0.13541782
0.10247246 -0.39440644 0.30172777 -0.19174774 -0.018273853 0.18293229 0.38490114 0.17135641
-0.026127022 -0.025616659 0.11135163 0.012250213 0.28384236 -0.3578658 -0.6483773 0.65152746
-0.10802653 -0.5178682 0.07919559 0.16712084 0.0109380195 -0.033284742 -0.24089791 -0.03920018
00000000: 205b 88bf 9220 5fbf f268 febd f8a6 d2bd
00000010: 1ae9 38bf eddb 65bf e3a7 9c3f 011e dfbe
00000020: 316b 42be 60ea 07be f887 87bc b247 863d
00000030: 9f86 4dbe eeb7 01be 5f44 6fbd f908 53bf
00000040: e2a0 90bf 53c4 27bf c13c 0e3f 54e2 113f
00000050: 5f58 0cc0 5f06 003f a7bf 24be fc97 ee3e
00000060: 6ad0 26bd d3d2 14be df87 453e 1665 76bc
00000070: 8fe3 fbbd 4ce8 493d 0855 49bf 5a30 a4bf
00000080: d341 ccbe ae25 50bf 7519 1940 4dc0 f53d
00000090: 0cdc 89be e604 d4be 945b 993f a7b5 7c3e
000000a0: ea01 b23e cd4a 4b3c d1b2 173f f91d 7f3f
000000b0: 600b 7dbf 3521 903e 4362 623e 47e3 abbe
000000c0: 7a3f 043f 0706 103e 6891 1c3f 90cc 9e3e
000000d0: 057d c0bd 6b24 463f 86af 0840 5636 ad3f
000000e0: f712 24bf 3302 bf3f c010 463f bd6b bc3d
000000f0: fa57 263e 16de a7be ab90 993d a919 f03d
00000100: c36a bfbd 7da4 23bf be98 153e a36c 1c3e
00000110: 3f3d 8dbd c103 ac3f 0f96 73bf c211 823f
00000120: aef6 a9bf 90fd c1bd 7f06 573f 8b17 7c3e
00000130: edf4 e83e ca56 fb3e 9ae4 553d 36c0 17be
00000140: f8f8 b23e 9690 7c3d 7563 913d bda3 54be
00000150: 34c1 82be d18d eb3e b8b4 c6be 11e0 573e
00000160: 8384 063e 9e83 283e fc0c 0ebe f069 cabe
00000170: 4947 dfbe b598 bd3e 82d6 443e 43f3 c8bf
00000180: 4b9d 2f3f f08c 51bf 5cd1 6ebd cd85 f43c
00000190: 8013 01be 1efb 0c3e ebd5 71bc aa64 bb3d
000001a0: 2beb 893c 3f45 49bd 2e52 793f c9f0 143f
000001b0: 8f4c 543f 3f30 633f a187 86bd ecac 6abd
000001c0: 76aa 933e 9b12 f53e e083 a9be 6335 be3e
000001d0: 52fe 703f 559c 183e cead 0f3f 8792 e0be
000001e0: dbff 133f 7a8a b8be 381c 3cbf b252 96bd
000001f0: 6c2e adbe 8ddf fb3d c1d3 a4be e74c e9bd
00000200: b02d e4bd f24d a8be 6db8 44bf b025 9cbf
00000210: f99b 4c3e c047 34bf f888 3abe 0a4f aebf
00000220: 402a f6be cac0 623f 3dbf 983d 17f3 9a3d
00000230: 514a 353e 47af 37bd cafb 143e 8be6 963d
00000240: 8d17 5dbe 578b 9f3c 48b2 013e 9413 65bf
00000250: 7ec8 a23f 5d22 ed3d 8d3d 4bbe edd6 7dbe
00000260: d5f8 82bd 8e10 da3d 9ba8 403d b2b8 07be
00000270: b52f 663d cb7e b03b 2bc7 f13c f6c6 1cbc
00000280: 819a 68bd 8288 26be 37a4 f2bd ad3e 1bbe
00000290: 4474 e5bd 8fed 193e e872 413d 0bf7 9bbc
000002a0: 1bb3 42bc 4f89 003d 0b65 b83d 2650 66bd
000002b0: c81c 06bd deb5 20be a65d 3dbe 22c9 103c
000002c0: 0c75 243e e8a7 203e 69df 163e ae63 4fbd
000002d0: 0cd1 8a3b aafb 233d 49cd 34be 5dca 533d
000002e0: c8ad fbbc 30f5 a6bc 6478 f33b 09f9 97bd
000002f0: fa52 0cbe cdfe dcbb a0b2 113e 0cc0 8e3f
00000300: 2cb6 973e 5e53 b23d 54ce 303f 8cad 093e
00000310: 155b f13d 59e0 1d3f a995 37be 6b62 29bf
00000320: 306b 6bbe 6be2 e2bc a8ec e43e ebdc f13d
00000330: 42f2 d8bb c40f 153f 24de 0dbe 975d 363f
00000340: d11f 633f 8b6f aa3d 8af4 653f e94c 8cbb
00000350: 2434 25be d009 523c 3e88 d93d 7074 24bd
00000360: deee 803e b444 a23d d699 bebd 4ccf 36bc
00000370: e19a a73e 0236 10bd 5e5e 3c3f 7d05 fa3e
00000380: 0773 0ebf 7a12 0a3d 4b08 0dbf 3ae0 afbd
00000390: b8cc aabc 063b e8be 101a 693e f8aa 0abe
000003a0: 15dd d13d a4ef c9be 107c 9a3e 8559 44be
000003b0: 0cb3 95bc 9a52 3b3e c311 c53e 0e78 2f3e
000003c0: 5608 d6bc 07da d1bc 530c e43d 1eb5 483c
000003d0: c953 913e 303a b7be 0efc 25bf 81ca 263f
000003e0: 033d ddbd 0393 04bf 4c31 a23d ba21 2b3e
000003f0: 6135 333c 9555 08bd f1ad 76be 5e90 20bd

bias f4 [15]
-0.11270838 0.13961995 -0.28920126 0.5387003 0.054295212 0.5280706 0.2220501 0.66798025
-0.034636047 0.25354618 0.7792618 0.11976109 0.7258862 -0.038854145 0.13014436
00000000: a7d3 e6bd 88f8 0e3e 3012 94be 43e8 093f
00000010: a864 5e3d a32f 073f 1a61 633e c100 2b3f
00000020: 87de 0dbd ced0 813e b47d 473f 4d45 f53d
00000030: aed3 393f 8625 1fbd 9044 053e

weight f4 [9, 15]
-1.4397815 1.968509 0.8116379 -1.7058283 -0.0607137 -1.0766646 -0.6251986 -0.3232504
-0.2371594 0.0006229061 -0.87651867 0.8626284 -1.2747593 0.15331636 -1.0667818 1.8231759
-1.9566499 -1.6531078 -0.44241872 0.0044167186 -0.43194664 -1.1191807 -1.5846497 0.030292585
-0.46265146 -0.81112206 -0.02060954 0.79462004 0.023370076 0.3585043 -0.8289539 0.04385597
-0.91087544 1.2169633 0.111597136 -0.3690422 1.1346275 -0.23742433 0.1359758 -1.2563988
0.65093595 0.7791402 -3.103339 -0.042193312 -0.23146471 -1.9812795 -1.4236457 -0.5136833
-1.2202595 -0.27789053 0.49734843 -0.06084304 -1.8434409 -0.19858979 -0.87170154 0.68066764
-0.75778604 0.28649557 0.25622088 -2.1198797 -0.13437341 -0.93479913 -0.12068044 -0.43936664
0.1969285 -0.24055241 -0.022499006 -0.13752827 -0.21952394 -1.2030907 0.05453864 0.14875522
-0.33177635 -0.22301608 -0.18416083 -1.0831162 -2.4144244 -0.23186326 1.5029831 0.11988945
-0.16650328 -0.1562134 -0.14241314 0.10719522 -2.8632817 0.2389318 -0.37781766 -0.0112453345
0.053632498 0.28005248 0.9677719 -1.1504235 -0.5792268 -1.2473799 -0.083491206 -2.7135928
0.5131423 -0.7011755 0.012734917 0.09160764 1.0940943 -0.43475816 -0.19603564 0.24706088
-0.945903 -1.5401858 -2.3886738 0.53903884 0.6950998 -0.25083902 -0.16956401 -0.34129778
1.0777904 -0.18440212 -0.72584265 -2.696764 0.43794352 -0.4775593 -0.21327302 0.6291522
-2.5560822 -0.2548308 -1.9222217 -0.3743024 0.029747598 -0.10288564 0.24196288 0.2817648
0.2403084 -1.0653827 0.26723722 -0.19529267 1.3006675 -0.0013144781 -0.8414677
00000000: c34a b8bf 1af8 fb3f 80c7 4f3f 9558 dabf
00000010: eeae 78bd 25d0 89bf 040d 20bf 1481 a5be
00000020: ead9 72be 854a 233a 8763 60bf 37d5 5c3f
00000030: 502b a3bf f7fe 1c3e 4e8c 88bf d45d e93f
00000040: 8173 fabf 0999 d3bf b584 e2be 1fba 903b
00000050: 1c28 ddbe 5041 8fbf cdd5 cabf 2828 f83c
00000060: a7e0 ecbe b2a5 4fbf 57d5 a8bc 386c 4b3f
00000070: 9a72 bf3c e08d b73e 5336 54bf 51a2 333d
00000080: 222f 69bf 74c5 9b3f 0a8d e43d 19f3 bcbe
00000090: 793b 913f 5d1f 73be 3d3d 0b3e add1 a0bf
000000a0: bda3 263f bb75 473f 1b9d 46c0 e5d2 2cbd
000000b0: 1605 6dbe 919a fdbf 063a b6bf c080 03bf
000000c0: 7731 9cbf ab47 8ebe 74a4 fe3e 8d36 79bd
000000d0: dff5 ebbf 1f5b 4bbe d527 5fbf 3c40 2e3f
000000e0: 44fe 41bf 8caf 923e 622f 833e 1cac 07c0
000000f0: 2f99 09be ff4e 6fbf 4e27 f7bd aaf4 e0be
00000100: a0a7 493e 5f53 76be d64f b8bc 36d4 0cbe
00000110: e2ca 60be e0fe 99bf e963 5f3d 4a53 183e
00000120: 97de a9be 545e 64be a894 3cbe 8da3 8abf
00000130: ee85 1ac0 906d 6dbe c061 c03f 9a88 f53d
00000140: d67f 2abe 68f6 1fbe c0d4 11be 2b89 db3d
00000150: 0240 37c0 8aaa 743e 5171 c1be 5a3e 38bc
00000160: c0ad 5b3d 0a63 8f3e e6bf 773f 1441 93bf
00000170: 3548 14bf 25aa 9fbf 70fd aabd 81ab 2dc0
00000180: 4b5d 033f 3d80 33bf 1da6 503c c99c bb3d
00000190: 480b 8c3f 9f98 debe 91bd 48be 87fd 7c3e
000001a0: b326 72bf cf24 c5bf 08e0 18c0 73fe 093f
000001b0: 0ff2 313f f96d 80be 30a2 2dbe 95be aebe
000001c0: 09f5 893f e9d3 3cbe d3d0 39bf c897 2cc0
000001d0: 223a e03e a782 f4be 3e64 5abe 1e10 213f
000001e0: da96 23c0 2f79 82be 5c0b f6bf 90a4 bfbe
000001f0: 3cb1 f33c b5b5 d2bd 1ec5 773e 7a43 903e
00000200: 6813 763e 765e 88bf 51d3 883e cdfa 47be
00000210: 467c a63f 914a acba 6d6a 57bf

bias f4 [9]
-0.3100791 -0.04069461 0.5888466 -0.2005693 -0.64864606 -0.9381194 -0.27477407 -0.0757768
0.14407003
00000000: b0c2 9ebe 64af 26bd a7be 163f 0a62 4dbe
00000010: ab0d 26bf 9828 70bf 30af 8cbe de30 9bbd
00000020: 1887 133e
