models/basic_model.pth (torch, 17840 bytes, 6 tensors)

weight f4 [38, 68]
000000 c5 cf 37 be ef ab 61 be 32 62 9c bd de 4b 8a bd
       -0.17950352 -0.22038244 -0.07635917 -0.06752752
000010 94 39 05 3d 25 3a ff bc 09 01 b9 3d 99 71 f0 bc
       0.032525614 -0.031155655 0.090334006 -0.029351043
000020 39 5b c1 3d d2 9c 97 3c 11 ef 68 be 02 09 e3 bd
       0.094412275 0.018507395 -0.22747447 -0.110857025
000030 d2 e2 ca 3d d3 4d a5 bd d1 20 7a be 5c 80 fb bd
       0.09906544 -0.080714844 -0.24426581 -0.12280342
000040 8b d3 a3 3e d5 e8 ae bb 83 8d 4a 3c 9c 56 32 3d
       0.31997332 -0.0053378143 0.012362841 0.04353963
000050 73 f4 62 bd 74 3a eb bd 89 61 0b be 16 cb 9b 3d
       -0.055408906 -0.114857584 -0.13611425 0.07607095
000060 59 f3 8b bd af 06 37 bd cd d0 69 3c 23 45 08 bd
       -0.06833524 -0.04468411 0.014270973 -0.03326906
000070 f3 11 0f bd d9 a5 df bd b8 9b fb b9 bd 0e a9 3d
       -0.034929227 -0.10920305 -0.0004799047 0.08254764
000080 97 13 18 bc 27 d4 d0 bd e5 9c 71 3e e2 94 b8 3e
       -0.009282014 -0.10196715 0.23595007 0.3605109
000090 cc 94 e8 3d 44 12 89 3d 57 a2 e8 bd b7 44 8f bb
       0.11356506 0.06692937 -0.11359089 -0.004372205
0000a0 ae b6 43 bc 03 60 78 3e 44 72 80 3d b9 c4 06 be
       -0.01194541 0.24255376 0.062717944 -0.13160981
0000b0 bd 64 10 be b1 8c b2 be 2c 64 15 be 9b 3c e4 bd
       -0.14100929 -0.34872964 -0.14588994 -0.11144372
0000c0 89 86 57 3e d1 ec 31 be f4 ec cb bd dd ca 1d be
       0.21047415 -0.17375495 -0.099573046 -0.15409417
0000d0 ee 65 a6 bc 66 14 28 bb 3f d9 81 3d 22 c5 6c bd
       -0.020312276 -0.0025646924 0.063402645 -0.057805188
0000e0 b2 f0 96 3e fb dc 46 bc d8 3b dd 3d d6 1c 52 3f
       0.2948051 -0.012137647 0.1080243 0.8207525
0000f0 11 a2 a4 3d c3 17 5d 3d 8f 14 b0 bc 64 2a eb 3d
       0.08038724 0.05397774 -0.021494178 0.11482695
000100 08 94 b4 bd 8f 30 c9 3d 2e a0 a9 3d 73 54 26 3d
       -0.08817297 0.09823715 0.08282505 0.04060788
000110 84 97 eb bc 94 d3 9d bc 5a bf 9c bd c6 aa 62 3b
       -0.028758772 -0.019265927 -0.07653685 0.0034586652
000120 01 75 b4 bd b8 ed df 3a a2 a3 ae bd 9e 69 48 3d
       -0.08811379 0.0017084396 -0.08527304 0.04892885
000130 98 bb 62 bd ef ec 7b bc 3e 49 92 bc 97 6d f6 bd
       -0.055354685 -0.015376314 -0.01785719 -0.12032621
000140 9c 43 8f bd 81 31 ca 3c c0 39 a7 bb 6e c5 1c bd
       -0.06995317 0.024681808 -0.00510332 -0.03827422
000150 bc b5 11 bd 1c 52 e5 bd 03 5f cb 3d 06 ea 77 bd
       -0.035573706 -0.11197302 0.099302314 -0.060525917
000160 64 90 e2 bd 24 e0 9c 3d 68 fa 2a 3d 6f 04 f1 3d
       -0.110626966 0.07659939 0.041742712 0.11768424
000170 83 87 b2 bd e3 6e 75 3b 17 ab d7 bd e4 e8 ae 3d
       -0.08717253 0.0037450127 -0.1053068 0.08540514
000180 32 f3 84 bd 63 39 47 bd 36 9c 57 bd dc 6e 10 3c
       -0.06491698 -0.048638713 -0.05263921 0.008815493
000190 84 62 11 3d 0d 39 7c bc 55 4e dc 3d b1 a4 76 bd
       0.035494342 -0.015394461 0.10757128 -0.060215656
0001a0 f1 f1 01 bb 50 00 9d bd b6 a8 b7 bd dc 82 bf bd
       -0.0019828046 -0.07666075 -0.08967726 -0.09351131
0001b0 70 c4 2d bd b1 4d 98 bc 8f 38 b6 bd 8b c1 83 bd
       -0.042423666 -0.018591734 -0.088975064 -0.064334
0001c0 56 7d 69 3d 5c 61 c8 bb 1c f7 b8 bd 3c f0 9b bd
       0.057004295 -0.0061151218 -0.090315074 -0.076141804
0001d0 f4 c8 f9 bc 4a 54 26 bc 0e d1 14 bd 54 f8 44 3d
       -0.03049133 -0.010151932 -0.036332183 0.048088387
0001e0 fc 97 f3 3d 9f 4c 9e 3d 67 bc dd bd 38 6b 36 3c
       0.11894223 0.07729458 -0.108269505 0.011133961
0001f0 28 75 88 bd 5d 80 79 3c 09 c5 ad bd 2a a3 c2 3b
       -0.06662971 0.015228358 -0.08484847 0.005939861
000200 24 ea 4b bd ca 30 7f bc e8 e4 f7 bd 09 b2 8a 3d
       -0.04978384 -0.015575597 -0.12104207 0.06772239
000210 8b 84 ed 3d 66 65 b0 3d f2 62 2c bd bf 85 7d 3d
       0.11597546 0.0861309 -0.04208655 0.06189513
000220 67 93 6f 3f 39 cb f9 3e a6 3a 49 3e 98 96 0b be
       0.93584293 0.4878786 0.19651279 -0.13631666
000230 da 4b c3 ba 8d 50 1f 3d e8 f9 c7 3d 4a c2 89 bd
       -0.0014899925 0.03889518 0.09764463 -0.06726511
000240 26 6d cd 3c 48 2d a1 3d a8 62 ef 3d fd fb a7 be
       0.02507646 0.07869965 0.11688739 -0.3280944
000250 87 99 d8 bc 60 e2 a6 3d 07 d2 78 be 8f 5a 9a 3d
       -0.026440395 0.08148646 -0.24298869 0.07536804
000260 5b c8 04 be e4 01 d2 3d 4e 89 56 bd 2f 33 d5 3c
       -0.12967055 0.10254267 -0.052377038 0.026025383
000270 59 b0 ce bc 09 cb 71 3e 07 bd 28 3e 73 18 ca 3c
       -0.025230573 0.23612608 0.16478358 0.024669861
000280 cf 4a ad 3d 12 43 e6 3d 6f d6 a8 3e 28 80 7c 3d
       0.08461534 0.112432614 0.329761 0.061645657
000290 31 90 08 3b 91 d9 57 3d a5 47 82 bd b3 f1 e6 3d
       0.0020837898 0.052697722 -0.06361321 0.11276569
0002a0 e1 82 dc bd de 8e e2 bd 88 2b 20 3e ce 99 e8 3d
       -0.10767151 -0.11062406 0.15641606 0.11357461
0002b0 da 9e 07 3b 62 81 08 bd f7 85 3a 3d 9f a3 e2 bd
       0.0020694048 -0.033326514 0.045537915 -0.110663645
0002c0 71 30 78 bd 58 f0 f3 bd 76 2f 3a 3e bd cd 12 3e
       -0.060593072 -0.11911076 0.18182167 0.14336295
0002d0 75 04 fa 3e eb 34 6f 3e e3 82 2b 3d 94 03 0d 3e
       0.48831525 0.2336003 0.04187287 0.13770896
0002e0 ae 2e 8e be 93 2a 5e bc 00 02 a9 3d 06 52 d3 3d
       -0.2776999 -0.013559955 0.082523346 0.10318379
0002f0 d6 6b eb bd e7 11 38 3d 08 e9 d2 3d 93 40 a2 3c
       -0.114951774 0.044938948 0.102983534 0.019806182
000300 e4 77 0a be 7a 71 a1 3e 6b b7 f3 bc 10 ac aa bf
       -0.13522297 0.31531888 -0.029750546 -1.3333759
000310 b2 12 46 3c 42 40 74 bd be 41 5b bd 36 a6 2c bc
       0.012089418 -0.059631594 -0.053529494 -0.010537675
000320 a3 de ab 3d 15 7c 19 bd 1d 1b 92 bd 31 9a db bd
       0.08392074 -0.03747185 -0.07134078 -0.10722769
000330 54 d5 0e 3f 23 a3 2f 3e c3 0a d1 3d 39 d6 07 3d
       0.5579426 0.17152075 0.10207131 0.033163283
000340 47 ff 6c 3d c6 7f ba 3c 3c 8c d6 3d 74 a9 05 bd
       0.05786064 0.022766005 0.10475966 -0.032632306
000350 9c 7e 38 3d 79 f8 5b 3d b1 12 fa 3d 79 69 ec be
       0.04504262 0.05370376 0.12210596 -0.4617422
000360 89 18 8f bc 87 e6 06 3d 9c 7d c6 be 2b 21 21 bd
       -0.017467754 0.03293469 -0.38767707 -0.039338272
000370 fc db 4a bd cc 5d cf 3c e7 e6 56 3d 2d 15 8f 3d
       -0.0495262 0.02531328 0.0524663 0.06986461
000380 7e 8c b0 bd 90 78 67 3e 9b 53 82 bd 64 02 e8 3d
       -0.08620547 0.22604585 -0.06363603 0.11328581
000390 5d de f0 3d 77 96 b6 3d 55 32 5f 3e 32 b5 f5 3d
       0.117611624 0.08915418 0.21796544 0.11997451
0003a0 34 29 8d bd 2f 5f c1 3d 8f 0f 26 3e b5 9d 4c 3e
       -0.068926245 0.09441983 0.16216873 0.19982035
0003b0 c4 53 e4 bd f2 ca 87 bd 2d 1f ba 3c aa 77 1f 3d
       -0.111487895 -0.066305056 0.022719944 0.03893248
0003c0 9a bb e7 bc d8 ee 21 be 1f 67 79 3d 57 bf 37 be
       -0.028287698 -0.15813768 0.06088936 -0.17944084
0003d0 eb b7 36 bd 40 39 45 3d 48 d1 a2 3e 8f 7d b9 bd
       -0.04460899 0.0481503 0.31800294 -0.090571515
0003e0 96 02 fa 3d a0 6e 6c be 84 71 89 bd f4 a4 41 3b
       0.122075245 -0.23089075 -0.067111045 0.0029547783
0003f0 fe d3 fa 3d 24 35 dc bd e5 6c bc bc 3e 05 b9 bd
       0.122474656 -0.10752323 -0.023001144 -0.09034203

bias f4 [38]
000000 9d 91 04 be 5f b8 8e bd 8d b2 39 3f 55 97 94 3e
       -0.12946172 -0.0696876 0.7253807 0.29021707
000010 e1 11 83 3f 64 b0 40 bc 11 f0 b9 3e 16 5f b2 be
       1.0239831 -0.011760805 0.3631597 -0.3483817
000020 2c f1 17 bb 1c 25 b1 bd cb 53 59 bd e1 c3 1e 3d
       -0.002318452 -0.08649656 -0.053058427 0.038761023
000030 7c 36 8e bd b2 19 5d 3e 96 eb 88 3d 03 24 af 3e
       -0.06943986 0.21591833 0.066855595 0.34207162
000040 7e ce 39 3f ee cf 4a be 57 18 1c 3f a2 0a ad 3c
       0.7258071 -0.19805881 0.6097464 0.021123234
000050 35 77 5b 3f b2 30 b3 3e 4a bf 0d be 8c 52 bb be
       0.8572877 0.3499809 -0.13842502 -0.36586416
000060 7c 90 b7 bd ba 30 c2 3c 47 f9 95 3d d2 10 29 3b
       -0.08963105 0.023704875 0.073229365 0.002579738
000070 f0 eb 92 3d ab 67 a2 3d 4f 19 d5 3e 62 48 c8 bd
       0.07173908 0.07929929 0.4162087 -0.09779431
000080 73 45 4b 3f d2 a8 15 be de e7 d0 be 29 6e f6 bd
       0.79402846 -0.14615181 -0.408019 -0.1203273
000090 8e 10 13 bd b6 09 81 3c
       -0.03590446 0.0157517

weight f4 [15, 38]
000000 93 f4 2a 3d 20 7b da 3c 57 28 04 bf 65 b0 e5 be
       0.04173715 0.026670039 -0.51624054 -0.4486114
000010 ef 9d 46 bf f4 46 5d be 53 27 d3 3e 9b 6e 9f 3e
       -0.7758474 -0.21609098 0.4124094 0.31139073
000020 56 97 74 bd 5a e3 96 3d 18 e0 57 bc da 61 c2 bb
       -0.059714638 0.073675826 -0.013175987 -0.005932075
000030 fb d1 2d be 7e e3 ea be d0 90 06 3e 9f b9 9d bd
       -0.16974632 -0.45876688 0.13141179 -0.0770142
000040 75 e5 58 3e ef 1b ba 3e 72 71 11 3f 56 09 4d be
       0.21181281 0.36349437 0.5681373 -0.20023093
000050 d4 e8 9d be d8 ff 43 be f1 f5 0e 3e d6 06 4f 3f
       -0.30841696 -0.19140565 0.13961007 0.80869806
000060 fc 38 18 3f 3b 56 2a be df ef 07 3f 1f d5 95 be
       0.5946195 -0.16634457 0.5310039 -0.2926416
000070 ba cd a4 3e 99 2e 25 3d db ea 89 be c5 03 cc 3e
       0.32188207 0.040327642 -0.26936993 0.39846626
000080 19 b7 c6 be 11 98 64 bc c0 ef 39 3f ca 9c da bd
       -0.38811567 -0.013952271 0.72631454 -0.106744364
000090 f7 d5 a4 3d d7 87 37 3f 58 8e b2 3d f0 da 91 bd
       0.08048623 0.7169165 0.08718556 -0.07121837
0000a0 94 67 3e be 8e 1b 80 3e dd 2f 70 bc 71 a4 36 3f
       -0.185942 0.25021023 -0.014659849 0.7134467
0000b0 f5 37 a5 bd 0a 16 9d 3e 02 24 be bc b6 83 28 3e
       -0.080673136 0.30680877 -0.02321053 0.16456494
0000c0 ed 23 09 be 4b e3 b7 3c 20 cc 09 3c 22 46 5f 3e
       -0.13392611 0.022447249 0.008410484 0.21804097
0000d0 4c b4 1d be 14 ed b1 3d 7b 6b 21 bf 01 1c a1 3d
       -0.15400809 0.08687797 -0.6305463 0.078666694
0000e0 be cb 15 bf 48 90 ec 3d 86 8f 13 bf af 35 a1 3d
       -0.5851401 0.11550957 -0.57640874 0.078715675
0000f0 a0 5c 13 bd 22 d5 e1 3e 5c df 4b 3d df 4e cd 3e
       -0.035977006 0.4410792 0.04977356 0.40099236
000100 e8 73 96 be b6 88 8c 3e bf eb a8 3e af a6 ec 3d
       -0.29385304 0.27448052 0.3299236 0.1155523
000110 2c 52 c7 3d 33 33 8b 3e f1 0f d8 be b6 74 4b 3d
       0.0973247 0.271875 -0.42199662 0.04967185
000120 c0 78 93 3e 0e 7e 2d bc b1 ce af bb a7 00 ae 3c
       0.28803062 -0.010589136 -0.0053652157 0.021240545
000130 16 4c e2 3d 03 89 07 3e 87 16 85 3d d0 f4 0a bd
       0.110496685 0.1323586 0.064984374 -0.033924878
000140 a1 6e c2 bd 4e 7d 60 3d 22 07 1c be ee f3 ba 3b
       -0.09493757 0.054807 -0.15237096 0.005705348
000150 ca b2 9d bd 70 1c 4c bd a3 18 1a bd 9a aa 0a be
       -0.07700117 -0.049831808 -0.03762115 -0.13541642
000160 9d 81 be bd 05 d4 92 bc 6f b7 0a be a9 66 82 bd
       -0.093020655 -0.017923364 -0.13546537 -0.06367237
000170 30 db 1b be 82 be 5b 3b b6 46 87 3d a4 ac d0 3d
       -0.15220332 0.00335303 0.06605284 0.101891786
000180 3e d6 52 bd cd ed 14 3d 95 d7 26 bc a3 09 8e 3d
       -0.05147385 0.036359597 -0.010183235 0.06935432
000190 cd 53 d4 bd e3 6b 57 bd 40 68 7c 3c 67 c2 18 3e
       -0.10367546 -0.052593123 0.0154057145 0.14917909
0001a0 75 00 c8 3c ec 0e 36 bd c8 a2 09 3e 09 ac 2a 3d
       0.02441428 -0.044447824 0.13441002 0.04166797
0001b0 5f 21 20 be 66 3d 3c 3c b3 42 92 bc 56 5d 99 3d
       -0.1563773 0.011489248 -0.01785407 0.074885055
0001c0 20 35 c7 3d f3 b4 9e bd 5c 48 42 3f 87 2f 27 3d
       0.0972693 -0.07749357 0.7589166 0.04081681
0001d0 d1 e1 01 bf 82 8d 01 be 75 50 60 bf b7 8c 78 3f
       -0.50735193 -0.12651637 -0.8762277 0.97089714
0001e0 df cd 3f bf 74 b7 8e 3f 24 17 7e bd 3c ba f0 3d
       -0.7492351 1.1149735 -0.062033787 0.117542714
0001f0 da ba af bd 6f 9b 8f bd f9 14 85 3e c5 4c 71 bd
       -0.08580561 -0.070120685 0.25992563 -0.058911104
000200 d0 c4 21 bd 99 77 e1 3d a6 df 21 bf 65 c3 db bd
       -0.039494336 0.110091396 -0.63231885 -0.10730628
000210 ee d9 10 bf be ea 66 3e 35 08 e3 be 1b cf 69 bd
       -0.56582534 0.22550485 -0.443422 -0.057082277
000220 59 d5 1d be d2 30 94 3f dd 68 1c 3f 12 9f ec 3d
       -0.15413417 1.1577399 0.6109751 0.11553778
000230 ed a3 a8 be ee 76 ca 3c c8 06 06 bc e2 91 c8 3d
       -0.32937565 0.024714913 -0.008180328 0.0979345
000240 65 68 13 bf 3d 13 e0 3d 00 ca 22 bf 85 09 18 3b
       -0.5758117 0.109411694 -0.6358948 0.0023199033
000250 b8 9f 09 3f ae 00 07 bd 35 59 1b 3d 81 49 26 bf
       0.53759336 -0.032959633 0.03792687 -0.6495591
000260 0e 10 fa 3e b6 a0 08 3e 7a dc 2e bf 41 97 52 be
       0.48840374 0.13342556 -0.6830517 -0.20565511
000270 66 d8 7c bf e5 8f 79 3e 7c 12 88 3d 69 bc 2f 3f
       -0.987677 0.24371298 0.066441506 0.68646866
000280 29 2e ec 3d b3 a9 f7 3c 8b db be bd 88 9a 38 3e
       0.11532242 0.030232286 -0.09319218 0.18027699
000290 8f e8 19 be 98 21 d4 be 07 18 ba bd 2d cc 86 3a
       -0.1503012 -0.4143188 -0.09086614 0.0010284238
0002a0 89 40 6f be 24 a8 de 3e 5b 32 4b 3d ef 1d 53 be
       -0.23364462 0.43487656 0.04960857 -0.20616888
0002b0 bb d6 02 bf a8 33 ab be 98 6f 6e bd 2b e5 74 3f
       -0.511089 -0.33437848 -0.058211893 0.9566218
0002c0 3f 63 41 3f b7 74 8b 3c 60 a6 37 3e 66 1a 23 3c
       0.7554206 0.017023427 0.17934561 0.009955024
0002d0 d7 2f e7 3e 46 72 29 3e 54 db a4 be 67 32 20 3f
       0.45153686 0.16547498 -0.32198584 0.6257691
0002e0 78 6a 2f bf 03 f5 a6 bd 84 b0 89 3f 67 85 d3 bd
       -0.68521833 -0.08152201 1.0756993 -0.10328179
0002f0 fc 09 fb bc f3 89 03 3f e6 de 74 3c 8b 53 14 3e
       -0.03064441 0.5138237 0.014945721 0.14484994
000300 fa 1e 85 bd 55 3c 12 3e e0 73 11 be 14 92 01 be
       -0.06500049 0.14280827 -0.14204359 -0.1265338
000310 e0 29 8f 3c fa 3e fd bc 64 42 b1 3d 27 38 ee bd
       0.017476022 -0.030913819 0.08655241 -0.11631804
000320 47 63 cd bd c3 cf 64 bd 25 48 f8 bd 43 72 12 3d
       -0.10028701 -0.0558622 -0.121231355 0.0357535
000330 88 93 16 be 94 73 0e be 10 90 08 be 7c ca c3 bc
       -0.14704716 -0.13911277 -0.13336205 -0.023900263
000340 ba 47 a7 bd 71 52 ba bd b2 99 f7 3d 8a 17 87 3d
       -0.08167978 -0.09097756 0.12089862 0.065962866
000350 6c 4a c7 3d 80 87 c2 bc cb 65 96 bd 99 dc 36 3d
       0.09730992 -0.023746252 -0.07343634 0.044643972
000360 c8 5c dc bd 66 d1 ac bd 28 58 02 bd b0 9e fd bc
       -0.10759884 -0.08438377 -0.031822354 -0.030959457
000370 5b bf 12 3d 33 c6 85 3d b9 ea 71 bd f5 c8 16 3e
       0.035827022 0.06531944 -0.05906174 0.14725097
000380 05 08 71 bd 34 77 0f 3e 3c 0d 4e 3d c2 79 f5 bd
       -0.05884554 0.14010316 0.05030559 -0.11986114
000390 e8 71 9b 3d 1a 8f 8c 3d 3f 01 37 bc fb eb 6c bd
       0.07590085 0.06863232 -0.011169731 -0.057842236
0003a0 4a 60 dc 3d ee fc c7 bd 33 04 9c bd 8d e9 a7 bd
       0.10760553 -0.097650394 -0.076179884 -0.08198843
0003b0 37 83 a6 3d ee 9c 63 bd 02 87 b3 bd 32 ae c3 3d
       0.08130496 -0.05556958 -0.08765985 0.095547095
0003c0 3b 55 f1 bd 87 63 e9 bc 92 d0 01 3e 2b bd 19 bd
       -0.117838345 -0.028489841 0.1267722 -0.03753392
0003d0 9f ff 97 3d be e9 65 bd a2 9d 9c bd d0 29 a2 bd
       0.07421803 -0.056131117 -0.076472536 -0.07918131
0003e0 90 83 7d 3c 40 5f ed bd 6d 5a 58 3d 4e 3c 0c be
       0.0154732615 -0.11590433 0.05282061 -0.1369488
0003f0 c0 94 b3 3d 0c a6 c7 bd a3 09 86 3d cd cd 1e 3e
       0.08768606 -0.09748468 0.06544807 0.15508194

bias f4 [15]
000000 b4 04 97 3d 3d 85 21 be 0c 8a 76 be c2 a0 49 3d
       0.07373944 -0.15773483 -0.24076098 0.049225576
000010 e6 cb 22 be 36 7a 4f bb b1 40 5a bb cd 07 cc bd
       -0.15898094 -0.0031658537 -0.003330272 -0.099624254
000020 92 e0 6e 3f bc 0a c8 bd 37 08 08 3f a5 9c 2d 3e
       0.9331142 -0.097676724 0.53137535 0.16954286
000030 62 01 d4 3e be 2c 14 3f 0e 87 0f bf
       0.41407305 0.5788077 -0.5606545

weight f4 [7, 15]
000000 fc 71 ea be 17 0d 4c bf 48 f3 ec 3d da fc ab bf
       -0.45790088 -0.79707474 0.1156984 -1.3436539
000010 76 5a ec bf fd 42 c5 3d d7 3e b6 3c 95 87 7e 3e
       -1.8465106 0.096319176 0.022246761 0.24856408
000020 87 c0 9b 3f bd ea 49 be 35 1d 23 bf 1e 2d 83 bf
       1.216813 -0.19718452 -0.6371644 -1.0248144
000030 53 14 ad bd 61 37 39 bf d8 89 cf bf 59 40 9d bf
       -0.08451142 -0.72350127 -1.6213942 -1.2285262
000040 cb a3 66 3e e0 17 1f 3e 71 15 94 3f 50 6d 01 3e
       0.2252342 0.15536451 1.1569043 0.12639356
000050 45 88 19 3e 5d 43 2b bd 37 68 76 3e d1 9a f6 bf
       0.14993389 -0.04181229 0.24063192 -1.9265996
000060 58 14 f9 bc 6f 5e 50 bf dd 3c ed be 63 7f db 3c
       -0.030405208 -0.81394094 -0.46335497 0.026794141
000070 e5 3b 62 bf a9 61 c7 bf b5 a0 cf 3f 3c 4a 77 bf
       -0.8837264 -1.5576679 1.6220919 -0.9659765
000080 55 12 f9 3d 1c 47 52 bf 17 94 34 3f 0a 4e 21 3d
       0.121617 -0.82139754 0.7053847 0.039381064
000090 fe 12 1e be aa eb 4d 3e 45 b0 20 be ad ef 6d 3e
       -0.15436932 0.2010943 -0.15692241 0.2323596
0000a0 94 fb 0a be e0 32 85 be 6a ce bd bf 4a 35 00 bf
       -0.13572532 -0.26015377 -1.4828618 -0.5008131
0000b0 22 ed d3 bf 13 78 b5 be 2c 1c 86 bf cc 81 1d 3e
       -1.6556742 -0.35443172 -1.0477347 0.15381545
0000c0 a2 a8 d9 bf ed 06 ad bf 6c b6 19 be ea 79 69 3d
       -1.7004588 -1.3517739 -0.15010995 0.057001032
0000d0 2d 99 05 be e9 33 70 bf a1 cb ff 3b 71 c5 d4 3e
       -0.13046713 -0.9382921 0.007806257 0.41556886
0000e0 00 ca 64 3f 19 ef 30 be 4e aa 7d 3f f9 80 99 bf
       0.8937073 -0.17278709 0.9908799 -1.1992484
0000f0 2d cc dc be 5c bc ca 3e 54 1a e3 bd cc d2 9e bf
       -0.43124524 0.39596832 -0.11089006 -1.240808
000100 78 3d 7b bf 07 57 83 be f4 c4 62 3e 23 19 2d 3e
       -0.9814067 -0.25652334 0.22145444 0.1690412
000110 89 55 bd bf 39 98 bc bd 06 0f 3e bf fc 73 0a bf
       -1.4791728 -0.09208722 -0.74241674 -0.5408323
000120 b6 94 44 3f 36 b6 0a 3e 94 bc bf be 2b 5b ec 3c
       0.76789415 0.1354607 -0.3744856 0.028852066
000130 64 5b 7c 3d 56 33 16 be 98 c5 83 3e c6 2f 4f 3f
       0.061610594 -0.1466802 0.2573669 0.8093227
000140 e1 c3 47 be cf d5 45 3d bb 34 74 3e 8a 37 fa bf
       -0.19508316 0.048299607 0.2384824 -1.9548199
000150 b9 00 91 bd f9 a6 a3 bf 1a f0 ec be 21 b5 97 bf
       -0.07080216 -1.2785331 -0.46276933 -1.1852151
000160 4d 34 aa bf d9 0b bd 3f 84 00 89 3e 70 7e 50 3c
       -1.3297211 1.4769241 0.26758206 0.012725458
000170 df c0 2e 3e cb f9 b3 bf c3 dd 4e 3d 3a 5b 2a be
       0.17065762 -1.4060606 0.050504457 -0.16636363
000180 a3 cc df bd 87 a1 30 be 5f e6 22 c0 a8 98 4d 3e
       -0.10927703 -0.17249118 -2.5453107 0.20077765
000190 3c 24 3d 3e 2c 73 9a 3e 32 e9 d3 bf 7b 17 7d 3f
       0.18470854 0.30165994 -1.655554 0.98863953
0001a0 62 2e 28 3f
       0.65695775

bias f4 [7]
000000 42 1f 7e 3e e4 45 d2 3e 12 f9 e4 bd 29 25 34 bf
       0.24816611 0.41068947 -0.11180319 -0.703692
000010 26 a1 43 bf 89 f0 c2 bf 50 32 82 bf
       -0.7641777 -1.5229656 -1.0171604
