models/basic_model.pth (torch, 18160 bytes, 6 tensors)

weight f4 [38, 68]
000000 45 4d 24 3f 6c b2 d3 3e a2 34 52 3e fa f7 14 bd
       0.64180404 0.41347063 0.2052789 -0.0363693
000010 b7 75 d6 bd 5c 27 f8 bd a1 25 2c 3d eb 15 07 3d
       -0.10471671 -0.12116882 0.042028073 0.032979887
000020 0c ec d4 bc 9b d7 bc bd 8d ac 8f bd 72 6e 1d 3d
       -0.025991462 -0.09220811 -0.07015333 0.038435407
000030 7b 76 34 bb 03 9e 38 3e 5c 61 76 be 9e f5 1f be
       -0.002753644 0.18029027 -0.24060577 -0.1562104
000040 99 5c 84 be 20 3b dc 3d b5 fc 89 bd 3e 88 9b 3b
       -0.25851896 0.10753465 -0.06737653 0.004746466
000050 8f 9f b1 bb 5d 01 f8 3d 1c 17 a3 3d 8c 33 c7 3d
       -0.005420632 0.12109635 0.07963392 0.09726629
000060 0b 89 bd 3d 23 7a 8d 3d 25 ee 05 3e 6c e4 8a 3d
       0.092546545 0.06908061 0.13079126 0.06781849
000070 b4 a5 8c bd bd ec a8 3d 44 4e 9a 3c 6b bc b2 3d
       -0.06867543 0.08248279 0.018836148 0.08727344
000080 36 17 22 bd b8 f2 a3 ba c6 bb 99 3d be 01 8d 3e
       -0.039572917 -0.0012508249 0.07506518 0.27540392
000090 88 ef 84 3c bc 3e ad bd 4f 2c a5 bd ca 72 93 bd
       0.016227499 -0.08459231 -0.08065092 -0.07199629
0000a0 6b 98 55 bd 52 fe 15 3d b3 ee d1 3d ed c0 6c bd
       -0.05214731 0.036619492 0.102506064 -0.057801176
0000b0 87 46 d4 3e 23 20 5d be 07 f5 3e 3e dc d6 de bd
       0.41460058 -0.2159429 0.18648158 -0.10880825
0000c0 7f a0 08 bf 64 62 96 bd 18 12 01 be b4 f5 42 3e
       -0.533699 -0.07342985 -0.12604558 0.19039041
0000d0 b6 5d 98 3d f5 6f 21 3d a6 a7 98 3d aa fb 90 39
       0.07439749 0.03941341 0.074538514 0.00027653325
0000e0 5f 5e 9a be a1 fa 1a 3e c1 2e a0 bb b8 59 2f bf
       -0.30150124 0.1513467 -0.004888386 -0.68496275
0000f0 80 7b 0d 3b 01 f0 e8 3c 2a 85 bc bc bb 55 b6 3d
       0.0021588504 0.028434755 -0.023012716 0.089030705
000100 55 dd 50 3d 03 96 cf 3d 81 f3 52 bd 84 15 29 bd
       0.05099233 0.10136034 -0.051501755 -0.041280285
000110 99 77 6e bd 42 b4 49 bd d6 75 8e bd cb f4 95 bd
       -0.058219526 -0.049244173 -0.06956069 -0.07322081
000120 57 b8 80 bb 44 de 3f 3d 7a 9a a9 bd 97 73 ac 3d
       -0.003928225 0.04684283 -0.08281417 0.084204845
000130 79 2b b1 bd 9e 7a 45 bb a3 a7 a5 3d 24 70 a3 3d
       -0.0865087 -0.00301329 0.08088615 0.079803735
000140 ef f0 c6 3d 95 2b af 3d b1 c6 2f 3e 6a d3 b9 bd
       0.09713923 0.085532345 0.17165639 -0.09073527
000150 fe 12 8f bd 96 ed 17 be 42 8b c3 bd 53 ce 0d be
       -0.06986044 -0.14836726 -0.09548046 -0.13848238
000160 56 4d 81 3d 64 43 01 bc 55 f8 b3 bd 1e 54 b8 3c
       0.06313579 -0.007889602 -0.087876 0.022501048
000170 7d 54 0c be 13 e7 23 3d 4e 05 1d 3c 47 40 c4 3d
       -0.13704105 0.04001529 0.009583784 0.095825724
000180 fd f7 c5 3c 00 26 08 be 34 6c ab 3d 49 1c 0e bc
       0.024166102 -0.13295746 0.083702475 -0.008673736
000190 78 20 f4 3c 10 35 a2 3b 86 7b b2 3a 2a 80 82 bd
       0.029800639 0.004950173 0.0013617135 -0.063721016
0001a0 09 3e 58 bc 16 15 20 3e 8e 0e e5 3d 61 73 9c bc
       -0.013198384 0.15633044 0.11184417 -0.019097986
0001b0 bd 44 38 3d ad b8 29 bd a2 9c 0d 3e f6 84 55 3e
       0.04498743 -0.041435886 0.13829282 0.20851502
0001c0 95 74 84 be f2 52 bc 3e e4 a2 83 be bb 45 2d 3e
       -0.25870195 0.36782032 -0.25710213 0.16921131
0001d0 c5 9b 13 ba 36 b8 3c bc 27 bb c2 3d e1 3f f9 3c
       -0.00056308164 -0.011518529 0.09508353 0.030425968
0001e0 f9 98 4c bd 97 58 f3 3d 46 76 d0 bd 8a a8 c7 bd
       -0.049950574 0.118821315 -0.10178809 -0.09748943
0001f0 93 97 20 3f 2b 53 1b bc 87 f4 20 3d 1f db ad be
       0.62731284 -0.009480278 0.0392957 -0.3395624
000200 70 cb 44 bc e9 51 23 3d 9c ff 8b 3d 67 34 89 bd
       -0.012011394 0.039873037 0.06835863 -0.06699448
000210 c6 53 e6 bc ab 37 86 bd 4b df 86 3d a8 e3 57 bd
       -0.028116118 -0.065535866 0.065855585 -0.052707344
000220 52 5d 45 3f 9c 3d c5 3e b2 ab 3f 3c c4 a1 18 be
       0.7709552 0.38523567 0.01169865 -0.14905459
000230 9e f7 9c 3d ed 0b b2 bd 4e 27 f8 bd f3 eb a6 3d
       0.07664417 -0.08693681 -0.12116872 0.081504725
000240 04 23 f4 bd 13 27 3b bd 81 6e 8e 3d f4 80 05 be
       -0.11920741 -0.04569156 0.06954671 -0.13037473
000250 07 0a 9c bc e2 bc 3d 3d 94 16 53 be a3 9b be 3d
       -0.01904775 0.04632271 -0.20614082 0.09307029
000260 3a 14 d2 bd a9 9d 81 bc 70 30 7d bd 5e a9 e3 3d
       -0.10257764 -0.015822249 -0.06181377 0.111162886
000270 02 6c 82 ba fd 52 66 bd 80 bf 93 3d 71 1d e6 bb
       -0.0009950402 -0.056231488 0.0721426 -0.0070225527
000280 60 25 23 3e 0e 30 2c 3c 2e f1 f1 3d 26 63 6f bd
       0.15932226 0.010509504 0.118135795 -0.058444165
000290 22 a5 48 3c 6c 33 83 bb 3b 9f 3e 3d ed d6 44 3e
       0.012246402 -0.0040039327 0.046538573 0.19222613
0002a0 f3 6f 93 bd 4f 36 38 3c 6d 27 6a be e7 3b 9b be
       -0.07199087 0.011243417 -0.22866602 -0.3031914
0002b0 b7 9d ff bc 76 ac 2a 3e bd f2 f3 3d a0 0f 78 bc
       -0.031203134 0.16667351 0.11911533 -0.015140444
0002c0 a7 7f b7 bd c5 34 13 be c4 b9 74 3d a4 1a 57 3d
       -0.089598946 -0.14375599 0.059747472 0.05251564
0002d0 c8 e9 9f 3e a1 6f a5 3d 5f 24 70 be 37 49 15 3e
       0.31233048 0.08077932 -0.23451374 0.1457871
0002e0 25 01 68 be a8 a6 08 3e b3 43 a4 3d a9 3a 83 bd
       -0.22656687 0.13344824 0.08020725 -0.06407673
0002f0 96 c5 28 be 43 2c 4f bd 65 4a c1 39 1a b9 92 bd
       -0.16481623 -0.05057932 0.00036867257 -0.071642116
000300 9e 20 d4 3e c5 87 d6 3e 7c 10 d3 bd c7 b3 a7 bf
       0.41431135 0.4190046 -0.103058785 -1.3101739
000310 91 67 90 3d c7 5a e9 3d 5c 1a 1c 3d 8b e6 0b 3d
       0.07051004 0.113942675 0.038111076 0.03415541
000320 64 d0 36 bb e5 a0 8c bd e2 4a 00 3d 31 11 ae 3c
       -0.0027895207 -0.06866626 0.031321414 0.021248432
000330 8b 90 a9 3e fa 2c ca 3e 0b 31 57 3e bd 28 a3 3d
       0.3311809 0.3948744 0.21014802 0.079667546
000340 bb fc 5d 3d 88 11 63 bd 9f 46 d7 bd ed df 41 3e
       0.0541961 -0.05543664 -0.10511517 0.18933077
000350 48 3c a5 bd 0f c9 0a 3d 35 b0 7b 3e 0e e5 29 3e
       -0.08068138 0.03388315 0.24578936 0.16591284
000360 6f 11 f3 bc e4 df 07 3e 4b 55 f1 3d 33 98 24 3d
       -0.029671399 0.13269001 0.117838465 0.04018421
000370 91 16 e3 bd 94 82 18 3e d7 43 84 3c ca a9 b8 3d
       -0.110882886 0.14893562 0.01614563 0.0901676
000380 14 ce 0a bd d7 c9 44 3e 24 36 7d 3d fc d7 d6 3d
       -0.033887938 0.19217621 0.06181921 0.104904145
000390 5f ce 7b 3d 51 0d ed bb 88 60 4e 3e 90 2c ec 3d
       0.061476108 -0.0072342535 0.20154011 0.11531937
0003a0 3b c1 c1 3d b9 08 a8 3d ee 1c 9f bd ee 48 80 bc
       0.09460684 0.08204789 -0.0776919 -0.015659776
0003b0 55 43 00 3e 4f f7 ad bd a7 5f 1c bd 7a 33 32 3d
       0.12525685 -0.08494436 -0.03817716 0.043506123
0003c0 a8 43 a6 bc 09 18 b2 3d 5e 34 37 3e 8a f3 db 3d
       -0.020295933 0.086959906 0.1789107 0.10739811
0003d0 c4 a9 d0 bd 17 0e 8e bd db 97 d2 3d 6b dd 06 3d
       -0.1018863 -0.06936281 0.102828704 0.032926004
0003e0 21 91 01 be 35 d8 40 3e 04 5d 0f 3f 8b 3f a8 3d
       -0.12653019 0.18832476 0.56001306 0.08215245
0003f0 63 cb ef bd 88 18 67 3b b7 42 47 3e b2 94 1d 3e
       -0.11708715 0.0035262424 0.19459043 0.15388754

bias f4 [38]
000000 44 35 33 3f 45 d8 a0 3d 17 dc 30 3f 41 bc 11 3f
       0.7000315 0.0785375 0.6908583 0.5692788
000010 a8 7f b1 be 0a 1f 1c bd 51 3a ee 3c 59 62 b3 bd
       -0.34667706 -0.03811554 0.029080542 -0.08758993
000020 4a 86 82 bd db 4a 12 3d 1d 62 cd 3e d0 c6 f1 3e
       -0.0637327 0.03571592 0.40113917 0.47221994
000030 d7 96 43 bd 7e cc 3d bd 3a 8d 89 bd 6f c9 42 3e
       -0.047751274 -0.046337597 -0.0671639 0.19022153
000040 0a 21 b3 3e 15 45 f1 3d 61 e8 68 be 47 9d f7 3e
       0.34986144 0.117807545 -0.22744896 0.4836218
000050 59 56 1a 3e 79 38 b0 3e 1f 91 ab 3e 17 ad 92 3b
       0.15072002 0.34418085 0.33509156 0.0044762003
000060 67 ae 26 3f 75 42 02 3d ee 69 63 bd 27 19 4a 3f
       0.65109867 0.03180166 -0.055520944 0.7894463
000070 a2 21 46 3d d4 1d c2 3d d4 30 1a bd 72 4e e9 3c
       0.04837192 0.094783455 -0.037644222 0.028479788
000080 a1 5e 36 3f 2c ed d4 bd 5e 6a dd 3d 57 c8 36 3d
       0.7123814 -0.103967994 0.108113036 0.044624653
000090 e4 24 f5 3e e5 2b e4 bd
       0.47879708 -0.11141185

weight f4 [15, 38]
000000 1c 57 0b 3f 51 77 a0 bd e9 8b 28 bc 7c 44 00 3f
       0.54429793 -0.07835258 -0.010287263 0.501045
000010 db 70 fd 3e 51 d2 0b 3e ec c2 00 be d6 31 28 3e
       0.49500164 0.13654448 -0.12574357 0.16425261
000020 04 d0 06 3e 2d 1d 04 be 26 64 b5 3d bd 05 b9 be
       0.13165289 -0.12901755 0.088569924 -0.3613719
000030 a3 0c 1d 3e 9d 45 16 be b1 44 01 3d ed c5 0a 3e
       0.15336852 -0.14674993 0.03155965 0.13552065
000040 91 3b 7c be e6 3c 9b 3e 15 f2 64 3f 04 76 9f bd
       -0.24632098 0.303199 0.8943189 -0.077861816
000050 c0 9e 89 3e ae be 1d 3e 1e c7 e9 bd c3 e7 0a bd
       0.2687893 0.1540477 -0.11414932 -0.03391243
000060 82 a0 68 bd 2f 06 e3 bd b7 c4 ad 3e cd b0 9c 3d
       -0.056793697 -0.11085164 0.33939144 0.076509096
000070 1c 5d de bd d5 81 9a 3d ab 23 0d be 23 11 24 be
       -0.10857603 0.07544295 -0.13783138 -0.16022162
000080 8a 1a 2c 3f 45 df 03 3e 9b 6d 8b 3c 32 cf 91 3e
       0.67227995 0.1287814 0.017020037 0.2847839
000090 30 a7 f9 3e 6a 83 04 be 67 98 5e 3e 5e 80 3e bd
       0.48760366 -0.12940755 0.21737824 -0.04650914
0000a0 e5 05 07 3f 70 5d 9e 3e 90 5f a5 be 67 82 07 be
       0.5274337 0.30930662 -0.3229947 -0.13233338
0000b0 78 2d 49 bd 31 5b 69 3d 3c 38 b9 3d a2 ee 0b be
       -0.049115628 0.056971733 0.09043929 -0.1366525
0000c0 b7 97 34 be 17 a8 3a 3f 65 a4 cc 3c bd 87 a2 3c
       -0.17636 0.72912735 0.024980733 0.019840116
0000d0 01 14 80 3d fc d4 91 bd 6d e0 0f 3f 8d ba 56 be
       0.062538154 -0.07120702 0.5620182 -0.20969601
0000e0 35 7b 49 bc cf f8 72 bd 67 ac 5e be 5f 5d c8 3e
       -0.012297441 -0.059319314 -0.21745454 0.39133736
0000f0 63 e5 80 3e cb 16 3d 3d 8c 2c e9 3e 44 41 af bd
       0.25175008 0.046164315 0.455418 -0.0855737
000100 b2 68 83 3d 60 34 b2 3e 2e a5 f0 bd 6e 84 29 3e
       0.064164534 0.34805584 -0.117502555 0.16554424
000110 6d 86 f4 bd 2e 29 4e 3d 5b e4 d6 3e 07 88 13 be
       -0.11939702 0.05033224 0.41971096 -0.14407359
000120 71 32 77 3e 43 fa 19 be 6d 17 e9 3e 71 db 05 3e
       0.24140336 -0.15036874 0.45525685 0.13071992
000130 ca d3 18 be e1 6f a5 3e 16 d5 c3 3e 5c db e4 3e
       -0.14924541 0.3231192 0.3824851 0.44698608
000140 22 ba 6e bc cb 96 a0 3d 4f 7a 17 3b f2 aa 82 3e
       -0.014570745 0.078412615 0.0023113673 0.25521046
000150 97 d7 1d 3e cd 9d e5 bd 2a e6 ee 3e 1e b0 5c bd
       0.15414272 -0.11211739 0.46659976 -0.053878896
000160 99 c2 89 bd 28 c5 a5 3d 93 ba 19 3e d2 cb 48 3e
       -0.0672657 0.08094245 0.15012579 0.19609001
000170 69 8e d5 bc 69 9a 2b 3d 44 de 3b 3e 04 97 92 bd
       -0.026068883 0.041895304 0.18346506 -0.0715771
000180 47 f4 3e be c0 e9 77 3e d2 c2 cd 3e ec 8c 1f 3c
       -0.18647872 0.24210262 0.401877 0.009738188
000190 0f 3e af 3e a3 2c 2d 3e 55 ed fe bd f0 91 84 3e
       0.34227034 0.16911559 -0.12447611 0.2589259
0001a0 41 8c 87 3e cb b5 46 3e 9a 55 e7 bd 15 1e 09 3e
       0.26474193 0.19405286 -0.11295624 0.13390382
0001b0 36 76 56 bd b4 fd 8d 3d 1d ff cd 3e 1e ac d8 bd
       -0.05235883 0.06933156 0.40233698 -0.10579704
0001c0 28 71 e0 3e ac 06 34 bd 36 20 b4 bd 29 52 84 be
       0.4383633 -0.043951675 -0.08795206 -0.25843933
0001d0 68 db 00 bf 85 f0 03 3f ab 1c d4 3e de 6e 03 be
       -0.5033479 0.5153888 0.41428122 -0.12835261
0001e0 07 52 b2 3d c2 66 3c 3e 05 a2 c7 bd 30 8f 00 be
       0.08707052 0.18398574 -0.097477 -0.12554622
0001f0 40 c0 00 bf b4 70 f9 3e c2 55 18 3e 67 83 22 3e
       -0.5029335 0.48718798 0.14876464 0.15870439
000200 0b e3 86 3c a3 68 54 be 44 6b 8e 3d ff 8b a4 be
       0.016465684 -0.2074304 0.06954053 -0.3213806
000210 94 f9 64 3e 36 e7 94 bd 3b a9 73 3e b7 0c 87 be
       0.22360831 -0.072706625 0.23795025 -0.26376888
000220 76 db 48 bd 00 41 6b be 26 1e a8 bc 0b ec 3c be
       -0.04903742 -0.22974014 -0.020522188 -0.18449418
000230 e0 1f a0 3e 8b 04 38 3e f7 b9 44 be b4 93 e3 3c
       0.3127432 0.17970483 -0.19211565 0.027780391
000240 5f b2 a8 bd 10 1e 21 3d b6 df d2 bd ee b4 d8 bd
       -0.082371466 0.03933531 -0.10296576 -0.105813846
000250 14 b8 f6 bc 79 87 c7 be 99 eb 42 3e 57 07 bb 3d
       -0.030117072 -0.38970545 0.19035186 0.09132259
000260 c9 18 2a bd 71 4f 20 be 69 c8 aa bd 7b 65 8f 3e
       -0.041527543 -0.15655304 -0.083390065 0.2800711
000270 67 88 9b 3f 96 99 2e 3d f2 76 23 3e af 8a 21 be
       1.2151002 0.04262694 0.15963343 -0.1577556
000280 b3 5e 8c bd e9 c3 0d bd 55 4e 7c 3f 03 cd 70 bf
       -0.06854 -0.034610663 0.98557025 -0.94062823
000290 20 07 03 3c 0c c8 c7 bd ab e5 74 3d c6 a1 a2 3e
       0.007997304 -0.09754953 0.05978934 0.31764048
0002a0 5e eb a5 be b7 91 e1 3e bd bc 7a 3f 8e d4 60 3f
       -0.32406133 0.44056484 0.9794424 0.8782433
0002b0 ce c4 25 3f c5 23 13 be 20 61 af 3e b0 f6 84 be
       0.64753425 -0.14369114 0.34253788 -0.25969458
0002c0 88 28 f5 be 2d 05 35 be 05 41 8f 3e ce f0 80 be
       -0.47882485 -0.17677756 0.27979293 -0.2518372
0002d0 49 9f 06 3e b0 ef 54 be 18 7b d5 3d 09 ba 6d bd
       0.131467 -0.20794559 0.10423869 -0.058038745
0002e0 e6 91 4a bd 95 55 af 3d 0b 34 f8 be da a1 f5 3e
       -0.049455546 0.08561245 -0.48477206 0.47975045
0002f0 3f ab 6d bf 04 32 39 3d c4 21 57 3d bf af 70 bd
       -0.92839426 0.045213714 0.052522436 -0.058761355
000300 b0 dc 1d be b4 c7 be 3d bb ac 2c be fd d8 62 bd
       -0.15416217 0.09315434 -0.16862766 -0.055382717
000310 e3 a7 b8 3d 69 9e 83 bc 54 07 48 bd 10 52 e9 bd
       0.09016397 -0.016066747 -0.048835114 -0.11392605
000320 ac 56 10 be 04 a6 41 3d b3 61 33 bd cc be 66 3d
       -0.14095563 0.047277465 -0.043794345 0.0563343
000330 d6 07 0f be 22 84 09 be 3a b6 33 3d 97 1e 0d be
       -0.13967833 -0.13429311 0.043874957 -0.137812
000340 88 c1 b7 bc 6c b0 67 bb e2 57 21 bd 4a 2f b8 bd
       -0.02243115 -0.0035352958 -0.039390452 -0.08993395
000350 50 a6 eb bd 19 3c fa 3d 4b 46 d3 bd 18 ba 59 3d
       -0.11506331 0.12218494 -0.10316142 0.05315599
000360 ce 6e 13 3e d2 96 82 3c 08 86 19 3e 99 bf e9 bd
       0.14397737 0.015941057 0.14992535 -0.114134975
000370 ce cb b8 bd 54 ee 04 be 78 d2 9d 3d 0a 12 a5 bc
       -0.09023248 -0.1298154 0.07706159 -0.020150203
000380 12 76 f4 bd b8 2b c6 bd a0 3c d8 3d b1 74 06 bc
       -0.119365826 -0.096763074 0.10558438 -0.008206532
000390 cf 02 6a 3d 05 a1 7d 3d b6 b9 1f be 51 be f3 bd
       0.057131585 0.06192114 -0.15598187 -0.11901534
0003a0 74 16 07 be 69 c1 07 be e9 97 fc 3d 06 dd d6 bd
       -0.13192159 -0.13257374 0.12333662 -0.104913756
0003b0 e7 5e fb 3d 75 34 a8 bc c7 1f 18 3e 6d ac c9 bc
       0.122739606 -0.020532826 0.14855872 -0.024618352
0003c0 a0 4b 14 bc 71 8b ae bd a6 26 d1 3d e2 68 bb 3d
       -0.0090512335 -0.0852269 0.1021245 0.09150864
0003d0 91 7b 07 3d 23 d2 a1 bd d6 c9 83 3b 1b c1 70 3c
       0.033076826 -0.079014085 0.0040218635 0.014694477
0003e0 96 01 1c be c6 6f ac bd 88 30 7f bd 15 e5 19 3e
       -0.1523498 -0.084197566 -0.062302142 0.15028794
0003f0 07 9f fc 3b d9 dc f0 bd 61 77 62 bd 2f 07 20 be
       0.007709387 -0.11760873 -0.05528963 -0.1562774

bias f4 [15]
000000 71 64 2e 3f e2 a8 27 3f c7 75 04 3f 09 2d 6c 3d
       0.6812201 0.6549207 0.51742214 0.057660136
000010 1e ed 47 3e ec 1b 9b bb f6 e9 dd bd 80 65 07 3f
       0.19524047 -0.004733553 -0.1083564 0.5288925
000020 cb a6 06 3f a5 d3 bd 3e 2d 73 82 be 56 4e 2b be
       0.52598256 0.37075534 -0.25478497 -0.16729102
000030 06 3d 71 3c 80 c7 1d be b8 52 4e 3e
       0.014724022 -0.15408134 0.20148742

weight f4 [12, 15]
000000 2e 5a c0 bf 82 37 86 3d a3 4f 05 bf 01 44 33 be
       -1.5027521 0.06553556 -0.5207464 -0.1750641
000010 ef aa 90 bf a3 45 6f be 05 fd 05 3e a6 98 cb be
       -1.1302165 -0.23366408 0.130848 -0.397649
000020 b2 57 5c 3f 1e 27 b9 3f fe dd 01 bd cd ea 95 bf
       0.8607131 1.4465063 -0.03170585 -1.171228
000030 94 04 c3 bc bc ab 44 3e ab 0f 00 3f 3f ad 1e 3d
       -0.023805894 0.19206136 0.5002391 0.03873944
000040 f4 53 d0 3e 00 63 e4 be 56 0a f8 bd 64 3f ad bf
       0.4068905 -0.4460678 -0.121113464 -1.353497
000050 42 92 42 3e 4a f3 58 3e 7e ae 8f 3f 05 ef 49 bf
       0.19001105 0.21186557 1.1225126 -0.7888034
000060 5f 92 cc bf ff 79 de bf be ce 29 bf 27 be ae bd
       -1.5982169 -1.738098 -0.6633109 -0.085323624
000070 4a c6 7c 3e ea c9 94 bf 17 d5 bb bc cd 87 fc be
       0.24685016 -1.1624119 -0.022928758 -0.49322358
000080 d3 e2 0c bf 17 ef 45 3f b9 87 bd 3f 47 86 fd 3b
       -0.55033606 0.7731795 1.4807044 0.0077369544
000090 48 45 3b 3e cf b6 db bf 15 59 bd be 7b d8 cf bf
       0.18288147 -1.7165164 -0.36982027 -1.623794
0000a0 cb eb 5a be a3 fa 0e be da 41 f2 bc 4e 21 95 3d
       -0.2137901 -0.13962798 -0.029572416 0.07281743
0000b0 d8 f4 70 bf 46 7d 5c 3f 07 59 67 be 32 3f a5 3d
       -0.941236 0.8612865 -0.22592555 0.08068694
0000c0 2e c5 ae 3d a6 6f b4 3e 2f e6 e3 bc ac ac 0d 3e
       0.08533703 0.3524143 -0.027819721 0.138354
0000d0 d3 fa e5 bf 85 00 20 be d6 e2 0e bf fe 6b f3 bf
       -1.796717 -0.15625198 -0.55814874 -1.9017332
0000e0 33 8f 17 bf 0f c8 9a be cf 3e a9 3d ab 41 9f be
       -0.5920288 -0.30230758 0.08263933 -0.31104788
0000f0 7a 3f 9b be e3 02 af be 6c 95 24 bf ff c6 c9 3d
       -0.30321866 -0.3418189 -0.642905 0.098524086
000100 79 23 55 be 9d c9 5e 3d 33 75 16 3e c7 a1 4a bf
       -0.20814313 0.054391492 0.14693145 -0.791531
000110 fa be 99 be 25 b4 15 bf c4 ff a2 be da f2 63 bc
       -0.30028516 -0.58478004 -0.3183576 -0.013912881
000120 59 c8 3a 3e ab c7 3a 3e f8 8e 82 3d 00 18 1c bf
       0.18240489 0.1824023 0.063749254 -0.6097412
000130 2f 1f c5 bf 5b 19 8e bf 32 3c ae 3c e0 e8 59 3f
       -1.5400141 -1.1101488 0.021268938 0.85120964
000140 0e e2 5a 3d 94 30 a3 3b f3 6d 07 3f 35 05 ca bf
       0.05343824 0.004980156 0.52902144 -1.5782839
000150 90 35 8d bf 71 9d 49 3f 76 37 4e 3f 96 a9 02 3e
       -1.1031971 0.7875586 0.80553377 0.12760004
000160 65 1f 68 3e 18 dd 5a bf dc 4e b0 be 10 31 26 bc
       0.22668226 -0.8549361 -0.34435165 -0.010143533
000170 6e c9 a2 be 5a a0 88 3f ff 83 ae bf 68 27 d9 3d
       -0.31794304 1.0673935 -1.3634032 0.10603219
000180 fe 35 b0 bd 3f a9 a1 3d 5b 17 a7 bf 2e 75 b4 bf
       -0.08604048 0.07893609 -1.3054003 -1.409826
000190 89 7d 28 be 7f f3 e3 3f 33 d1 bd 3d 5d d7 02 3d
       -0.16454138 1.7808684 0.09268417 0.031943668
0001a0 e4 bf 83 3f b9 b3 2c bf 91 55 00 bf cd c3 f6 be
       1.0292935 -0.67461735 -0.50130564 -0.4819626
0001b0 05 34 22 3e e8 73 11 be 12 91 8a bd d7 44 38 be
       0.15840156 -0.14204371 -0.06765951 -0.1799501
0001c0 26 a5 1c bf 12 38 dc be 29 0f a7 be c4 40 02 bc
       -0.61189497 -0.43011528 -0.32628754 -0.007950012
0001d0 13 83 84 3c fb 3c 81 bd c9 66 7f be 8b 1e 82 bc
       0.016175782 -0.06310459 -0.24941553 -0.015883705
0001e0 84 c0 66 bf 9b 2b 0b bf 2c c5 74 3e e6 b5 0e bf
       -0.90137506 -0.5436341 0.2390334 -0.55746305
0001f0 70 10 92 be 9b ca 06 be a7 ee 3d 3e 9f 10 56 bf
       -0.28528166 -0.13163225 0.1854807 -0.8361911
000200 30 d4 95 bd 4f bb dd bf e0 22 c8 3f 9c a9 17 bf
       -0.07315862 -1.7322787 1.5635643 -0.5924318
000210 aa bc 7b 3e b6 60 6a 3e 64 e6 80 3f fe f0 19 bf
       0.24583688 0.22888455 1.007031 -0.6013335
000220 0c b9 f7 be 6f 55 16 bf 96 31 66 3e c6 ae 55 bd
       -0.48383367 -0.5872411 0.22479853 -0.05216863
000230 bb 6d 7c 3e db d2 3b 3e c5 29 fe be 44 35 f6 be
       0.24651234 0.18342154 -0.49641243 -0.48087513
000240 af 4e ac be 3f fa b5 3b bd a3 85 be 80 bc 0e be
       -0.3365378 0.0055535133 -0.26101485 -0.13939095
000250 c6 00 15 3d 70 e4 cf bd 79 6f a3 be 0b 37 29 bf
       0.03637769 -0.10150993 -0.31920984 -0.66099614
000260 eb 9c 22 bf f7 20 79 be ac 05 a7 be 1c 07 0e 3e
       -0.6352069 -0.24328981 -0.32621515 0.138699
000270 3e ae 27 bd 0c 3e 17 bf 0a 64 78 be 06 cf c0 be
       -0.040937655 -0.5907905 -0.24256912 -0.37657946
000280 8f 7f 58 be 80 f8 13 3e 57 21 b0 3d e1 c9 e8 3d
       -0.2114241 0.14450264 0.08600109 0.1136663
000290 da 20 81 3d 03 0a 0a bf 92 c3 d6 be b8 8e f3 be
       0.06305094 -0.53921527 -0.41946083 -0.47569823
0002a0 2f a0 ac bd 9c bf 97 be 45 32 3d be 61 38 73 3e
       -0.0842899 -0.29638374 -0.18476208 0.23751976
0002b0 b9 40 17 bf 2e 38 0e be f2 35 09 bf 04 9b aa 3d
       -0.59083134 -0.13888618 -0.5359794 0.08330348
0002c0 e2 88 06 be 28 1c 69 3e e6 33 4b 3e c5 67 a8 be
       -0.13138154 0.22764647 0.19844016 -0.3289167

bias f4 [12]
000000 ca 22 3c 3f 07 6b c6 3e 7d 34 c7 be 44 24 97 be
       0.73490584 0.3875353 -0.38907233 -0.29519856
000010 1b 33 fd be ae d4 6c bf 8d 20 28 bf 6e c3 22 bf
       -0.49453053 -0.92512023 -0.6567467 -0.6357945
000020 10 b6 02 bf 5c 58 13 bf b9 3e 11 bf 8e 45 28 bf
       -0.51059055 -0.575567 -0.5673633 -0.6573113
