models/basic_model.pth (torch, 17968 bytes, 6 tensors)

weight f4 [38, 68]
000000 e6 45 09 bd 85 5f 83 3d 01 6c d9 bc 49 c5 18 3d
       -0.033513926 0.06414703 -0.026540758 0.03729752
000010 7e 91 f3 3c 72 a1 7e bd 73 4c 60 3b a8 5b ee 3d
       0.029732462 -0.062165685 0.0034225255 0.11638576
000020 01 95 df bd d2 98 3f bd 14 81 c9 bc 68 a7 f6 3d
       -0.10917092 -0.0467766 -0.024597682 0.12043649
000030 d0 21 6e bd e5 41 72 3d 58 70 0a 3d f2 6b 84 3d
       -0.058137715 0.059144873 0.033798546 0.064659014
000040 6a 37 7a 3c 6e e0 e8 3d 24 98 c4 3c 90 e3 21 3d
       0.015272001 0.113709316 0.023998328 0.03952366
000050 e3 97 81 3d 09 eb c6 3d 25 aa a4 bd a7 e4 e2 bd
       0.06327798 0.09712798 -0.08040265 -0.11078768
000060 60 5b d7 3c 57 bf c5 bd f9 0a d8 bd 34 ff 07 bd
       0.026288688 -0.09655636 -0.10548968 -0.033202365
000070 d4 c4 cc 3c cf 95 36 3d a1 d9 9b bd ba 56 2e 3d
       0.024996199 0.044576462 -0.07609869 0.042563178
000080 0a 45 30 3d 68 60 81 3d f5 66 e9 3d db 4f c1 bd
       0.04303459 0.06317216 0.113965906 -0.09439059
000090 9e b0 9e 3d 23 58 19 bd 9a 4f 70 3c eb 3b c2 3d
       0.07748531 -0.03743757 0.014667416 0.09484085
0000a0 fc 34 e0 3d 81 8b 9e 3c 72 49 c7 3d ff 21 2c 3d
       0.10947606 0.01935363 0.097308055 0.04202461
0000b0 3a b3 b7 bd 5e 48 02 bc 68 53 a8 3b 0b 50 39 3d
       -0.08969732 -0.007951824 0.005136896 0.04524235
0000c0 de 21 9f bd 19 97 cd bd e0 f1 b7 bd ac 8a 75 bb
       -0.077701315 -0.10038585 -0.08981681 -0.0037466688
0000d0 1f 22 bf bd e7 b8 76 bc 79 9c c3 bd 18 15 8c bd
       -0.0933268 -0.015058733 -0.09551329 -0.06839961
0000e0 57 29 a7 3d 55 a8 b5 3d d5 48 ae bd f0 e9 eb bd
       0.08162182 0.088699974 -0.08509985 -0.115192294
0000f0 33 04 8b bd 4d 3e 8e 3c 28 21 b4 3d 2a 65 bd 3d
       -0.0678791 0.017363692 0.087953866 0.09247811
000100 0f 2e e4 bd b5 f1 9c 3d e1 61 bb 3d 07 d5 10 bd
       -0.111415975 0.076632895 0.09149528 -0.03535941
000110 c9 98 4b bf b5 13 63 3d ef 02 ca 3d 55 cf 62 bb
       -0.79530007 0.055438716 0.09863841 -0.0034608443
000120 6d 22 cb 3d b2 ad c8 bd d3 0f 85 3d 02 8d 39 bd
       0.099186756 -0.09798755 0.06497159 -0.04530049
000130 ce a6 9a bd 10 2c 9a 3d d7 e7 d3 3c 5d 9e 97 bd
       -0.07551347 0.075279355 0.025867386 -0.07403252
000140 57 49 9e bd cb 0f d4 bc 53 b5 27 be 64 29 39 bd
       -0.07728832 -0.025886437 -0.16377763 -0.04520549
000150 3e a8 58 bd 8f 46 dd 3d b3 da ee bd 8e 23 cf 3d
       -0.052894823 0.108044736 -0.11662807 0.101142034
000160 0b 78 c9 3d dd ab cb bd 6e 51 86 bc db 0f 28 3d
       0.098373495 -0.0994489 -0.01639625 0.041030746
000170 78 e5 65 ba 93 6a c7 bc f4 b1 63 bd 3d b5 51 bc
       -0.000876985 -0.02434281 -0.05558963 -0.012799558
000180 73 25 f7 bd 40 e7 30 3d 5c 6d 84 3d f6 1c a4 be
       -0.1206769 0.043189287 0.06466171 -0.32053345
000190 57 9d 83 bd 4d f3 bc bd cf 58 1f be 3d 42 92 be
       -0.064264946 -0.092260934 -0.15561222 -0.2856616
0001a0 d7 09 b1 3c e4 87 62 3d 29 c4 a6 3c 9d 2a be bd
       0.021611137 0.055305377 0.020357208 -0.092854716
0001b0 54 4f c4 3d fa 94 48 3d e3 22 95 be 00 75 f0 bd
       0.09585443 0.0489702 -0.2912818 -0.11741066
0001c0 a0 8d f2 be d3 86 e8 3e c0 e3 66 bf 0c 2b 26 be
       -0.47373676 0.45415363 -0.9019127 -0.16227359
0001d0 83 48 c5 bc 4e c8 d7 bd 75 73 a8 3c 5f 60 5d bd
       -0.024082428 -0.10536252 0.020562867 -0.054046985
0001e0 52 3d be bd 9f 36 f3 bd 1a eb 0e 3d 50 4c c2 3d
       -0.0928904 -0.118756525 0.03489218 0.09487212
0001f0 19 fb b5 be 43 14 d6 bc dc 0d 9e 3d 12 7e 69 3e
       -0.35543135 -0.026132708 0.07717487 0.22801998
000200 b6 11 41 bd b4 62 8b bd 20 f2 14 3d 3d 82 87 bc
       -0.04713603 -0.068059355 0.03636372 -0.016541595
000210 99 9b 73 bc c8 fc 7e 3d 1d 00 88 bd f4 42 91 bd
       -0.01486864 0.06225279 -0.066406466 -0.070928484
000220 e8 0e e7 3d d0 4c f8 bd f2 9d e1 bd 2d bc f1 3d
       0.1128214 -0.12124026 -0.11016454 0.1180347
000230 cd e4 2d bd 37 72 80 bd 87 66 ad 3d 8c 2a 06 3d
       -0.04245453 -0.06271785 0.08466821 0.03275542
000240 f0 c3 49 3d f4 c3 6c 3d fe da f6 3d f2 67 c4 bd
       0.049259126 0.057804063 0.12053488 -0.095901385
000250 e5 b1 22 bc 67 ed 97 bd f4 b2 de bd ce ba b3 3d
       -0.009930109 -0.07418328 -0.10873976 0.087758645
000260 0e 93 08 bd cc f0 9a bc 83 a0 86 3d 6d 9c ba 3c
       -0.033343367 -0.018913649 0.06573584 0.022779668
000270 e6 32 2f bd 69 80 9b bd 0b 4c 51 3d 43 cc a8 bd
       -0.04277315 -0.07592852 0.05109791 -0.08242085
000280 07 ab d7 bd 82 8c 92 bd 7d 14 20 bc 43 e7 a6 3d
       -0.10530668 -0.07155706 -0.00977051 0.081495784
000290 c5 d3 a2 bd ab e7 5c 3b 99 a9 f6 3d 55 7f 58 bd
       -0.07950548 0.003370742 0.12044067 -0.05285581
0002a0 5c 49 81 3b 71 23 12 3c 20 78 97 bd 55 da ca 3c
       0.0039455127 0.008919583 -0.07395959 0.024762312
0002b0 02 40 40 3c ca 9c d7 3d 2f 7c a4 3d f1 f9 31 bd
       0.011734011 0.10527952 0.08031499 -0.043451253
0002c0 1f 35 85 bd b4 e2 d2 3d 5f af d5 bd 87 ba 6c bd
       -0.06504273 0.102971464 -0.1043384 -0.057795074
0002d0 ca a9 3c 3d 0f bf 97 bd 81 d4 97 3d 0d 77 97 bd
       0.04606036 -0.074094884 0.07413579 -0.07395754
0002e0 b4 d8 2e bd 7d 68 b0 3d fc 55 34 3d c9 93 d1 bc
       -0.042687133 0.086136796 0.044027314 -0.025583165
0002f0 f0 94 10 3d b5 70 44 3d 03 c8 08 bd 96 80 2b 3c
       0.035298288 0.04795905 -0.03339387 0.010467669
000300 21 33 9e bc e6 38 0e 3c 8d 58 bc 3d ef 3e 82 bd
       -0.01931149 0.008680558 0.09196577 -0.0635966
000310 fe fc e5 bc 3b b2 f6 3d fa 3f 91 bd 2c 21 4f bd
       -0.028074738 0.120457135 -0.07092281 -0.050568745
000320 0c 74 9a 3c a2 91 c2 3d 75 bf 88 3d 4c 84 69 3d
       0.018854164 0.095004335 0.066771425 0.057010934
000330 d8 65 10 c0 a2 af ab be 2e 3b 39 3d f0 43 5f 3d
       -2.256216 -0.33532435 0.045222454 0.05450815
000340 e7 04 e0 3d ec a1 2b 3d 73 6a 8c bc 5b bd 98 3d
       0.10938435 0.041902468 -0.017140603 0.07457992
000350 8d c7 df bd 1d 4a 4c bc 75 16 99 3d bd 1f 85 3e
       -0.10926733 -0.012468842 0.074749865 0.26000777
000360 ba a7 e1 bd f2 0d 36 be 00 08 be bd 18 9b 7b bc
       -0.110183194 -0.17778757 -0.0927887 -0.015356801
000370 ad 01 73 bd ca b3 29 bd 7a 1f af bd 6c ef 56 3d
       -0.05932777 -0.041431226 -0.085509256 0.052474424
000380 c9 71 c0 bd d8 4f 69 3c 2a 62 32 3d 23 53 aa bd
       -0.09396703 0.014240228 0.043550648 -0.08316638
000390 08 bd c9 bd 26 1a 08 3c 59 90 59 bf 3d ec e8 bd
       -0.09850508 0.0083070155 -0.8498588 -0.11373184
0003a0 ce 3a 3b be 56 b1 27 3d b0 11 88 3d 98 bd 56 be
       -0.18284151 0.040940605 0.066439986 -0.20970762
0003b0 60 da e7 3d f1 53 51 bd e0 d9 b3 bc 7c f2 9a be
       0.113209486 -0.051105443 -0.021954477 -0.30263126
0003c0 13 ee 97 3d 9b d3 0b 3d fd 09 cc bc 76 04 e1 bd
       0.07418456 0.03413735 -0.024907107 -0.10987179
0003d0 82 ff a2 3d b4 61 b4 3e 75 a7 a1 be 39 52 43 3b
       0.079588905 0.35230792 -0.31573072 0.0029803647
0003e0 7b 59 71 bf 48 65 dd 3e 57 71 65 bd c2 ac f6 bd
       -0.9427716 0.43241334 -0.056016292 -0.1204467
0003f0 76 f6 b2 bd 03 a1 7f be 3d 6a b9 3d 13 06 aa be
       -0.08738415 -0.24963765 0.090534665 -0.3320776

bias f4 [38]
000000 5b 15 f5 bd d8 6a 9d 3e d3 a9 0e bd b1 74 b4 3d
       -0.11966964 0.30745578 -0.034829926 0.088113196
000010 63 b6 a2 be f2 54 c9 bd 48 13 24 3f 0d 34 c5 3e
       -0.31779775 -0.09830655 0.6409192 0.38516274
000020 3e df 51 3f cf 88 4e bd da c8 8a 3e e2 91 d2 bd
       0.81981266 -0.05042344 0.27106363 -0.10281731
000030 56 d6 9d 3e 02 7f b0 bd 0a 78 7b bd 23 e2 80 3e
       0.30827588 -0.08617975 -0.061393775 0.2517253
000040 ab 96 8e 3f 86 df 1f be ee 72 b3 3e d1 99 63 3e
       1.113973 -0.15612611 0.35048622 0.22226645
000050 1e 5c fa 3e 55 1c 2d 3e 75 73 59 bd c9 d5 ae 3e
       0.48898405 0.16905339 -0.053088624 0.3414748
000060 73 2b 30 3f 44 b1 d1 bd ad d3 0d 3e ee b8 38 3f
       0.688163 -0.10238889 0.13850279 0.7215718
000070 85 79 6b bd 7f 70 0a bf 9c 51 f5 3c 17 d1 be bd
       -0.057488937 -0.54077905 0.029946141 -0.093172245
000080 f6 7c 2f 3f ce 20 1a bd 97 d3 c7 bc 22 97 25 3e
       0.6855005 -0.03762894 -0.024392886 0.16170934
000090 2f fc 67 3e 8e 1f 91 3e
       0.22654794 0.28344387

weight f4 [15, 38]
000000 24 2c 3e bd 42 70 ba 3e 4f 1b 77 3d 3a 83 0b 3e
       -0.046428815 0.3641377 0.060328778 0.13624278
000010 6c 4d 8c 3e 6b 00 35 3c 2d 60 93 bf 70 89 83 3e
       0.27402818 0.011047463 -1.1513726 0.25690794
000020 fd b5 5f 3f 15 39 a1 be c2 fe 6c 3d 88 49 49 bd
       0.8738707 -0.31488863 0.057860143 -0.04914239
000030 a8 e7 8d 3e ae 51 60 bf b4 ea 76 bd 2c 48 4f 3e
       0.27715802 -0.87624633 -0.060282424 0.20242375
000040 f8 b0 9f 3f cc 5a 60 3f 71 ee 90 be 8d 68 20 3d
       1.2475882 0.87638545 -0.28306916 0.039162207
000050 df d4 e5 bd c9 c4 d1 be 3b 99 f9 be 59 55 a5 be
       -0.112222426 -0.40970448 -0.48749718 -0.32291678
000060 e9 a5 b7 3e 86 20 ab 3d cd e4 d2 3e bb b9 a2 3e
       0.35868767 0.08355813 0.41190186 0.31782326
000070 4c ed 41 3e fe ae 53 3f 3d 1a 78 be c0 1a 0f be
       0.18938178 0.8268889 -0.24228759 -0.13975048
000080 6a c8 24 bf ac 15 0f be 40 4d 10 3e 9c 0a c0 3e
       -0.6436831 -0.13973111 0.14091969 0.37508094
000090 96 43 09 be 81 aa 8b bf f1 b1 1f be e8 6e 49 3e
       -0.13404688 -1.0911409 -0.15595223 0.19671214
0000a0 11 d6 11 be ad a7 09 3d b7 c6 8e bc 0e f8 f2 3c
       -0.14241816 0.033607174 -0.017428739 0.029659297
0000b0 67 c2 a3 3e 09 c9 16 3e 62 ad 1b be ac be 5e 3e
       0.31984255 0.14725126 -0.15202859 0.21752423
0000c0 28 29 8b be 3a b7 05 3e fd ba 8e bc 97 7d af bd
       -0.27179837 0.13058177 -0.017423147 -0.08568876
0000d0 0e 26 0f 3e df d6 09 bc dd ac b4 be e8 10 70 3d
       0.1397936 -0.008413046 -0.35288134 0.058609873
0000e0 ec 1d d0 3d ab 0e 5a 3c 05 46 3f bd 15 fb be 3e
       0.10161957 0.013309161 -0.046697635 0.37300935
0000f0 1d 36 1a 3e 85 5f 30 3e af b7 92 be f3 c4 b3 bc
       0.15059705 0.17223938 -0.28655764 -0.021944499
000100 2f 82 12 bd 96 da 1f be 34 6f 73 bd a3 c8 15 3d
       -0.035768684 -0.15610728 -0.059432223 0.036568295
000110 b8 08 a2 bd b1 d7 10 3d 19 a7 8b 3e df 68 18 be
       -0.07911819 0.03536195 0.27275923 -0.14883755
000120 28 b5 eb 3d 7b 50 a4 be 21 26 30 3e b3 2b 85 3e
       0.11509162 -0.32092652 0.17202045 0.26009902
000130 9b bb 96 bd d1 a3 54 bf d3 e6 b5 bc 83 d9 68 bf
       -0.07360002 -0.83062464 -0.022204792 -0.90956897
000140 6b 7e 45 bf ee 27 cc 3d 0b aa bc 3e 38 1d 30 3f
       -0.77146024 0.099685535 0.36848482 0.68794584
000150 1e bd a2 be 88 b1 55 bf 79 98 35 3f 2a c5 25 3e
       -0.3178491 -0.83474016 0.7093578 0.16188493
000160 c3 7f 50 bf d1 87 bd 3f 7c 7b 58 3d a2 49 af be
       -0.8144495 1.4807073 0.05285214 -0.34235865
000170 62 4d 29 3f 3b 23 73 bf 8f 70 20 3f 05 1f 94 bb
       0.661337 -0.9497563 0.6267175 -0.0045202994
000180 ee ac 37 3f ee b5 95 3f 51 28 09 3f 8b 4f 61 3f
       0.71748245 1.1696146 0.5357714 0.88012
000190 10 52 94 bd 6d 29 84 3a 7e 97 3d bf c7 64 50 3e
       -0.07242215 0.0010083147 -0.74059284 0.20350944
0001a0 4a 43 0e bf fb e9 20 bf 26 46 b7 3e fc 0c 85 3e
       -0.55571425 -0.62857026 0.35795707 0.2598647
0001b0 61 88 ba 3e 91 78 fb bd 55 46 11 be 66 43 3e bf
       0.36432174 -0.122788556 -0.14186986 -0.7432159
0001c0 40 13 a5 3e 2e 24 ca bc 0b 67 18 be 9b 89 c0 bd
       0.3224125 -0.024675455 -0.14883058 -0.09401246
0001d0 1a cd 42 3d f1 7f f2 3c a1 ba 70 bb 90 0e 65 bd
       0.04755888 0.029602023 -0.0036732333 -0.05592209
0001e0 99 a5 9f 3d e6 73 73 3b 15 17 ab bd 36 fb 18 be
       0.07795257 0.0037147938 -0.08354012 -0.1493958
0001f0 56 4e 82 3d bd 1c 09 3e 6b 35 02 3e 29 46 75 3c
       0.06362598 0.13389869 0.1271569 0.014970341
000200 96 e4 a7 bc 93 16 ee bd 3c a9 cd bd a6 83 4a 3d
       -0.02049474 -0.116253994 -0.100420445 0.049441956
000210 60 dc 21 be 17 66 47 3d ee e6 db 3d 52 70 fc bd
       -0.15806723 0.048681345 0.10737406 -0.12326111
000220 b9 17 31 bb 3e 0a 66 3d 16 2e e5 bd 37 66 cb bd
       -0.0027022196 0.05616211 -0.11190431 -0.09931605
000230 c6 77 1a bd af 83 17 be 9f 15 73 3d 63 12 88 bd
       -0.03771188 -0.14796327 0.05934679 -0.06644132
000240 df 08 1f 3e 05 f6 e1 bd a5 57 a5 3d 42 98 98 3d
       0.15530728 -0.110332526 0.080733575 0.07450916
000250 8a 2c 9b bb d5 20 5b 3d 1c 45 a9 3d eb 7f b0 bd
       -0.004735534 0.053498108 0.08265135 -0.086181484
000260 0b 47 87 3d d5 89 9e 3e 89 40 57 bd cd 40 9f 3f
       0.06605347 0.30964532 -0.05255178 1.2441651
000270 f0 f5 02 3f 4a a4 35 3d ee 71 a0 3c c3 89 86 bf
       0.5115652 0.04434613 0.019585576 -1.0510792
000280 81 94 9e bf c7 6d a3 3f d6 fb ba be 43 17 22 3e
       -1.238907 1.2767876 -0.3652026 0.15829186
000290 b3 b2 99 be cb ad 74 bf d9 b8 23 3d 17 02 1b bf
       -0.3001915 -0.9557769 0.039971206 -0.60550064
0002a0 56 0d 89 bf ae 61 27 3f 05 81 9f bc 7d 57 58 3f
       -1.0707195 0.6538342 -0.019470701 0.84508497
0002b0 a1 7a 1b bf a7 ad e9 be 29 cf 1e 3f 9b 87 5b bf
       -0.6073399 -0.456403 0.6203485 -0.8575379
0002c0 9f 9b 8a 3e c8 e0 2d bc 8f ec 01 3f 06 cb 0c bf
       0.27071854 -0.010612674 0.50751585 -0.5499729
0002d0 81 d6 c8 be bf 52 24 3f 16 37 37 be 4a 6c 7a 3e
       -0.39226153 0.6418876 -0.17892107 0.24455371
0002e0 95 3d dd be ee 7f 66 3d 5e dc 14 be b5 2f b7 be
       -0.43211046 0.056274347 -0.14537188 -0.35778585
0002f0 b5 f0 bf 3e ee 73 11 be 6a 69 1f 3c 18 7c 85 3e
       0.37488332 -0.1420438 0.0097297225 0.2607124
000300 14 31 25 3e e9 7a 90 3f 22 2a ef be f5 46 3a bd
       0.16132003 1.1287509 -0.46711832 -0.045477826
000310 cd f5 e7 bd 21 bb 6c be 78 14 2b 3f ff 5c 75 3e
       -0.1132618 -0.23118259 0.6682811 0.23961256
000320 cf 31 ac 3e d6 21 19 3e 13 aa 19 3f e8 73 03 bf
       0.3363175 0.14954314 0.6002514 -0.51348734
000330 dd 02 48 3c f3 73 b9 3d ae 58 ce 3f 82 8c 09 3f
       0.012207714 0.09055319 1.6120813 0.5373002
000340 61 4b 0a bf 45 ba 34 3f c8 c1 6d 3f aa 7a 00 be
       -0.5402127 0.70596725 0.9287381 -0.12546793
000350 c6 c3 8d 3e 43 4c 91 be 73 8e db be 11 d6 ca 3d
       0.27688426 -0.28378496 -0.42882118 0.09904111
000360 70 04 98 3d 12 28 93 bd 51 fd 20 3f ee 31 82 be
       0.074227214 -0.07185377 0.6288653 -0.25428718
000370 83 23 03 be 10 6b ce be c5 22 a6 bf a4 0d df 3d
       -0.12806515 -0.40316057 -1.2979361 0.108912736
000380 ef bf 25 3e 40 5b 9a bf 76 a5 27 3f af 03 c5 be
       0.16186498 -1.2059097 0.6548685 -0.38479373
000390 57 4d 98 3c be a4 cb 3e 70 a3 d0 bc b1 37 75 3f
       0.018591566 0.39774126 -0.025468558 0.95788103
0003a0 6f 0c 0c 3f af 98 e1 bd 42 5c 7f bf de c4 bd be
       0.5470647 -0.1101545 -0.9975015 -0.3706426
0003b0 62 92 d8 3e 03 fd ee 3d 7e a7 3e 3d 9a 67 12 3e
       0.4229918 0.11669352 0.04654645 0.14297333
0003c0 63 b1 54 3f 0f 2b e2 3e 64 8f 01 be f2 68 c9 3c
       0.8308317 0.44173476 -0.12652355 0.024586175
0003d0 c6 3c 6c 3f 28 14 bb 3e 14 b1 ee be c5 ff c0 3c
       0.9228023 0.36538815 -0.46619475 0.02355946
0003e0 d9 a5 d3 bd 83 e9 35 be 0c e9 b2 bd 63 45 26 bf
       -0.10334367 -0.17764859 -0.087358564 -0.64949626
0003f0 45 9d 26 bf 18 6f 0e be 81 19 77 3f 54 1b 89 bf
       -0.65083724 -0.13909566 0.9652329 -1.0711465

bias f4 [15]
000000 02 0e 38 3c 2c 67 23 3e 99 d6 9c 3e 98 93 5d bd
       0.0112338085 0.15957326 0.30632475 -0.054095834
000010 bc 57 a4 bd 65 c0 3d 3f 0c e7 77 bd 72 27 74 be
       -0.080245465 0.74121696 -0.060523078 -0.23843172
000020 25 69 c7 bd 73 88 f0 3c e1 6b 07 be 5a 5e 24 3f
       -0.097368516 0.029361939 -0.13224746 0.6420647
000030 c7 2d 61 3e 18 f0 17 3e 99 5e 04 be
       0.21990119 0.14837682 -0.12926711

weight f4 [9, 15]
000000 73 bc d7 bf c5 fb de be eb a0 62 3f 79 56 33 be
       -1.6854385 -0.4355146 0.8852679 -0.17513455
000010 ce c8 f1 bf 5f 20 10 bf e4 f3 84 bd 0d 0d 4c bf
       -1.8889406 -0.56299394 -0.06491831 -0.79707414
000020 5e 5b f9 bd 7e 3d 7a bf 5a bf fb bf a8 76 9b 3f
       -0.1217563 -0.9775008 -1.9667771 1.2145586
000030 4c 56 84 be f5 61 f6 bf 62 b5 d1 bd df 6c 7a be
       -0.2584709 -1.9248644 -0.10239674 -0.24455594
000040 5c 78 e2 be 7a 12 06 c0 e3 6a 63 be 74 63 fc bf
       -0.44232452 -2.0948777 -0.22208743 -1.9717851
000050 b3 8e da bf 81 c8 da 3e 55 95 1f bd 67 3a cb 3e
       -1.7074798 0.42731097 -0.038960773 0.39692995
000060 c4 90 9a bd 2e 39 8c 3f ea de 73 bf c7 98 58 3f
       -0.07547143 1.095495 -0.95262015 0.8460812
000070 16 08 04 bf 7a 00 1b 3e bd c6 a4 bf 24 54 b9 be
       -0.5157484 0.151369 -1.287315 -0.36197007
000080 1f f2 e0 bd 2c 22 51 3e f2 a7 d9 3e cd 3c 72 3f
       -0.10983681 0.20423192 0.42510945 0.94624025
000090 b4 83 a9 bf 1c 6b bd 3e c2 6e 14 be b3 47 eb bd
       -1.3243318 0.3699578 -0.14495376 -0.11488285
0000a0 2b 73 11 c0 16 b3 06 bb 3c 0a f4 bf c2 32 63 3e
       -2.2726543 -0.002055352 -1.9065623 0.22187331
0000b0 85 89 3e be dd 30 9f 3e 8f db 40 3e 1f 53 29 bf
       -0.18607147 0.31091967 0.18833755 -0.6614246
0000c0 92 15 73 3e 12 d8 38 bf 78 47 d5 bf 1c f1 11 c0
       0.23738697 -0.722047 -1.6662436 -2.2803411
0000d0 65 df 58 be 6f cb 97 be e1 59 a1 3e 5f e1 1c c0
       -0.21178968 -0.29647395 0.31513885 -2.4512556
0000e0 07 64 ba be c9 a3 c9 be 75 74 32 3f a5 13 3b 3e
       -0.3640444 -0.3938277 0.6970895 0.18269213
0000f0 c8 60 22 be 60 c8 f2 3e ae d5 c3 3e e6 64 58 bd
       -0.15857232 0.474185 0.38248962 -0.0528306
000100 5d 62 f5 be 70 5b 5c bf 96 f1 10 bf 36 63 46 bf
       -0.47926608 -0.8607702 -0.5661863 -0.77495134
000110 56 14 b6 3e 4d dd 9e bd 3a 7a b2 3b da 93 11 c0
       0.3556239 -0.077570535 0.0054466994 -2.2746491
000120 73 a1 d4 3e 2a 86 b5 be 54 84 19 3e 99 4b 36 3f
       0.41529426 -0.35453922 0.14991885 0.712091
000130 1a a6 21 be d1 67 80 bf 75 73 f3 3d c7 a1 1e be
       -0.15786019 -1.0031682 0.11887256 -0.154914
000140 fe 80 2d bf 24 6d af 3e 02 fe f1 3e 10 b2 c3 bd
       -0.6777495 0.34262955 0.47264105 -0.09555447
000150 5c 38 5d 3e 23 15 b9 bf 49 db 49 c0 89 90 bc bf
       0.2160353 -1.4459575 -3.154009 -1.4731609
000160 9c 4f ae 3f 58 ff 32 be f9 fa a8 3e d4 c8 f0 3e
       1.3618045 -0.17480218 0.33003977 0.4702822
000170 e6 99 d6 be e2 00 f0 3c 57 0c 89 3f 87 a2 2c bf
       -0.4191429 0.029297296 1.0706891 -0.674355
000180 c1 c9 4c bf 33 aa 18 bf 18 cf a7 bd d9 a3 17 bf
       -0.7999535 -0.59634703 -0.08193797 -0.59234387
000190 05 30 68 3f 18 df a1 bf 60 a5 81 bd ba be 06 c0
       0.9069827 -1.2646208 -0.06330371 -2.105391
0001a0 b7 a3 45 3c 7f f9 a4 bf c8 4f cc 3b cc 4a 6b bf
       0.012062958 -1.288864 0.0062350966 -0.91911006
0001b0 a0 6e 2a 3e 38 22 8a bf bf 7a af 3f dc 8d c1 3f
       0.16643763 -1.0791693 1.3709334 1.5121417
0001c0 35 41 1a c0 be 17 d9 3d 11 01 6e be 87 a9 a0 be
       -2.41023 0.106002316 -0.23242594 -0.3137934
0001d0 2a 1f b3 bf 62 15 32 bf 9d 1d ac bf 14 d4 0b 3e
       -1.3993886 -0.6956388 -1.3446537 0.1365512
0001e0 de 31 90 3f 41 06 5d be 37 4e 2c c0 c8 b8 3f bd
       1.1265218 -0.21584417 -2.6922739 -0.04680708
0001f0 02 66 f3 bf 9e 6f 86 3f 66 5e 07 bf 46 bb 5b be
       -1.9015505 1.0502813 -0.52878416 -0.21458158
000200 b1 59 22 3e e1 45 df be cc 2d 04 c0 26 88 63 be
       0.15854527 -0.43608 -2.0652952 -0.22219905
000210 c8 eb 19 bf 83 bd 83 bf e7 65 00 bd
       -0.601254 -1.0292209 -0.03134718

bias f4 [9]
000000 84 5c 24 3e 93 8f 18 bf 58 02 90 3d 2a 94 45 3e
       0.16050917 -0.59594077 0.07031697 0.19294801
000010 1f b9 62 bf 6f 5b 97 bf d3 f8 93 3e 61 32 b3 be
       -0.8856372 -1.1824778 0.28900775 -0.34999374
000020 1b 3b 36 bf
       -0.7118394
