models/basic_model.pth (torch, 17584 bytes, 6 tensors)

weight f4 [38, 68]
0.020522887 -0.11328695 -0.11557715 -0.11713112 0.027955972 0.02797906 -0.11266189 0.082487576
0.11910555 -0.10548491 0.07915583 -0.056349088 -0.034764823 -0.06402028 -0.107387975 0.068589754
0.04327841 -0.07689597 -0.0855289 0.06518561 -0.0027080062 -0.029474394 -0.014072509 0.10019223
0.07535266 0.010901628 -0.11749875 -0.07214694 -0.09287438 -0.06369572 -0.054218136 0.058040094
-0.12035085 0.09594697 -0.08315181 0.028251227 0.041282263 -0.040724613 -0.059140373 -0.060241867
-0.07602633 -0.09676825 0.11314382 0.05309163 0.033523984 -0.117047526 -0.089960836 -0.0006661873
0.046771083 -0.07996474 0.0716313 0.118410304 0.1035325 0.011364376 0.034709774 -0.012609319
0.09130307 0.011470138 -0.031992648 -0.09103255 0.09828359 0.05462846 0.02590414 0.039155807
0.09685649 0.07538614 -0.09995062 -0.09899394 -0.26480034 -0.060765076 0.11269369 -0.051846318
-0.023800276 0.067187704 -0.015658583 0.0076157223 -0.022606578 0.08587652 0.028797613 0.6870797
0.08416815 -0.1568187 0.043491665 -0.086749956 0.09911404 0.074434675 -0.06510959 0.0021363192
0.029792817 0.053424023 -0.041771043 0.041578643 0.11264336 -0.024353467 -0.16718867 -0.111129515
0.08978261 -0.01796838 -0.11638985 -0.0047136666 0.041521486 -0.008011308 0.21564874 0.33799973
0.09004824 -0.0067173173 -0.059856985 -0.03042363 0.0076421658 0.048521727 -0.04179278 0.010833745
-0.11803032 0.08044021 0.43021047 0.07251374 0.06268244 0.08855438 0.024416605 -0.07599598
-0.042890556 -0.026899245 0.08386463 -0.028106498 -0.11581038 -0.2316634 0.102961324 0.9023104
-0.10887962 -0.07383194 -0.098761685 0.050084468 -0.09121739 -0.07833106 0.01755779 0.08357813
-0.0042125806 -0.061305873 0.11617499 0.09060632 0.104157984 -0.05779685 -0.09512688 -0.08028505
0.090844795 0.076393776 0.029144935 -0.05295217 -0.038336255 0.0773616 0.027695483 -0.009378217
-0.09335467 -0.022296866 0.11234465 -0.053992495 -0.10405866 -0.09317322 -0.110488154 -0.016979683
-0.012827706 0.009576191 -0.11374173 -0.08467631 0.023726087 0.004484751 0.03640747 -0.06071333
0.08442468 -0.057200793 -0.045675576 0.021547196 -0.00644701 -0.10673469 -0.08743782 0.11408104
0.09838053 0.0057519684 -0.097277045 -0.060920835 0.0007015328 -0.108249016 0.043848246 -0.031474724
0.07100918 -0.101828255 0.10930422 0.0961565 -0.09071185 -0.060492262 0.09876125 -0.08605579
-0.08963118 -0.07108209 0.08244775 0.027494522 0.07873455 0.07096853 0.00040025017 -0.109507
-0.046624087 -0.095866576 0.07841768 0.07256677 0.024326816 -0.08938833 0.013908746 0.023699077
0.12001317 -0.04306733 -0.01973092 0.059452765 0.009045733 -0.05721627 0.031897526 0.06927472
0.008747513 -0.04752188 0.0574547 -0.086794674 -0.05646501 0.015396562 0.09932173 -0.06287432
-0.106876746 -0.01819321 0.114428796 0.07793696 0.08109762 0.057964556 0.08543723 0.046076816
-0.048464134 0.10859149 0.016784094 0.10411729 0.016349329 0.06369372 -0.054589514 0.043120492
-0.0038966085 0.0075258682 -0.066443264 0.11864431 -0.005903081 -0.010554002 0.043989 -0.013324894
0.07290719 0.032037966 -0.0066572446 -0.016681744 -0.012915424 -0.0060373344 0.0042744516 -0.031160813
00000000: 9d1f a83c fd02 e8bd b6b3 ecbd 71e2 efbd
00000010: ec03 e53c 5734 e53c 47bb e6bd 3fef a83d
00000020: 9ced f33d 7908 d8bd 741c a23d 4dce 66bd
00000030: 8f65 0ebd 111d 83bd 3aee dbbd c978 8c3d
00000040: b444 313d a27b 9dbd c729 afbd 0880 853d
00000050: ce78 31bb 4974 f1bc 6190 66bc 9531 cd3d
00000060: 7f52 9a3d be9c 323c 2fa3 f0bd c6c1 93bd
00000070: ec34 bebd e772 82bd d613 5ebd 73bb 6d3d
00000080: 827a f6bd d87f c43d 7f4b aabd 1e6f e73c
00000090: 9717 293d dace 26bd 2d3d 72bd 2dc0 76bd
000000a0: b1b3 9bbd 6f2e c6bd f2b7 e73d 9c76 593d
000000b0: 7250 093d 9db6 efbd 633d b8bd 13a3 2eba
000000c0: 0993 3f3d 8ec4 a3bd 6eb3 923d 1a81 f23d
000000d0: d908 d43d a631 3a3c d62b 0e3d 5197 4ebc
000000e0: 1bfd ba3d 3fed 3b3c b90a 03bd 466f babd
000000f0: e848 c93d 18c2 5f3d eb34 d43c d761 203d
00000100: b25c c63d 0c64 9a3d e9b2 ccbd 56bd cabd
00000110: e993 87be cde4 78bd f3cb e63d ce5c 54bd
00000120: ccf8 c2bc b599 893d 6e46 80bc 4f8d f93b
00000130: 6e31 b9bc 07e0 af3d f9e8 eb3c 75e4 2f3f
00000140: 5a60 ac3d 1595 20be 5124 323d f6a9 b1bd
00000150: 4dfc ca3d 3571 983d 2d58 85bd 7d01 0c3b
00000160: 1110 f43c 26d3 5a3d 1d18 2bbd 5e4e 2a3d
00000170: 90b1 e63d ec80 c7bc 8233 2bbe df97 e3bd
00000180: f2df b73d 6d32 93bc cd5d eebd 1a75 9abb
00000190: 6f12 2a3d dc41 03bc 06d3 5c3e 4d0e ad3e
000001a0: 366b b83d f11c dcbb 992c 75bd fa3a f9bc
000001b0: 226b fa3b b8be 463d e82e 2bbd 0580 313c
000001c0: e1b9 f1bd d6bd a43d 8c44 dc3e 1582 943d
000001d0: a75f 803d 005c b53d 5505 c83c c8a3 9bbd
000001e0: 02ae 2fbd ce5b dcbc 38c1 ab3d 993f e6bc
000001f0: fe2d edbd 2c39 6dbe 63dd d23d d0fd 663f
00000200: 47fc debd 3335 97bd 9143 cabd 5f25 4d3d
00000210: 2fd0 babd 096c a0bd 5bd5 8f3c 032b ab3d
00000220: b009 8abb de1b 7bbd 27ed ed3d ce8f b93d
00000230: c850 d53d 64bc 6cbd e2d1 c2bd 7d6c a4bd
00000240: d60c ba3d 5774 9c3d 5cc1 ee3c 60e4 58bd
00000250: 7a06 1dbd c26f 9e3d a3e1 e23c 18a7 19bc
00000260: bc30 bfbd eba7 b6bc f414 e63d 3c27 5dbd
00000270: b51c d5bd 9ad1 bebd 9d47 e2bd fa18 8bbc
00000280: 4c2b 52bc 75e5 1c3c 6df1 e8bd c66a adbd
00000290: 365d c23c d1f4 923b 0020 153d 8aae 78bd
000002a0: d9e6 ac3d 614b 6abd 5016 3bbd bf83 b03c
000002b0: 7141 d3bb b897 dabd 9a12 b3bd 52a3 e93d
000002c0: bb7b c93d 027b bc3b 3039 c7bd 2088 79bd
000002d0: 12e7 373a a9b1 ddbd 389a 333d a4eb 00bd
000002e0: 436d 913d 558b d0bd e4da df3d b3ed c43d
000002f0: 22c7 b9bd bcc6 77bd 5743 ca3d 053e b0bd
00000300: 8d90 b7bd 7d93 91bd 5eda a83d 313c e13c
00000310: 943f a13d f357 913d abd8 d139 3545 e0bd
00000320: e6f8 3ebd b255 c4bd 7399 a03d e39d 943d
00000330: 0849 c73c 3b11 b7bd 82e1 633c 9124 c23c
00000340: 77c9 f53d 5e67 30bd bda2 a1bc be84 733d
00000350: 8e34 143c 9c5b 6abd fba6 023d e8df 8d3d
00000360: bb51 0f3c 4ea6 42bd 9f55 6b3d 68c1 b1bd
00000370: db47 67bd dd41 7c3c 3169 cb3d 40c4 80bd
00000380: 32e2 dabd ed09 95bc a559 ea3d 6a9d 9f3d
00000390: 8216 a63d 3e6c 6d3d b7f9 ae3d 0bbb 3c3d
000003a0: 5482 46bd 3765 de3d cc7e 893c 723b d53d
000003b0: 07ef 853c da71 823d 4199 5fbd 1d9f 303d
000003c0: 3e5e 7fbb 8f9b f63b 6813 88bd cafb f23d
000003d0: a26e c1bb b1ea 2cbc cf2d 343d a850 5abc
000003e0: 5d50 953d 3e3a 033d 0425 dabb 27a8 88bc
000003f0: 379b 53bc d5d4 c5bb b310 8c3b f644 ffbc

bias f4 [38]
-0.08712343 -0.237962 -0.04679571 -0.074217625 0.13207775 0.2038014 0.42290062 -0.06762687
-0.06738813 0.103336796 0.32826263 -0.07333181 -0.20652677 0.01843851 0.23533657 -0.06978227
-0.31733027 -0.06966495 0.56523496 0.022707952 -0.33210343 -0.06386609 0.03386928 0.4721089
0.16599263 -0.07868671 1.583885 -0.039578002 -0.10156841 0.058234278 0.119969346 -0.36978325
-0.07799087 -0.031595316 0.882659 -0.31681412 -0.07863852 -0.116548784
00000000: c56d b2bd 4fac 73be dcac 3fbd 69ff 97bd
00000010: 643f 073e 50b1 503e 6e86 d83e f57f 8abd
00000020: ca02 8abd 3ea2 d33d 0a12 a83e fd2e 96bd
00000030: c17b 53be 5c0c 973c 12fc 703e 02ea 8ebd
00000040: 1d79 a2be 7fac 8ebd 3db3 103f 0706 ba3c
00000050: 7609 aabe 39cc 82bd 84ba 0a3d 42b8 f13e
00000060: f9f9 293e 7f26 a1bd bebc ca3f 8b1c 22bd
00000070: 1903 d0bd 1187 6e3d 7db2 f53d 3b54 bdbe
00000080: adb9 9fbd 176a 01bd f1f5 613f 7635 a2be
00000090: 3b0d a1bd 21b1 eebd

weight f4 [15, 38]
-0.0573115 -0.20688105 0.121154785 0.06468459 -0.07854701 -0.07334882 0.003907988 0.018563794
0.011263274 0.10004663 0.16927855 0.0147392955 -0.032846916 0.104295194 0.031960428 -0.035693195
-0.092627645 0.1486753 0.060446817 0.1255057 -0.23433302 -0.008802679 0.15404885 0.12653095
0.18888444 -0.09827978 0.48304325 0.050227717 -0.118803464 -0.09556055 0.009384489 -0.18853356
0.019988967 0.07337355 0.0018129488 -0.29537642 -0.022943342 -0.09921197 -0.00011462559 -0.3437518
0.020807367 -0.04633322 0.40485415 -0.06452095 0.2571749 0.038999088 -0.032968692 0.11478443
0.41196555 -0.23170988 -0.22210264 0.13258918 0.14367469 -0.17523564 -0.25091675 0.10189678
0.23284152 -0.030630156 -0.5001457 0.031372216 0.114303835 0.10153125 0.056888856 0.14501281
0.76996434 -0.11907058 -0.071392305 0.078733735 0.02680414 -0.46530595 -0.06140145 -0.06369785
0.42325184 -0.4637071 -0.07314408 0.079683475 0.0130137205 -0.2785148 -0.054041874 0.018663542
-0.032827877 -0.14449012 0.36882526 0.11021897 -0.09266148 0.13474248 0.29910862 -0.32543853
-0.14645125 -0.062911324 -0.05888483 -0.057539195 -0.24475819 0.012864913 0.19376244 -0.010060865
-0.4449512 0.05737577 0.091381274 0.1492314 0.2169935 0.02189333 0.8583374 -0.173874
0.1281843 -0.07605339 0.1552662 -0.601197 -0.11991339 0.053007826 0.4446399 -0.5294107
-0.048479203 -0.073334135 -0.05190119 0.08128468 -0.049885217 0.055279892 0.10743805 -0.03145815
-0.041368023 0.14034487 0.06974064 -0.12539987 -0.09818164 0.038703214 -0.1452577 -0.07907502
0.122435644 0.10633517 0.011044223 -0.015638025 0.06880985 -0.11957137 0.074867554 -0.001901602
-0.09506184 -0.09386977 0.074696176 0.028378418 0.12931482 -0.032094643 -0.0922906 0.014978299
0.053913157 -0.13385212 0.12432485 0.056699615 -0.079654105 -0.046381377 0.1525707 -0.10768508
-0.13796476 0.0875024 0.07334755 -0.15729082 0.12926178 0.05602966 0.052515667 -0.0750073
-0.0289976 -0.12759764 0.014683222 0.117689006 -0.015445332 -0.044553943 0.12751551 -0.07613847
-0.13410868 0.044469394 -0.04934771 0.07509191 -0.11479713 -0.16009215 -0.15247735 0.07541221
-0.046968374 -0.10290587 0.24497263 0.1500868 -0.05518909 -0.044231877 -0.047011446 -0.12291955
0.009031631 0.024221659 -0.012248433 -0.0641671 0.023896229 0.1453892 0.0062451586 -0.021307897
-0.06880757 0.047819506 0.076137714 -0.11186428 0.11220057 -0.11674679 0.14182499 0.0170411
-0.07831015 -0.1201235 0.04606462 0.05149959 -0.08108342 -0.14160638 0.009799857 0.02601763
0.01684617 -0.09529295 -0.143034 -0.14987326 0.09044751 -0.11239283 -0.11171058 -0.07362006
0.09813935 0.07240545 0.09306446 0.040924087 -0.054351967 0.05976504 -0.047211237 -0.07564297
0.096112914 -0.07938744 -0.023600897 -0.10397584 -0.1437421 0.66529834 0.11073751 -0.029077746
-0.01705891 0.0717622 -0.33951125 -0.039520524 0.4284435 0.1741646 -0.13289893 0.60927325
0.3094988 -0.043411113 0.025216853 0.33012927 0.44987398 -0.04377862 -0.3139724 0.09559898
0.62695485 0.13772695 0.098731466 0.19089344 -0.31172705 0.036418647 -0.6294407 0.23068073
00000000: 77bf 6abd a0d8 53be 0020 f83d 5b79 843d
00000010: 41dd a0bd e837 96bd 940e 803b 1913 983c
00000020: 9889 383c 3fe5 cc3d 5b57 2d3e 167d 713c
00000030: 7d8a 06bd b898 d53d f0e8 023d 0733 12bd
00000040: 90b3 bdbd 563e 183e 1597 773d 9184 003e
00000050: fff4 6fbe 1d39 10bc fbbe 1d3e 5491 013e
00000060: ec6a 413e e946 c9bd 7251 f73e 94bb 4d3d
00000070: 3b4f f3bd 40b5 c3bd 66c1 193c f10e 41be
00000080: e7bf a33c df44 963d 78a0 ed3a 943b 97be
00000090: adf3 bbbc a52f cbbd 2563 f0b8 3c00 b0be
000000a0: 3674 aa3c e7c7 3dbd 0b49 cf3e 8f23 84bd
000000b0: 6eac 833e 82bd 1f3d 2e0a 07bd 1914 eb3d
000000c0: 26ed d23e 5b45 6dbe e06e 63be 75c5 073e
000000d0: 751f 133e f970 33be 2978 80be 42af d03d
000000e0: 026e 6e3e 18ec fabc 8c09 00bf 2780 003d
000000f0: 2118 ea3d 9eef cf3d 4a04 693d 3d7e 143e
00000100: 621c 453f 47db f3bd 2136 92bd 273f a13d
00000110: 5b94 db3c 953c eebe 1680 7bbd 0574 82bd
00000120: 77b4 d83e 046b edbe 90cc 95bd 1731 a33d
00000130: 8037 553c 7e99 8ebe 035b 5dbd 49e4 983c
00000140: 8676 06bd 38f5 13be aad6 bc3e 7cba e13d
00000150: 4dc5 bdbd eff9 093e c424 993e e19f a6be
00000160: 51f7 15be a7d7 80bd 3831 71bd 38ae 6bbd
00000170: e4a1 7abe 5bc7 523c a969 463e 54d6 24bc
00000180: a5d0 e3be db02 6b3d 1b26 bb3d 1ed0 183e
00000190: 8b33 5e3e a459 b33c 00bc 5b3f 070c 32be
000001a0: bf42 033e e1c1 9bbd 1afe 1e3e 0ce8 19bf
000001b0: 2795 f5bd bc1e 593d d7a7 e33e 7687 07bf
000001c0: 2192 46bd 3530 96bd 5896 54bd 9578 a63d
000001d0: 7154 4cbd 2b6d 623d 7b08 dc3d 43da 00bd
000001e0: 8471 29bd 91b6 0f3e 2ed4 8e3d d368 00be
000001f0: 7513 c9bd 4387 1e3d 6fbe 14be 16f2 a1bd
00000200: 8abf fa3d 41c6 d93d d4f2 343c 511b 80bc
00000210: 2eec 8c3d d6e1 f4bd 2954 993d 2d3f f9ba
00000220: c8af c2bd cb3e c0bd 4ffa 983d db79 e83c
00000230: 1b6b 043e ac75 03bd db02 bdbd 8a67 753c
00000240: 0bd4 5c3d 8810 09be 079e fe3d db3d 683d
00000250: b121 a3bd 66fa 3dbd 7e3b 1c3e ff89 dcbd
00000260: a246 0dbe 7534 b33d 3e37 963d d810 21be
00000270: 335d 043e 5b7f 653d ab1a 573d 6d9d 99bd
00000280: 608c edbc f5a8 02be e691 703c ef06 f13d
00000290: 6b0e 7dbc 327e 36bd 6d93 023e 7cee 9bbd
000002a0: c953 09be 8a25 363d d320 4abd cac9 993d
000002b0: c21a ebbd 32ef 23be 0623 1cbe b771 9a3d
000002c0: e961 40bd 50c0 d2bd 1bda 7a3e 5bb0 193e
000002d0: f50d 62bd 7c2c 35bd 138f 40bd 3fbd fbbd
000002e0: 68f9 133c 806c c63c a7ad 48bc 0a6a 83bd
000002f0: 06c2 c33c e8e0 143e 30a4 cc3b e68d aebc
00000300: fcea 8cbd 63de 433d 17ee 9b3d 1a19 e5bd
00000310: 6ac9 e53d f118 efbd 923a 113e c799 8b3c
00000320: 1261 a0bd 4f03 f6bd 41ae 3c3d 3cf1 523d
00000330: 100f a6bd 4301 11be 948f 203c ed22 d53c
00000340: fb00 8a3c f328 c3bd 8177 12be 6078 19be
00000350: 8b3c b93d 362e e6bd 84c8 e4bd 1dc6 96bd
00000360: 49fd c83d 4f49 943d 9498 be3d 04a0 273d
00000370: 2ba0 5ebd 30cc 743d 9260 41bd b4ea 9abd
00000380: d9d6 c43d e295 a2bd ab56 c1bc 49f1 d4bd
00000390: 2131 13be fe50 2a3f 59ca e23d 7434 eebc
000003a0: 21bf 8bbc 0ff8 923d 6bd4 adbe 46e0 21bd
000003b0: f25c db3e 3458 323e a816 08be 55f9 1b3f
000003c0: a076 9e3e dacf 31bd 9393 ce3c b406 a93e
000003d0: e255 e63e 3651 33bd fec0 a0be 66c9 c33d
000003e0: 1d80 203f 4b08 0d3e b933 ca3d 9279 433e
000003f0: b09a 9fbe b82b 153d 0723 21bf 9237 6c3e

bias f4 [15]
0.106617145 0.4151157 0.50284004 -0.18058896 0.015287101 -0.09579574 0.2041879 1.3155644
-0.11720311 0.72793144 -0.08172086 -0.11246062 0.69643676 -0.073357806 -0.024258424
00000000: 175a da3d 0c8a d43e 20ba 003f 50ec 38be
00000010: c076 7a3c 8f30 c4bd a216 513e 6a64 a83f
00000020: 2f08 f0bd b759 3a3f 445d a7bd c151 e6bd
00000030: ae49 323f 9e3c 96bd 9ab9 c6bc

weight f4 [3, 15]
0.3016544 1.0498312 0.6330776 0.210942 -0.062019087 -0.24393441 -1.6809698 2.9917388
0.010657949 -0.04606103 -0.10936036 -0.59382063 -0.4339121 -0.1877131 -0.5553235 -0.07873644
-0.06353167 -0.70181584 0.0701802 -0.24509569 0.20665649 0.83602244 -2.2784178 -0.09614184
-1.4199744 -0.009943723 1.5250645 -1.3156947 0.23763838 0.49111357 -0.6293666 -1.1267352
-1.2706556 0.22157799 -0.21122378 0.06455773 0.283936 -2.3885791 0.21056737 1.1829312
-0.16403419 -1.4948921 0.91729295 0.12164104 -0.7189788
00000000: 7272 9a3e de60 863f 6011 223f 2e01 583e
00000010: ba07 7ebd f1c9 79be 052a d7bf a678 3f40
00000020: ae9e 2e3c 7eaa 3cbd 53f8 dfbd a104 18bf
00000030: ba29 debe dd37 40be ae29 0ebf 9240 a1bd
00000040: e41c 82bd 34aa 33bf a3ba 8f3d 5dfa 7abe
00000050: c29d 533e 9105 563f 99d1 11c0 03e6 c4bd
00000060: b9c1 b5bf ffea 22bc 5035 c33f af68 a8bf
00000070: 7a57 733e 3d73 fb3e 2b1e 21bf dc38 90bf
00000080: d8a4 a2bf 57e5 623e 0c4b 58be d836 843d
00000090: 0f60 913e 7bde 18c0 f99e 573e 4a6a 973f
000000a0: 94f8 27be a058 bfbf b6d3 6a3f f01e f93d
000000b0: ff0e 38bf

bias f4 [3]
-0.51021993 -1.0104043 -0.4066277
00000000: c69d 02bf ee54 81bf 8231 d0be
