models/basic_model.pth (torch, 17840 bytes, 6 tensors)

weight f4 [38, 68]
0	0x3e4a3e0e	0.19750234
1	0x3e7a0183	0.24414639
2	0x3cb5c2d9	0.022187637
3	0xbda75bc8	-0.08171803
4	0xbd763ac4	-0.060114637
5	0x3ddc280d	0.107498266
6	0x3b857427	0.0040726843
7	0x3e05cefe	0.13067243
8	0x3dec9ab7	0.11552947
9	0xbd1acd34	-0.037793353
10	0x3e861980	0.2619133
11	0x3e76412a	0.24048296
12	0xbaff67a3	-0.0019485842
13	0x3e0e9781	0.13924982
14	0x3e5371a6	0.20648822
15	0xbd994194	-0.07483211
16	0xbe2135c7	-0.1574317
17	0xbd90d492	-0.070717946
18	0xbc95e3d2	-0.01829711
19	0x3d9522d3	0.07282033
20	0xbd207e8e	-0.039183192
21	0x3d33346c	0.043751165
22	0xbdb9189a	-0.090378955
23	0xbd1f0ba3	-0.038829457
24	0x3b648b83	0.0034873195
25	0x3b800d09	0.003907804
26	0xbd4d7fc1	-0.050170664
27	0xbc628a5b	-0.013826932
28	0xbdd3f939	-0.1035027
29	0x3d0b0584	0.033940807
30	0x3ce43127	0.027855469
31	0xbd810e47	-0.06301551
32	0x3db8617e	0.0900297
33	0xbdb815a7	-0.08988505
34	0xbccc8000	-0.024963379
35	0xbe0636bc	-0.13106817
36	0x35e77a8d	1.7246508e-06
37	0x3dd73c4a	0.10509546
38	0xbcc9b5cf	-0.024622826
39	0x3d2225b1	0.039586727
40	0x3de36630	0.11103475
41	0xbd6aa1b4	-0.05728312
42	0xbd04afb6	-0.032394134
43	0x3baeb078	0.0053310953
44	0x3d0a85d1	0.033819024
45	0x3e752407	0.23939525
46	0x3def6280	0.11688709
47	0xbc39b12d	-0.011333746
48	0xbb9a48a5	-0.004708367
49	0x3bcd2d0a	0.0062614726
50	0x3d18a7b9	0.037269328
51	0x3cef83d1	0.02923766
52	0xbd4908bc	-0.049080595
53	0xbccea76c	-0.025226317
54	0x3dc0cab5	0.09413663
55	0x3cae4a16	0.021275561
56	0xbe04c4f1	-0.12965752
57	0x3e0729af	0.13199495
58	0x3d9fb021	0.07797266
59	0xbeb5bdcc	-0.35496366
60	0xbdccb172	-0.099947825
61	0x3da7faf5	0.08202163
62	0xbda34748	-0.0797258
63	0xbda0822d	-0.07837329
64	0x3d1255c5	0.035726327
65	0x3cf55a06	0.029950153
66	0x3da5577f	0.08073329
67	0x3c7c21b3	0.015388894
68	0x3d660c32	0.056163974
69	0x3cddd471	0.027078839
70	0x3d0cff13	0.034422945
71	0xbddc7429	-0.10764343
72	0x3d602dac	0.054731056
73	0x3bb59b0c	0.0055421647
74	0xbcd948e1	-0.02652401
75	0xbd210aff	-0.039317127
76	0xbd8f2e93	-0.06991305
77	0xbdcec51c	-0.100961894
78	0x3d5f9d7b	0.054593544
79	0xbd5818ca	-0.052758016
80	0x3ced31b3	0.028954362
81	0xbde8140b	-0.11331948
82	0x3d71d497	0.059040632
83	0xbdc0c832	-0.09413184
84	0x3d8a4445	0.06751303
85	0xbd07605b	-0.033050876
86	0x3dc9be13	0.09850707
87	0xbd9a98ed	-0.075486995
88	0x3dd7353d	0.10508201
89	0xbdec9f74	-0.11553851
90	0xbd7c1322	-0.061541684
91	0xbbea49f8	-0.007149931
92	0x3df47532	0.11936416
93	0xbdbbce9c	-0.09170267
94	0xbd4a39e3	-0.04937161
95	0x3d58b650	0.05290824
96	0xbcbe02bb	-0.023194661
97	0x3debff1d	0.11523268
98	0x3cdd4948	0.027012482
99	0x3da0c64f	0.07850324
100	0xbda6422a	-0.081180885
101	0xbdce3693	-0.10069003
102	0x3dde6232	0.10858573
103	0xbd1ec425	-0.038761277
104	0x3d64747e	0.055775158
105	0x3d1b811b	0.03796492
106	0x3d925ace	0.07146226
107	0xbdac6ff0	-0.08419788
108	0x3d1b5ce7	0.037930395
109	0x3db47cd8	0.088128746
110	0xbde04faa	-0.10952695
111	0xbcacc2db	-0.021089008
112	0xbdd400cb	-0.10351714
113	0xbcd95504	-0.026529796
114	0xbdbc33bd	-0.09189556
115	0x3c629007	0.013828284
116	0xbd95e1b2	-0.073184386
117	0xbd8c6a3e	-0.068562016
118	0xbd318dae	-0.043348007
119	0xbd392694	-0.045202807
120	0x3de70fca	0.112823084
121	0x3da1f358	0.07907742
122	0xb71d357c	-9.370382e-06
123	0x3d32bae0	0.04363525
124	0x3d571a8c	0.05251555
125	0xbda702de	-0.08154844
126	0x3cafede1	0.021475734
127	0xbde2e753	-0.11079278
128	0xbdefe5bc	-0.1171374
129	0x3de78d8e	0.11306296
130	0x3cea9cea	0.028639276
131	0xbace1ffd	-0.0015726086
132	0x3bf981ab	0.0076143346
133	0x3db971fe	0.090549454
134	0xbd68c4be	-0.056828253
135	0xbdf35240	-0.11880922
136	0xbe8225a0	-0.2541933
137	0x3d6e663c	0.058202967
138	0x3c2307e8	0.009950615
139	0xbd3e3145	-0.046433706
140	0x3c711771	0.0147150615
141	0xbe0bc2e6	-0.13648567
142	0x3cfa82b5	0.030579904
143	0xbd3aaa8b	-0.0455728
144	0xbc7a0a2d	-0.015261215
145	0xbde4fb20	-0.11180711
146	0xbe9f3e47	-0.311022
147	0x3eefbbeb	0.46823058
148	0xbd903ef8	-0.0704326
149	0xbe9b3ae3	-0.30318365
150	0xbebc2e82	-0.36754233
151	0xbdb634ec	-0.08896813
152	0x3dd914d0	0.10599673
153	0x3dc5f54d	0.09665928
154	0xbd217ec2	-0.039427526
155	0xbd9aedd8	-0.07564896
156	0x3d105d64	0.035245314
157	0x3d7d1438	0.06178686
158	0xbce669bf	-0.028126596
159	0x3d00cdb6	0.03144618
160	0x3dbd6b68	0.09249002
161	0xbdc59dfd	-0.096492745
162	0x3d970baa	0.073752716
163	0x3ce4672f	0.027881233
164	0x3d982c8a	0.0743037
165	0xbddff454	-0.10935274
166	0x3cba7290	0.022759706
167	0x3d53de8e	0.051725917
168	0xbc034009	-0.008010873
169	0x3d00880e	0.03137975
170	0x3e935f6c	0.2878374
171	0x3ed2b979	0.4115713
172	0x3c892946	0.016743314
173	0xbd86227f	-0.06549548
174	0xbe24f499	-0.16108932
175	0xbdf261c7	-0.11835056
176	0x3c93a0c7	0.018021
177	0x3d660761	0.05615938
178	0xbe03c68d	-0.1286871
179	0x3db6c2b4	0.089238554
180	0x3d1bb3cd	0.03801327
181	0xbe760a84	-0.24027449
182	0x3eef9785	0.46795288
183	0x3de97037	0.113983564
184	0xbd8df60c	-0.06931695
185	0xbc620eb1	-0.013797448
186	0xbe0adf83	-0.13561825
187	0xbe7efdd9	-0.24901523
188	0x3b3db78b	0.0028948511
189	0xbd93c715	-0.07215706
190	0xbd6a6e6c	-0.057234213
191	0x3defa660	0.117016554
192	0x3e12e541	0.14345266
193	0xbdb565ba	-0.088572934
194	0x3dab1c35	0.083549894
195	0x3eb7837b	0.358425
196	0xbd76b8d1	-0.06023485
197	0x3d39b412	0.045337744
198	0xbd893861	-0.067002065
199	0x3b35d850	0.002774734
200	0xbd9bce5d	-0.0760772
201	0xbb0c1384	-0.0021373937
202	0x3cc1cd97	0.023657603
203	0xbd3e1e1b	-0.04641543
204	0xbec206bc	-0.37895763
205	0xbda9dd33	-0.082941435
206	0xbdaf6b82	-0.08565427
207	0xbd7d5167	-0.06184521
208	0x3dcb2d19	0.09920711
209	0xbd5ea864	-0.05435981
210	0x3dc593b9	0.096473165
211	0xbd8e04ed	-0.06934533
212	0x3cba0094	0.022705354
213	0xbded504d	-0.11587582
214	0xbebe1a05	-0.37129226
215	0xbd3ee65d	-0.04660641
216	0xbdc3e052	-0.0956427
217	0x3c72a466	0.014809703
218	0xbe70cd54	-0.23515826
219	0x3da36a0f	0.079792134
220	0x3e2326be	0.15932748
221	0x3df86da4	0.12130287
222	0xbdc4f0e7	-0.09616261
223	0x3d085973	0.03328843
224	0x3d30c3ad	0.04315536
225	0xbb55e88e	-0.0032639834
226	0x3dc1d6f8	0.0946483
227	0xbd87998e	-0.06621085
228	0xbd4ec3fe	-0.05047988
229	0x3cab7286	0.020928632
230	0xbeabbeae	-0.33543915
231	0xbe0613eb	-0.13093536
232	0xbdc30851	-0.095230706
233	0xbd6fa3cf	-0.05850583
234	0xbe01a945	-0.12662227
235	0xbe0058de	-0.125339
236	0x3dc920eb	0.09820732
237	0xbd9ffc98	-0.0781185
238	0x3e97aea3	0.29625425
239	0x3f230b78	0.63689375
240	0x3c7d8342	0.015473189
241	0xbe41e3f7	-0.18934618
242	0xbdc1ba75	-0.09459392
243	0xbdd556aa	-0.104169205
244	0xbe061ff2	-0.13098124
245	0xbd994e78	-0.0748567
246	0xbc8de7b1	-0.017322393
247	0xbdb759d8	-0.08952683
248	0x3dd82c0e	0.10555278
249	0xbdb41878	-0.087937295
250	0x3e332925	0.17496164
251	0x3c06ba0c	0.008223068
252	0xbdacc3c9	-0.084357806
253	0xbe33f551	-0.1757405
254	0xbe473dae	-0.19457123
255	0xbd6aac3c	-0.05729316

bias f4 [38]
0	0x3ebf2788	0.37334847
1	0xbdaf5d74	-0.08562747
2	0xbe1b23d7	-0.1515039
3	0x3b85415f	0.0040666307
4	0x3d0182f0	0.031619012
5	0x3dbae2dd	0.09125302
6	0xbf22d2c0	-0.6360283
7	0xbb9b957d	-0.004748045
8	0xbc9a60df	-0.01884502
9	0x3f4279e9	0.7596727
10	0x3c94160c	0.018076919
11	0xbd8343e0	-0.064094305
12	0xbdf7cfb0	-0.1210016
13	0xbdeeca53	-0.11659684
14	0x3e4c62ee	0.19959614
15	0x3eb58d23	0.3545924
16	0x3da5bb22	0.080923334
17	0x3f457a8c	0.77140117
18	0xbe5daec7	-0.21648704
19	0x3e80362b	0.25041327
20	0x3f429e98	0.76023245
21	0xbe016506	-0.12636194
22	0x3e88c538	0.26712966
23	0x3f0b3557	0.54378265
24	0x3e452ff4	0.19256574
25	0x3d47c991	0.048776213
26	0xbd829d8f	-0.06377708
27	0x3c9258ee	0.01786467
28	0x3c1b98f2	0.009496914
29	0x3d4decf9	0.050274823
30	0x3e8196d6	0.2531039
31	0x3d3e9896	0.046532236
32	0xbdb717f3	-0.08940115
33	0x3dbb12b4	0.09134427
34	0x3f231ec6	0.6371883
35	0x3e46e3d4	0.19422847
36	0xbd07c926	-0.033150814
37	0xbca34d61	-0.019934358

weight f4 [15, 38]
0	0x3e966b4b	0.29378733
1	0x3dad570c	0.084638685
2	0xbed935fb	-0.42423996
3	0xbec4e666	-0.3845703
4	0xbe7bfab8	-0.2460736
5	0x3c685f5a	0.01418289
6	0x3e0e2285	0.13880356
7	0x3bd62b91	0.0065359552
8	0x3e24769c	0.16060871
9	0x3f16782a	0.58777106
10	0x3af4de65	0.0018682001
11	0xbe320743	-0.17385583
12	0xbebffe5d	-0.3749875
13	0xbdfd601e	-0.123718485
14	0x3e58e88e	0.21182463
15	0x3f494b91	0.7863093
16	0x3e0a5146	0.13507566
17	0x3f713fd9	0.9423805
18	0xbf0ea9db	-0.5572793
19	0xbe889bf0	-0.2668147
20	0xbddf6b16	-0.10909097
21	0x3ef1cdfb	0.47227463
22	0x3d7c8468	0.06164971
23	0x3f480bb5	0.78142864
24	0x3ec3a859	0.38214377
25	0x3ea1497f	0.31501386
26	0xbd3f06f4	-0.04663749
27	0x3d31bf5e	0.043395393
28	0xbef0ba7c	-0.47017276
29	0x3eb043ed	0.34426823
30	0xbdb1e711	-0.086866505
31	0xbe68c1f6	-0.2273024
32	0xbc98a854	-0.018634953
33	0x3e6a9fc9	0.22912516
34	0xbe95b394	-0.2923857
35	0x3e4e13c5	0.20124729
36	0xbe5622ff	-0.20911787
37	0x3df9280c	0.121658415
38	0x3a42ccf6	0.0007431054
39	0xbdefe625	-0.117138185
40	0x3f271428	0.6526513
41	0x3f2c48d4	0.67298627
42	0x3e182c05	0.14860542
43	0x3ed5fa59	0.41792563
44	0xbbef3fd3	-0.0073013096
45	0x3dc1e7db	0.09468051
46	0xbdee3f24	-0.11633137
47	0x3ef116ae	0.47087616
48	0x3ecbf36e	0.3983416
49	0x3d394ce0	0.04523933
50	0x3e21de88	0.15807545
51	0xbd94e782	-0.07270719
52	0x3e099309	0.13434996
53	0xbf5277be	-0.8221396
54	0xbe5d950e	-0.21638891
55	0x3d1b7a64	0.037958518
56	0x3f653cb5	0.89545757
57	0x3f8020ac	1.0009971
58	0x3f57ccec	0.8429706
59	0xbed8fcff	-0.4238052
60	0x3ea91f06	0.33031482
61	0xbf0c6b30	-0.54851055
62	0xbeb9c125	-0.3628017
63	0xbdd68e4e	-0.10476361
64	0xbe10483b	-0.14090054
65	0xbdeaff78	-0.11474508
66	0x3e0b5cfc	0.1360969
67	0xbe99a5ed	-0.30009404
68	0x3ea62c47	0.32455656
69	0x3dff1025	0.12454251
70	0x3deefdae	0.11669479
71	0x3df240e2	0.11828782
72	0x3ec8e34f	0.39235923
73	0xbe30e3f7	-0.17274462
74	0xbdeb7ada	-0.114980415
75	0xbc046c1e	-0.008082418
76	0x3e15e0a4	0.14636475
77	0xbdfeffe0	-0.12451148
78	0x3d815cd4	0.06316534
79	0x3c4955bb	0.012288506
80	0xbc33cd35	-0.010974218
81	0xbdb7a071	-0.08966149
82	0xbc9e40bd	-0.019317979
83	0xbcd10e8c	-0.025519632
84	0x3dbf6291	0.09344972
85	0xbe142271	-0.14466263
86	0xbe29af51	-0.16570784
87	0x3dcdd9f6	0.100513384
88	0x3dab106f	0.08352744
89	0x3e0d6203	0.1380692
90	0xbc9a9bff	-0.018873213
91	0x3db94681	0.09046651
92	0xbd90ba0b	-0.07066735
93	0xbdf9ae41	-0.121914394
94	0x3dfd6b64	0.12373999
95	0xbd77d24b	-0.060503285
96	0xbdf12ba2	-0.117759004
97	0xbd8d7a94	-0.069081455
98	0x3e083e22	0.13304952
99	0xbd5c4592	-0.053777285
100	0x3d471e9a	0.04861317
101	0x3da65803	0.08122256
102	0xbdca1c16	-0.09868638
103	0x3e07fe76	0.13280663
104	0x3d6eadc2	0.058271177
105	0x3d8459d8	0.06462449
106	0x3daf573c	0.085615605
107	0xbe185e93	-0.14879827
108	0x3e15a7e8	0.14614832
109	0x3d84501a	0.06460591
110	0xbcff5178	-0.031166777
111	0xbe1b3cc5	-0.151599
112	0xbd31519e	-0.043290727
113	0xbe09bb43	-0.13450341
114	0xbda86459	-0.08222265
115	0xbde41cda	-0.111383155
116	0xbd803a2a	-0.06261094
117	0x3de11fb2	0.109923735
118	0xbe0534c5	-0.13008411
119	0x3d98e21c	0.07465002
120	0xbddf3e2c	-0.1090053
121	0x3cceacb7	0.025228841
122	0x3db114a3	0.08646514
123	0xbd802152	-0.06256355
124	0xbce6755a	-0.02813213
125	0x3d013a75	0.03154989
126	0xbdba78b2	-0.09105052
127	0xbe0d6fee	-0.13812229
128	0x3e1ab12c	0.15106648
129	0xbdeaef3e	-0.11471413
130	0x3e1ebbd3	0.15501337
131	0xbe223987	-0.15842257
132	0xbd21bf51	-0.039489094
133	0x3dba4fa6	0.09097223
134	0x3c8ae853	0.016956484
135	0x3dde6b80	0.10860348
136	0x3e00b75d	0.12569948
137	0xbc743b8c	-0.014906775
138	0xbd5c5e4e	-0.053800873
139	0x3db94ef6	0.09048264
140	0x3c60472c	0.013688844
141	0xbe20b80e	-0.15695211
142	0x3e2b4b9f	0.16728066
143	0x3e1c8576	0.15285286
144	0x3dc90f65	0.098173894
145	0xbd5c64d4	-0.053807095
146	0x3e18d05b	0.14923231
147	0xbce10761	-0.027469339
148	0x3c9a323f	0.018822787
149	0xbd33c4a4	-0.043888703
150	0x3df8a6a2	0.12141158
151	0x3e0a3491	0.13496615
152	0xbe175830	-0.14779735
153	0xbb76a83b	-0.0037636894
154	0xbd660dd8	-0.056165546
155	0x3d4acbe8	0.049510866
156	0xbd2ce5ba	-0.04221127
157	0x3d77d4db	0.06050573
158	0xbda19d20	-0.07891297
159	0xbcfe1cf2	-0.031019662
160	0x3da87ca4	0.08226898
161	0xbd9c3592	-0.07627405
162	0xbdb4a5a9	-0.0882066
163	0xbd9e08db	-0.07716533
164	0xbe009528	-0.12556899
165	0xbb7ec7db	-0.0038876447
166	0x3e12cc94	0.14335853
167	0xbe3088e9	-0.17239727
168	0x3ccde789	0.025134819
169	0xbd173a13	-0.03692062
170	0x3d361b81	0.044459824
171	0x3d2f5101	0.04280186
172	0xbd1b0c6e	-0.03785365
173	0x3df782c8	0.120854914
174	0x3db32373	0.08746996
175	0x3bec3ba2	0.007209257
176	0xbc95acc0	-0.01827085
177	0x3ddfa200	0.10919571
178	0x3ced38a1	0.028957667
179	0x3d631461	0.055439357
180	0x3ded284c	0.11579952
181	0xbbaeabe7	-0.005330551
182	0xbde7610d	-0.11297808
183	0xbb35a8fb	-0.0027719128
184	0xbc1dfa06	-0.00964213
185	0x3dcff477	0.1015405
186	0x3d0065ea	0.031347193
187	0x3cc56ba2	0.024099175
188	0xbd03d80d	-0.032188464
189	0x3d047a76	0.03234335
190	0x3f06f760	0.52721214
191	0x3dce9309	0.100866385
192	0xbe9bcb86	-0.30428714
193	0xbf6f0053	-0.9335987
194	0x3eb8dded	0.36106816
195	0xbefe09a2	-0.49616724
196	0xc00029a9	-2.0025427
197	0x3d87264f	0.06599104
198	0x3e159945	0.14609249
199	0x3f795bd6	0.97405756
200	0xbe1943d4	-0.1496728
201	0x3e2c9323	0.16853003
202	0xbefd63a4	-0.49490082
203	0x3da6d5f8	0.0814628
204	0x3e6e984d	0.23300286
205	0x3f405ab2	0.7513839
206	0x3e6203c6	0.22071752
207	0x3f773f16	0.96580637
208	0xbeea7309	-0.4579089
209	0xbe50d291	-0.20392825
210	0x3f483e7a	0.7822033
211	0xbde4e485	-0.11176399
212	0xbbf42e83	-0.0074518337
213	0x3f65d717	0.89781326
214	0x3e15f09f	0.14642571
215	0x3e6b1250	0.22956204
216	0x3e1599d5	0.14609464
217	0x3dc4babb	0.096059285
218	0xbec29c23	-0.38009748
219	0x3e13bc96	0.14427409
220	0xbd243760	-0.040091872
221	0xbd2da117	-0.042389955
222	0x3e25222f	0.16126321
223	0x3d97b36e	0.0740727
224	0x3f435665	0.763037
225	0xbd2bd14d	-0.04194765
226	0xbeb39e43	-0.35081682
227	0x3dc1a957	0.09456127
228	0x3d37973e	0.04482197
229	0xbde76c15	-0.11299912
230	0x3ca82888	0.02052714
231	0xbe0e35f2	-0.13887766
232	0xbdbfb959	-0.09361524
233	0xbdbc7b12	-0.09203161
234	0xbe1d2a23	-0.15348105
235	0xbd6df1a5	-0.05809178
236	0x3d80d8ee	0.06291376
237	0x3d837203	0.064182304
238	0xbd76c7ba	-0.060249068
239	0x3df7a067	0.12091141
240	0xbe229a51	-0.1587918
241	0xbdd076ac	-0.10178885
242	0xbe1a3900	-0.15060806
243	0xbcd31d13	-0.0257707
244	0xbd128dbd	-0.035779703
245	0xbc8c9af9	-0.01716374
246	0xbdcbcede	-0.09951566
247	0xbe225202	-0.15851596
248	0x3e13cb60	0.1443305
249	0xbd2cac46	-0.04215648
250	0xbd4ac732	-0.049506374
251	0x3dad1345	0.08450941
252	0xbdd2d241	-0.10294009
253	0x3cd22121	0.025650563
254	0xbd830b39	-0.06398625
255	0xbda98718	-0.0827772

bias f4 [15]
0	0x3f1690e2	0.58814824
1	0x3f2ae8eb	0.66761655
2	0xbe005f89	-0.12536444
3	0xbdb71960	-0.08940387
4	0xbc8f6ba0	-0.017507374
5	0x3f8b9a5f	1.0906485
6	0xbdb937d6	-0.09043853
7	0xbdd022c4	-0.10162881
8	0xbdb77f3a	-0.089598134
9	0x3df4b955	0.11949412
10	0xbe94ce14	-0.29063475
11	0x3ee7f4c9	0.45303944
12	0x3e9f66c9	0.31133106
13	0xbdce139f	-0.10062336
14	0xbed14292	-0.40871102

weight f4 [7, 15]
0	0xbe850c85	-0.25986114
1	0xbec4f688	-0.38469338
2	0x3c1b2ae3	0.009470674
3	0x3e667a39	0.22507562
4	0x3c7adac2	0.015310945
5	0x3fc2cd46	1.5218894
6	0xbdc6eab5	-0.097127356
7	0xbdbf7a6a	-0.093495205
8	0x3e67bd91	0.22630908
9	0xc00ff2ff	-2.2492063
10	0xbe8fb525	-0.2806789
11	0xbdcc202e	-0.09967075
12	0xbf2fb44f	-0.68634504
13	0x3d8e51d4	0.06949201
14	0xc03956bd	-2.895919
15	0xbf7cbaad	-0.98722345
16	0x3f696a0d	0.91177446
17	0x3e547313	0.20747022
18	0xbdccf169	-0.10006983
19	0x3e287ad9	0.16453113
20	0xbffb6333	-1.9639648
21	0x3e68d499	0.2273735
22	0x3eaf5169	0.342418
23	0xbe3e1455	-0.18562444
24	0xbfa2ba40	-1.2713089
25	0xbf87289c	-1.0559268
26	0x3ea635d9	0.32462958
27	0xbe14b8eb	-0.14523666
28	0xbe4d3c97	-0.20042644
29	0xbe463307	-0.19355403
30	0xbe777a87	-0.24167834
31	0xbda302e6	-0.07959537
32	0xbd956890	-0.07295334
33	0xbda1771c	-0.078840464
34	0x3e6a5b9e	0.22886512
35	0xbf8e33a8	-1.1109514
36	0x3e1eba2e	0.1550071
37	0x3ec26801	0.37969974
38	0xbe4a0a52	-0.197305
39	0x3ead070b	0.33794436
40	0xbf121073	-0.5705635
41	0xbf8ba122	-1.0908549
42	0x3fccbace	1.5994508
43	0xbf1381df	-0.5762004
44	0xbf2c05d8	-0.67196417
45	0x3e34a0aa	0.17639413
46	0xbed7420a	-0.4204257
47	0x3e5b8f06	0.21441278
48	0xbe474f35	-0.19463809
49	0xbe173cf7	-0.1476935
50	0xbea3d211	-0.31996205
51	0xbe033c30	-0.12815928
52	0xbe8207cc	-0.25396574
53	0xbdfe9ac0	-0.1243186
54	0x3f5feb05	0.87467986
55	0xbef7a3ea	-0.48367244
56	0x3f5e2cb9	0.8678699
57	0xbfb654bb	-1.4244608
58	0xbef2ad75	-0.47397962
59	0xc013f91a	-2.312079
60	0xbf92a624	-1.1456952
61	0xbdb899e7	-0.090137295
62	0x3e773b8d	0.2414381
63	0xbd613cbb	-0.054989558
64	0xbe2324b5	-0.15931971
65	0x3ee7aeb0	0.45250463
66	0xbdf58649	-0.119885035
67	0x3e66eda8	0.22551596
68	0xbb541ad3	-0.0032364621
69	0x3e8c4301	0.2739487
70	0xbecdd50b	-0.402016
71	0x3e018aa2	0.1265054
72	0xbfa0c044	-1.2558675
73	0x3e414806	0.18875131
74	0xbecec1cd	-0.40382233
75	0xc00d92b2	-2.2120786
76	0xbf25d31a	-0.6477524
77	0xbc7c1a7f	-0.015387177
78	0xbe2ee3ba	-0.17079058
79	0x3de6375e	0.11241029
80	0xc00dad2c	-2.2136946
81	0xbe353ec2	-0.17699721
82	0xbe4296d6	-0.19002852
83	0x3df0b89e	0.11753963
84	0xbe033962	-0.12814859
85	0x3f44f9b7	0.76943535
86	0xbeb36fec	-0.35046327
87	0xbf4f826a	-0.8105837
88	0xbea828f0	-0.32843733
89	0x3f854945	1.0412985
90	0x3e94771a	0.28997117
91	0xc01f1796	-2.4858146
92	0xbb85c97d	-0.004082857
93	0x3e7c0afb	0.24613564
94	0xbcf52be2	-0.029928152
95	0xbfa52720	-1.2902565
96	0x3c4d5971	0.0125335315
97	0x3b5a7a16	0.003333693
98	0x3d25763d	0.040395964
99	0x3f657e56	0.896459
100	0xbc9b7772	-0.018977854
101	0xbf6d1b8f	-0.92620176
102	0xbf4b23d5	-0.7935155
103	0x3ec0d25b	0.37660488
104	0x3e9114e1	0.28336242

bias f4 [7]
0	0x3f6a31e9	0.91482407
1	0x3d40b2ae	0.047045402
2	0xbfe28e0a	-1.7699597
3	0xbf52c9e6	-0.8233932
4	0xbf35867f	-0.7090835
5	0xbfdb6cdd	-1.7142597
6	0xbf9c0bbe	-1.2191083
