models/basic_model.pth (torch, 17584 bytes, 6 tensors)

weight f4 [38, 68]
000000 e3 6f ff be cf 8c 4a be fd 6d d6 bd 5d c4 a8 bc
       -0.4989005 -0.19780277 -0.10470197 -0.020601446
000010 77 2c 8a 3d 74 11 80 3b 73 3c 00 3d f3 be 20 3d
       0.06746762 0.0039083306 0.03130765 0.039244603
000020 95 b9 8b 3d 2a f8 1c bc c1 29 1a 3d bc 9b 12 3f
       0.06822506 -0.009580651 0.037637476 0.5726888
000030 f5 df 69 bd b0 08 59 be 20 14 fe bd 1a 9d 37 3d
       -0.057098348 -0.2119472 -0.12406182 0.044827558
000040 6f 76 6d bd f2 57 d9 3c 26 2a ca 3c d3 7a 75 3c
       -0.057974275 0.026531193 0.024678301 0.014982897
000050 3c cf eb bd 78 8a 85 3d f2 16 7f 3d dc f8 e4 3d
       -0.11514136 0.065205514 0.06227774 0.11180279
000060 6e 68 14 bd 0f 50 d3 3d 69 2f b1 bd b8 c7 c8 bd
       -0.036232404 0.10318004 -0.08651621 -0.09803718
000070 c9 27 6a 3d 02 b1 32 be 4b de b7 3d a5 76 0f be
       0.05716685 -0.17450336 0.08977946 -0.14010103
000080 6a e6 73 3d 6b b4 f9 bc 34 a6 bb 3e 46 25 34 3f
       0.05954591 -0.030481538 0.3665024 0.70369375
000090 04 49 c1 bd 25 4e 82 3d 16 4a 7f 3d d3 82 e2 3a
       -0.09437755 0.06362561 0.062326513 0.001728142
0000a0 ac c4 5f 3d c5 da 5c bc 33 db 23 be 78 33 69 3d
       0.05463092 -0.013479893 -0.16001587 0.05693385
0000b0 d5 64 33 bd 70 13 b2 3d d4 11 f2 3e 78 47 b2 bc
       -0.043797333 0.08695114 0.47279227 -0.021762595
0000c0 a3 1b 06 3d 6b 76 77 bd ec f9 48 bd b6 0a 1b be
       0.0327412 -0.060415667 -0.04906647 -0.15140805
0000d0 93 59 07 bd 9e ba b4 3d 07 a8 95 3d 4c ff a3 bd
       -0.03304441 0.08824657 0.07307439 -0.080076784
0000e0 58 5f 17 bd 26 17 39 be 41 9a bb 3d 21 2c 98 3f
       -0.03695616 -0.18075237 0.09160281 1.1888467
0000f0 cf 33 8b bb 18 0e 96 bd 7e 72 0f bc 50 86 cd bd
       -0.0042481194 -0.07326907 -0.008755324 -0.10035384
000100 68 97 23 3d 1a c4 65 3d 4f 8a bd 3d 97 cb aa 3c
       0.039939314 0.05609522 0.09254896 0.020849032
000110 75 d4 d1 3d 9a 34 f2 bd f4 a3 ef bd 9c 54 2a bd
       0.10245601 -0.11826439 -0.117011935 -0.041584596
000120 8d 1f 4e bd 62 e0 e9 bd a3 68 ce 3d c8 f3 46 3d
       -0.050323058 -0.11419751 0.100785516 0.04857233
000130 db cc 2c bd 8b e4 6e bd 35 1e f3 3d 96 25 38 bd
       -0.042187553 -0.058323424 0.11870996 -0.04495772
000140 23 11 65 3d 3a 9b 4c 3d 84 88 d6 bc 97 c1 93 bd
       0.055924546 0.049952723 -0.026188143 -0.07214659
000150 f4 47 dd bd d7 5c 8a 3d 6a 7d 83 bd 78 fe 50 3c
       -0.108047396 0.06755989 -0.06420405 0.012755983
000160 1f ea 16 3d 4e 77 c4 bc f8 fb b6 3c b3 ae 1b 3d
       0.03684437 -0.02398267 0.022336945 0.038008403
000170 c6 0d a0 3b 5e 96 f6 bd 1c bb ef bd 17 34 cd bd
       0.0048844544 -0.12040399 -0.1170561 -0.10019701
000180 ef d3 4a bd b7 ca a9 3d e3 57 0d bd 85 cd cc 3c
       -0.049518522 0.08290618 -0.034507643 0.025000343
000190 5e 5d 50 bd 50 49 e8 bd dc 95 aa bd 6f a4 e6 3d
       -0.050870292 -0.11342108 -0.08329365 0.11261832
0001a0 9c b9 90 3c 2a ae 98 bd 7b b4 b0 bd 61 31 54 bd
       0.01766663 -0.07455094 -0.08628174 -0.051804904
0001b0 04 ab 56 3d f6 7c 06 3c ae 08 82 3d a3 fd 56 3a
       0.052409187 0.008208504 0.06349312 0.0008201247
0001c0 64 56 b2 3d 0c 08 c9 3c 30 f7 8d bd 37 92 df 3d
       0.08707884 0.02453997 -0.06931913 0.1091656
0001d0 37 0e f8 bd 7d 38 94 bc 93 ed 99 3d ff 91 db bd
       -0.12112086 -0.018093342 0.07516017 -0.10721206
0001e0 13 78 e6 3d 55 1e 64 3d b8 af f3 bd fb 6f 52 bd
       0.11253371 0.05569299 -0.1189875 -0.051376324
0001f0 d9 7f 48 bd 57 a9 ea bc 94 a9 9d 3d 50 41 9f bd
       -0.04895005 -0.0286452 0.0769836 -0.07776129
000200 d7 b5 b2 3c ea 9d a9 3d 45 1f 54 bd 83 a2 e9 bd
       0.021815224 0.08282073 -0.051787633 -0.1140795
000210 ed 78 a0 bc 04 2a ba 3d 16 7d d0 bc 0b ed 9a bd
       -0.019588912 0.09090045 -0.02545027 -0.075647436
000220 e2 dd ff 3e 2b d5 d8 3e b9 e3 17 bd 0a 6f ca bd
       0.4997397 0.42350134 -0.037082408 -0.0988446
000230 b0 65 a5 3d 34 f2 c6 3d 76 c4 da bb 6a e9 db 39
       0.08076036 0.09714165 -0.006676252 0.00041944842
000240 1c d2 c0 bd 4b f3 06 3d e1 d7 39 3d 8c 15 2a bf
       -0.09415075 0.032946866 0.045371894 -0.6643913
000250 32 c4 28 bd dd dd 12 3e c5 5d a3 3d 88 49 4c bc
       -0.04120273 0.14342447 0.079768695 -0.012468703
000260 1d 17 e1 3d 73 a4 c8 bc 47 54 d7 bd e2 26 b3 3b
       0.10990737 -0.024492478 -0.105141215 0.0054672817
000270 81 84 e1 3d 6f 9c 09 bd eb 8d f0 3d 74 e1 84 bd
       0.11011601 -0.033596452 0.11745819 -0.06488314
000280 f1 4d af bb 91 32 f2 3d e5 be a9 3e a4 a7 82 bd
       -0.0053498675 0.11826051 0.33153453 -0.06379631
000290 f1 d3 01 bb 69 fb d1 3d fd f6 9b 3b f8 5f 6a 3e
       -0.0019810165 0.10253031 0.004759668 0.22888172
0002a0 8f e8 bf 3d cc af 8b bc 3c e2 ca be 81 ba 03 bf
       0.09370529 -0.0170516 -0.39625728 -0.5145646
0002b0 6b 4d 5e 3d c2 2c 92 3d 6e a6 ec 3d 56 1c 2b 3d
       0.05427305 0.07137443 0.115551814 0.04177507
0002c0 e1 66 a8 bd 8a 68 f1 3d 74 0c 71 3e d5 f5 f0 3d
       -0.082227476 0.11787517 0.23539907 0.11765639
0002d0 91 9a 83 3e 15 49 48 3e 61 7d eb be 71 6e 5e 3a
       0.25703862 0.19559129 -0.45994094 0.0008485085
0002e0 8e ec f9 bd 01 bb f8 bb c0 98 ea bd 89 50 52 3e
       -0.12203322 -0.007590652 -0.11454916 0.20538534
0002f0 5a f5 b2 3d e0 32 76 3c 51 40 bd 3d 81 c8 8b bd
       0.08738203 0.015026778 0.09240783 -0.068253525
000300 ef 60 c8 3c bd 0a 67 3e 73 c9 ed 3b f0 7b 91 bf
       0.024460284 0.2256269 0.0072566806 -1.1365948
000310 72 d1 40 3e f1 47 72 bd 2d f4 1a bd 03 98 08 3e
       0.18829897 -0.05915064 -0.03783052 0.13339238
000320 aa 63 37 bd d2 dc 58 bd a2 e8 6b 3d b5 69 f4 3c
       -0.04477278 -0.052944966 0.057594903 0.029835561
000330 10 fb ae 3e d7 a7 d8 3e 51 a0 bb 3d 70 74 c6 3d
       0.3417592 0.42315552 0.09161437 0.096901774
000340 0a 50 05 bd 52 10 d0 3d b2 1c b4 3d 44 14 fa bb
       -0.032547034 0.10159363 0.08794536 -0.0076318104
000350 4f 4b 72 3d a2 2b 5a 3c b5 5e 85 bd ca bc 12 3c
       0.05915385 0.013316067 -0.065122046 0.008956144
000360 3d 2a 6b 3d 37 32 80 3e 1d 3b a0 3e 5a c2 eb bc
       0.05741333 0.2503831 0.312951 -0.028779197
000370 18 a7 bc 3d 1c 84 23 3d c7 38 5d 3d 92 cb 95 3d
       0.09211558 0.03992091 0.054009225 0.073142186
000380 8e fd 07 bd 58 58 c4 bd 2b e8 9d 3d e6 53 30 3d
       -0.033200793 -0.09587163 0.07710298 0.04304876
000390 c5 cf 96 3c 5c 29 e8 bd 9a b7 65 3e cb 29 49 3d
       0.01840962 -0.11336014 0.2243332 0.049112123
0003a0 82 b3 2f bd c2 bd 10 bd 58 d1 bf 3d d1 ee 3c 3e
       -0.0428958 -0.035337217 0.09366101 0.18450476
0003b0 b6 34 98 3c 4e ff cd 3d e2 4c 00 bf ef f4 3c bf
       0.018579822 0.10058461 -0.50117314 -0.7381124
0003c0 f2 b2 2a bd cc f3 28 bc de ae f2 3d e7 4b 40 bd
       -0.04167456 -0.010312032 0.118497595 -0.046947386
0003d0 68 4b 03 3d 5a 8b 02 3c 7d de 1e 3e dc d8 5d bd
       0.032054335 0.007967794 0.1551456 -0.05416189
0003e0 d3 2a 4c 3e a4 e9 5c 3e 57 ae 05 be 2c e2 2e 3d
       0.19938211 0.21573502 -0.13054787 0.042696163
0003f0 c3 42 5c be f4 30 09 3e 68 15 da 3d ba 74 33 3e
       -0.21509843 0.1339758 0.10648614 0.17524996

bias f4 [38]
000000 5c ce e2 bd 30 e7 1b bd 67 c2 66 3f ae b4 51 3f
       -0.11074516 -0.038062274 0.90140384 0.8191632
000010 b6 ee a8 bc f4 df a5 3e 77 fa 22 be 70 c9 60 3f
       -0.020621639 0.32397425 -0.15915857 0.8780737
000020 a0 10 f1 bc 0b ef b0 bc 49 af cf bd c2 92 b8 bd
       -0.029426873 -0.02159836 -0.10140855 -0.09012367
000030 33 1e e3 bd 06 5f 89 bd e1 bf ec bd ea 96 f1 bc
       -0.110897444 -0.067075774 -0.115600355 -0.029490907
000040 e4 06 75 bd 1d 71 c3 bd 84 27 61 3d 52 f1 a0 3d
       -0.059821025 -0.09543059 0.054969326 0.07858528
000050 72 60 6e 3d 53 85 56 be 57 af 17 bc 49 e8 24 3f
       0.058197446 -0.20949297 -0.009258113 0.6441694
000060 87 01 dd 3e 41 e3 dd bd 3b 81 26 3f 16 ce 6c bd
       0.43165228 -0.10834361 0.6504094 -0.057813726
000070 75 a8 40 3e f9 8a 96 3f ad fb 63 3f 71 89 33 be
       0.18814261 1.1761161 0.890559 -0.17532898
000080 ed 4e 48 3f c0 0c 88 bd 95 f8 f1 bc 43 46 af 3a
       0.7824543 -0.06643057 -0.029537478 0.001337238
000090 6d 87 f3 bd 30 c7 2e be
       -0.11891065 -0.17068172

weight f4 [15, 38]
000000 c7 8b 94 3e 99 4e a4 3d 8d 98 2c bd 12 0d 41 bf
       0.29012892 0.08022804 -0.04213767 -0.7541057
000010 ab 52 13 3d c8 5f c7 be 23 13 ba 3e b1 ab 6b bf
       0.03596751 -0.38940263 0.36342725 -0.92058855
000020 b8 55 7e 3e 7a 7f bd 3d 32 6c 1f 3e a8 22 55 3f
       0.24837387 0.0925283 0.15568617 0.83256006
000030 95 91 dc bd 25 ef 17 be 34 53 21 3f 5c 24 0f 3d
       -0.10769955 -0.1483732 0.6301758 0.034946784
000040 4c cf 45 3d f7 1c 0a 3e 35 0b 22 3f 62 a0 37 bd
       0.048293397 0.13487612 0.6329835 -0.044830687
000050 87 81 4e be 5c 66 46 3f 29 2a 3c be b4 18 b9 3d
       -0.20166598 0.7749994 -0.18375458 0.09037915
000060 39 20 6a 3d 20 69 fd 3d 02 e7 af be 22 db 5d 3f
       0.057159636 0.12373567 -0.34355932 0.86662495
000070 a3 92 cf be 89 cd 86 bf 9b e4 48 3b 60 0a 04 3f
       -0.40541562 -1.0531474 0.0030653838 0.5157833
000080 3a f9 2a bf a6 73 04 3e be 3d 2f bd 5f bc 68 be
       -0.6678654 0.12934741 -0.04278349 -0.22728108
000090 ac a9 a7 3d 6c d2 cf 3e 69 d0 e8 3e e0 68 ae bd
       0.08186659 0.40590227 0.45471504 -0.08516097
0000a0 5c 2b 3b be 63 20 a8 3e dd 0f 0c 3d c3 21 09 3f
       -0.18278259 0.3283721 0.034194816 0.5356714
0000b0 24 35 83 3e ed 72 57 3f ba 91 cf 3c 9c 94 f3 3d
       0.2562648 0.8415974 0.025338043 0.11893579
0000c0 a0 de b9 bd 69 af 98 be 9a 72 82 bc 4a d8 c2 3c
       -0.090756655 -0.29821327 -0.015923787 0.023784775
0000d0 e8 d9 73 be 11 cf 33 bd f8 6c d8 3c 3e f7 f4 bd
       -0.23813593 -0.043898646 0.026419148 -0.1196122
0000e0 2f f1 3a bf 10 07 08 bd ee 3c 0f 3e 76 3a 15 bf
       -0.73024267 -0.03320986 0.13988087 -0.5829233
0000f0 21 3e 88 3e 92 ac e4 be cb 00 d8 bd 6f 08 9b bd
       0.266099 -0.4466291 -0.10547026 -0.07569968
000100 f0 92 bf 3e fa 69 3d bf aa df f1 3e cc 38 4b 3f
       0.37416792 -0.7398983 0.47240955 0.7938354
000110 0d f4 0d be 2b 6e 9b be 3f 79 a2 3e 1d ff 18 be
       -0.13862629 -0.3035749 0.31733128 -0.14941068
000120 6e a9 4b bd 8d 7e 08 3d 23 61 dd 3c ee 54 07 3f
       -0.049722128 0.033323813 0.027023857 0.5286397
000130 09 25 09 bf 8d c4 ab 3d b7 fa 4d 3f af ea 32 3f
       -0.53572136 0.083870985 0.80460685 0.6988935
000140 ff 63 a5 bc 14 6d 13 3e 80 06 25 bf 05 3f a5 3e
       -0.020189283 0.14397079 -0.64463043 0.32274643
000150 3d 44 8a be 64 d2 75 bd 01 88 c6 3c b7 7f ab bd
       -0.27005187 -0.060015097 0.024234774 -0.08373969
000160 84 8c 12 be 52 0d 8a bb 20 a1 41 be 95 9a 32 3d
       -0.14311415 -0.0042130137 -0.1890912 0.043604452
000170 ab 2e 1a bd 79 a4 6d bd b2 5d a5 3e 9d 91 6d 3e
       -0.037642162 -0.05801818 0.32298046 0.23200078
000180 8d 6b 0a 3e 9d 38 41 be 29 fe 38 3e 58 93 4d 3f
       0.1351759 -0.18869253 0.18065704 0.80302954
000190 b8 05 18 3f c6 a1 4c 3d de 30 3c 3f f3 68 a7 3e
       0.59383726 0.049958967 0.73512065 0.32697257
0001a0 27 4e 40 bd e0 4b 5c 3f f7 f2 70 3f 89 d4 02 bf
       -0.046949532 0.86053276 0.94120735 -0.5110555
0001b0 32 be 46 3f 3a 83 86 bd 70 2e 6f 3d 9c 38 a7 3e
       0.77633965 -0.06567998 0.058393896 0.32660377
0001c0 e9 dd 6b 3e 6b 05 49 bf ab db 13 3d 11 2c 14 3e
       0.23033871 -0.7852389 0.036098164 0.14469935
0001d0 a6 d4 e0 3d 70 8b 12 be 6a ad df 3d 9f a7 5e bd
       0.109780595 -0.14311004 0.10921748 -0.054359075
0001e0 6d e9 b0 3d 63 b0 15 be 58 01 d7 3c ee 4e f1 3d
       0.086382724 -0.14618067 0.026245758 0.11782633
0001f0 68 bd aa bd 72 d2 f7 bd 04 24 e8 3d 90 9b 6e bd
       -0.083369076 -0.12100686 0.113349944 -0.058253825
000200 ec 08 e8 bd 8a 9b 8d 3d 3d 94 99 3d 39 97 25 be
       -0.11329827 0.06914432 0.07498977 -0.16170968
000210 eb 12 bc 3d a7 8e ff 3d 73 5c ee 3d c2 51 ad bd
       0.09183296 0.12478381 0.11638727 -0.0846286
000220 0c 7b fb bd d6 db d5 bd 8f a4 f2 bd 24 c4 09 be
       -0.12279329 -0.10442321 -0.11847793 -0.13453728
000230 96 21 1f 3e 41 fc dd bd 0f 7e 10 bd 04 53 ec bc
       0.15540156 -0.10839129 -0.03527647 -0.028848179
000240 ff 98 ca bb ce 31 92 3d 93 b1 cd 3c 00 d8 cc bd
       -0.0061827893 0.07138406 0.025109088 -0.10002136
000250 0f 7b 8a 3b db 39 03 be db ca 49 3d aa 63 1c be
       0.0042260955 -0.12815039 0.049265724 -0.15272394
000260 ca 04 a1 bf e7 0f d9 bc 1d 28 bb 3f a9 bc 96 3f
       -1.2579587 -0.02649684 1.4621617 1.1776325
000270 63 f1 f8 bd 1a 84 bc 3e 29 3e 80 bf bf cc 5b 3f
       -0.12155416 0.36819535 -1.001897 0.8585929
000280 a0 e4 ae be 85 f2 44 3c e3 bd be 3d e8 b5 38 bf
       -0.34158802 0.012020712 0.09313562 -0.72152567
000290 33 1f a5 bd 7e b0 2c bc 7d 17 bb bc 0c 7c 07 bd
       -0.080625914 -0.010540126 -0.022838349 -0.033077285
0002a0 a0 63 08 be 85 f4 a5 bc 9d 9d b9 3e 0b 49 f7 3d
       -0.13319254 -0.020258198 0.36253062 0.12074479
0002b0 95 df cf 3e 2f 38 08 bf be ee 26 3e 22 13 b1 3f
       0.40600267 -0.5321073 0.1630201 1.3833964
0002c0 d9 6e 8e 3f b6 c7 c7 3c cd 04 91 3f 2a 94 63 3e
       1.1127578 0.024387222 1.132959 0.22224489
0002d0 66 62 be 3d e5 be c7 3f 4d 65 c9 3f 28 f1 2e bf
       0.09296112 1.5605131 1.573404 -0.68336725
0002e0 f6 8d b2 3f 01 7e 07 be d7 95 ee bc d9 e6 0c 3f
       1.3949573 -0.1323166 -0.029124184 0.55039746
0002f0 95 70 70 3d 88 c2 ac bf 21 20 37 3e f5 d6 08 bd
       0.058701117 -1.3496866 0.1788335 -0.033408124
000300 8f 01 16 3e 21 96 5f be 2a 10 e2 ba af 23 ef bd
       0.14649032 -0.21834613 -0.0017247249 -0.11676728
000310 fc 06 f3 bc ea 2f 5b bd 70 b7 22 3e 94 56 70 3d
       -0.029666416 -0.05351249 0.15890288 0.058676317
000320 96 2e 34 bd 65 54 20 3e 71 e2 9d 3b 5d 87 86 3d
       -0.04398974 0.15657194 0.0048182537 0.06568787
000330 e9 59 36 3e 62 2a 0d be bf 80 b0 bc 74 c4 25 be
       0.17807736 -0.13785699 -0.021545766 -0.16188222
000340 f9 db 23 3b fb 1e f0 bd 6b 2a 09 be 21 33 e1 3b
       0.002500294 -0.11724659 -0.13395087 0.00687255
000350 35 49 c6 bd 50 44 96 3e d4 dd 1a 3e 80 08 73 3d
       -0.09681932 0.29348993 0.15123683 0.059334278
000360 97 e0 9c bd b5 cc a4 3e 68 71 10 be 58 62 a7 bd
       -0.076600246 0.3218743 -0.14105761 -0.081730545
000370 64 d1 b7 3d 09 f1 92 3d af a3 f1 bd 40 83 20 3e
       0.08975485 0.0717488 -0.11798798 0.15675068
000380 aa 24 98 bd 8a 63 20 3c 8d be 36 3d 59 5f b0 3d
       -0.07428868 0.009789357 0.044615317 0.08611936
000390 0c fd de be dc e2 14 3e b3 22 0c 3f 38 cc 07 3f
       -0.43552434 0.14539665 0.54740447 0.5304599
0003a0 cf 8e 13 be 92 74 03 3e aa 20 63 be 1e 37 fe 3e
       -0.14409946 0.12837437 -0.22180429 0.49651426
0003b0 9d f5 6b 3d 13 6e 16 be 1c 51 3e bb df f1 a4 be
       0.057607282 -0.14690427 -0.0029040044 -0.32215783
0003c0 6e a8 a8 bd 3e 83 f8 bc ae 51 86 be 02 21 dc 3d
       -0.082352504 -0.030336019 -0.26234192 0.10748483
0003d0 09 08 c5 bd 9d 4d 1e bd a2 f6 39 be 69 44 5e 3e
       -0.09620673 -0.038648237 -0.18160489 0.21705784
0003e0 8b 09 82 3e 00 ff bc be e5 c6 48 3e 6e 08 d0 3e
       0.25397906 -0.369133 0.19607122 0.4063143
0003f0 bd 17 41 3e 9c 04 0b 3e 5e d7 ce 3e 1b 3e 66 be
       0.18856712 0.13575977 0.40398687 -0.22484629

bias f4 [15]
000000 0c cf 5e 3e f2 03 28 3f a8 c6 cc 3e 82 8a e1 b9
       0.2175867 0.6563102 0.39995313 -0.0004301854
000010 9e 44 1e 3f 52 96 82 bd 99 7f f5 3e ec 3c f0 bc
       0.6182345 -0.063763276 0.47948912 -0.029325925
000020 ba f8 13 bc eb 01 7a 3e d3 c9 9a 3c 41 aa c8 3e
       -0.009031469 0.24414794 0.018895065 0.39192393
000030 e8 3e d7 bd a4 9b ad bd 74 76 01 3f
       -0.10510045 -0.08476952 0.5057137

weight f4 [3, 15]
000000 5e ad 8e bf 82 d4 0d bf df f9 08 40 7b ad 7c bd
       -1.1146657 -0.55402386 2.140251 -0.06168888
000010 f1 26 4e 40 5e 11 7f 3e ae b2 8d 3f ea 2f 82 be
       3.2211268 0.24908969 1.1070154 -0.2542718
000020 c0 6a a7 3e 9e 8c e3 3d 1e 10 64 bd 82 23 b4 3f
       0.3269863 0.11110805 -0.055679433 1.4073336
000030 4f 28 a5 bd 4b 12 47 37 bf ea b5 bf fa 44 eb 3f
       -0.08064329 1.18655835e-05 -1.4212264 1.8380425
000040 01 6e d1 bf 24 25 91 bf 55 7d 95 bd 56 c0 f8 bf
       -1.6361696 -1.133946 -0.07299296 -1.9433696
000050 55 2a b0 3e 53 2f c6 bf be 36 c0 3b de c3 da bc
       0.34407297 -1.5483192 0.005865901 -0.026704725
000060 76 be c7 be 38 1d 11 bf ac fe 28 bf 5f 10 21 3e
       -0.39012498 -0.5668521 -0.660136 0.15728901
000070 62 db 1c be 02 bf b6 3e a6 88 c2 bf 34 11 b5 3f
       -0.15318063 0.35692602 -1.5197952 1.4145875
000080 e7 f0 90 bf 41 d4 33 3e 5b e3 36 c0 84 e5 cc be
       -1.1323518 0.17561437 -2.8576267 -0.40018857
000090 e5 65 d1 3d 47 6c 5e 3e eb 83 88 be 36 71 07 be
       0.10224513 0.21720992 -0.26663145 -0.1322678
0000a0 a7 ec 98 3e d0 d6 c0 bf 01 03 83 3e 8c c8 2b 3e
       0.2986805 -1.5065556 0.2558823 0.16775721
0000b0 e0 bd aa 3d
       0.08336997

bias f4 [3]
000000 de ea 85 bf 2b 77 93 be 3b 56 34 be
       -1.0462301 -0.28801855 -0.1761102
