models/best_model.pth (torch, 12132 bytes, 8 tensors)

weight f4 [24, 27]
-1.6997365 0.47552633 14.614684 -0.10529684 -0.4322217 0.9706655 0.06020845 0.075521335
0.30262578 -0.24770826 0.22693783 0.41004246 -0.52134156 0.353619 0.24830914 -0.12410773
0.6551222 -0.18371986 1.0918609 -0.7547223 0.08795698 0.5611001 0.12336013 1.1381003
-0.36896414 0.72291803 -0.36385605 1.3198977 -0.30031604 3.2681055 0.6346461 -0.008093539
0.2378855 0.16094448 0.3410002 0.08340807 0.21745192 -0.019709045 0.45124257 1.8893
-0.21483287 0.09415932 -0.42963764 0.44087228 0.25349623 -1.7167633 0.6905853 -0.22997275
0.16452092 0.25261998 0.23032106 1.5699899 0.72576016 0.24937998 -0.82590425 0.50027096
-7.2321715 0.39274502 1.778397 -0.34940803 1.1379774 -1.1038809 -0.3561433 -0.764735
-0.7130428 0.7277781 0.8445554 0.79906726 1.1798854 0.6098014 -0.12865104 0.12803055
-1.2917107 -0.15330698 1.1554767 0.8782298 1.1510713 -0.4110736 -0.6556422 -0.85774326
0.5997377 1.2664366 0.3039182 15.123988 0.19369482 -0.32525295 0.042393316 -0.092617095
-0.20378345 -0.79030037 -0.24170807 -0.0328606 0.10327551 -5.5249596 -0.24238516 -0.04091738
-0.06576383 0.65124047 1.4895879 0.2745639 0.71810234 0.05941967 0.5476285 -0.30520454
0.15515533 -0.934146 -0.23852082 -0.52413845 5.003199 0.040970672 -0.5910449 0.7703834
0.46096984 0.10835448 -0.028533261 0.432921 0.3724835 0.036015734 0.20094015 -0.98023343
2.2821426 -0.788211 0.22346516 -0.29952866 -0.44756484 -0.7126788 -0.13034351 -0.059579454
0.009699581 -0.4271254 0.25637034 -0.047639664 -1.6495415 0.6008091 -2.1332083 0.52472514
0.6981332 14.362808 1.0790082 -0.7169881 -0.41652268 -0.9489408 -0.44678444 0.019964498
0.06958017 -0.3033631 0.34881532 -0.09172143 0.12637797 0.29248813 1.03763 1.1144593
1.4223872 -1.0812287 -0.43098664 1.2204065 0.08702752 0.28831723 -0.4397109 -0.4677593
-0.2594116 0.94478774 0.84868705 0.13546321 20.852703 -0.23301467 -0.19717358 -0.33546165
-0.4671722 -0.044967737 0.15979396 0.15528227 0.23430373 0.14242293 -0.74286705 0.105173364
-0.25167778 0.22773042 0.4081779 -0.49771407 0.15147209 -0.04098954 0.31205642 -0.15866789
-0.4605497 -0.19369061 -0.65772325 -0.015936038 -0.42420435 0.22976798 0.6110263 4.124337
-1.1308982 -0.81619686 0.13960011 -0.7008881 0.12776679 0.38862473 -0.21347122 0.018960403
-0.18843867 -3.1810677 0.107007034 -0.5867961 0.43452418 -0.34775242 -0.5120646 0.40580282
-1.1758863 0.01969626 -0.1988488 -0.7204148 -0.1643215 1.5338851 0.096206576 -0.499981
-2.3114352 -0.027437085 17.609467 -0.1741514 -0.03259922 0.39207238 -0.0029575867 -0.09622885
0.16168094 -0.17635772 0.045826774 0.55246896 -0.4192877 0.07141093 -0.16731657 0.8811244
0.17190248 0.6521309 -0.33007193 -0.58645576 -0.43497777 1.1958226 -0.078154 0.24923456
-0.7613466 0.4127629 -0.39202866 -1.4752902 0.51799554 14.463203 0.30155864 0.38991076
0.24888244 -0.10670591 0.6263818 -0.11961151 -0.13901944 0.37922025 0.14039327 2.1903503
00000000: f790 d9bf 3078 f33e bfd5 6941 dfa5 d7bd
00000010: 2a4c ddbe 897d 783f 239d 763d eeaa 9a3d
00000020: c4f1 9a3e 3ca7 7dbe 6462 683e 16f1 d13e
00000030: a476 05bf 8d0d b53e c044 7e3e 322c febd
00000040: 17b6 273f 0f21 3cbe 19c2 8b3f 7b35 41bf
00000050: ca22 b43d 42a4 0f3f 3ca4 fc3d 45ad 913f
00000060: dee8 bcbe 2811 393f 574b babe 68f2 a83f
00000070: 06c3 99be a428 5140 2b78 223f c39a 04bc
00000080: 4298 733e a1ce 243e 9497 ae3e dad1 aa3d
00000090: b7ab 5e3e dd74 a1bc 4409 e73e 95d4 f13f
000000a0: 26fd 5bbe 9ad6 c03d 77f9 dbbe 03ba e13e
000000b0: 42ca 813e e6be dbbf 33ca 303f fa7d 6bbe
000000c0: 2c78 283e 6857 813e 49d9 6b3e 6ef5 c83f
000000d0: 6bcb 393f 775d 7f3e 766e 53bf c211 003f
000000e0: f36d e7c0 e015 c93e 83a2 e33f 9ce5 b2be
000000f0: 3ea9 913f f84b 8dbf 6a58 b6be acc5 43bf
00000100: f989 36bf aa4f 3a3f c834 583f ac8f 4c3f
00000110: 7c06 973f f21b 1c3f 19bd 03be 711a 033e
00000120: c756 a5bf 81fc 1cbe a9e6 933f abd3 603f
00000130: 4e56 933f 3d78 d2be 2bd8 27bf 1095 5bbf
00000140: 6988 193f 981a a23f 2b9b 9b3e dbfb 7141
00000150: ef57 463e 8e87 a6be 9da4 2d3d 08ae bdbd
00000160: 9cac 50be 2051 4abf 5282 77be d698 06bd
00000170: 1c82 d33d 78cc b0c0 d133 78be fc98 27bd
00000180: 30af 86bd b2b7 263f d1aa be3f a493 8c3e
00000190: 8ed5 373f 0a62 733d 6231 0c3f c543 9cbe
000001a0: 0ae1 1e3e 3124 6fbf cd3e 74be f02d 06bf
000001b0: 351a a040 ddd0 273d b84e 17bf d937 453f
000001c0: 3d04 ec3e f4e8 dd3d 96be e9bc d2a7 dd3e
000001d0: 28b6 be3e 3c85 133d 41c3 4d3e 94f0 7abf
000001e0: a00e 1240 32c8 49bf 0dd4 643e d25b 99be
000001f0: 3827 e5be 1e72 36bf c578 05be 9609 74bd
00000200: feea 1e3c 2eb0 dabe f942 833e cf21 43bd
00000210: 2d24 d3bf a0ce 193f 7c86 08c0 6354 063f
00000220: dbb8 323f 10ce 6541 f11c 8a3f 888c 37bf
00000230: 7642 d5be c9ed 72bf eec0 e4be 968c a33c
00000240: 0c80 8e3d 6952 9bbe ec97 b23e 72d8 bbbd
00000250: 3a69 013e 01c1 953e 0fd1 843f 9aa6 8e3f
00000260: c910 b63f b465 8abf 48aa dcbe 4836 9c3f
00000270: 7c3b b23d 519e 933e c921 e1be 267e efbe
00000280: 99d1 84be 9cdd 713f 8e43 593f deb6 0a3e
00000290: 56d2 a641 669b 6ebe dfe7 49be a1c1 abbe
000002a0: 3231 efbe 1730 38bd 07a1 233e 5102 1f3e
000002b0: 51ed 6f3e 51d7 113e 892c 3ebf 2265 d73d
000002c0: e9db 80be 2a32 693e b2fc d03e 61d4 febe
000002d0: 801b 1b3e a6e4 27bd dcc5 9f3e d679 22be
000002e0: 2ccd ebbe d556 46be 8d60 28bf 4b8c 82bc
000002f0: 5031 d9be 4c48 6b3e 386c 1c3f 92fa 8340
00000300: 46c1 90bf 47f2 50bf 55f3 0e3e 676d 33bf
00000310: 4cd5 023e d2f9 c63e 3398 5abe d952 9b3c
00000320: 11f6 40be 9d96 4bc0 8126 db3d 4538 16bf
00000330: f479 de3e 9b0c b2be aa16 03bf 63c5 cf3e
00000340: 7183 96bf 0d5a a13c 059f 4bbe 1b6d 38bf
00000350: e543 28be 5956 c43f f407 c53d 82fd ffbe
00000360: 8eee 13c0 bdc3 e0bc 30e0 8c41 bf54 32be
00000370: c286 05bd b6bd c83e 12d4 41bb a213 c5bd
00000380: b08f 253e 1e97 34be dbb4 3b3d 9b6e 0d3f
00000390: e1ac d6be e53f 923d 0955 2bbe 5e91 613f
000003a0: 3407 303e 0df2 263f 30ff a8be f721 16bf
000003b0: 68b5 debe b710 993f 340f a0bd 5837 7f3e
000003c0: 9ce7 42bf a955 d33e fbb7 c8be 4fd6 bcbf
000003d0: 5b9b 043f 4869 6741 e565 9a3e 62a2 c73e
000003e0: 0adb 7e3e a188 dabd 8f5a 203f e1f6 f4bd
000003f0: 1d5b 0ebe 2829 c23e 41c3 0f3e b32e 0c40

bias f4 [24]
-0.20965311 0.6130618 -0.077197425 -0.114670485 0.3539897 -0.153981 -0.20286871 -0.20016655
0.16048801 0.052775733 -1.1445726 0.005554343 -0.25640243 -0.45381272 0.35176367 1.0092866
-0.21727063 0.60380846 0.262982 0.47400576 -0.034994878 0.6601451 -0.55606854 -0.30885714
00000000: 4eaf 56be 9ef1 1c3f af19 9ebd 5cd8 eabd
00000010: 233e b53e 32ad 1dbe d1bc 4fbe 76f8 4cbe
00000020: f856 243e 5e2b 583d 5b81 92bf 3501 b63b
00000030: 2e47 83be 245a e8be 5e1a b43e 4e30 813f
00000040: 317c 5ebe 3193 1a3f 94a5 863e e2b0 f23e
00000050: ca56 0fbd 45ff 283f 825a 0ebf 8622 9ebe

weight f4 [20, 24]
1.2330889 -1.5503434 -0.2905324 -0.9608572 3.1865678 -0.43320376 1.9525286 0.94847304
1.3253456 0.8129305 -0.28502497 -0.6815431 1.0234537 -1.1507849 0.15762617 -0.1793022
0.47953272 1.2386842 0.2718195 1.3599973 2.3831139 2.0034013 -0.77624935 0.92280734
0.6343538 0.048369035 0.17901897 1.1608772 -5.2669997 0.04528994 -0.7625845 1.5856391
-0.36271152 -1.1441368 0.41824496 -0.44424218 0.7660418 -1.1810261 -1.6287719 0.43448576
-0.053140562 -0.4043172 0.5849902 1.1884681 -1.1054144 -0.19835016 -2.338713 0.12224199
0.26635277 2.0161045 1.085818 0.112080425 2.473864 0.5509781 0.58482665 1.3463502
0.54591864 0.60880935 0.09758713 -5.569354 -3.371972 -0.25799748 1.0138416 -0.87294894
1.9336134 1.5775546 0.7798997 -0.44211695 1.7693301 2.4239752 -0.014093495 0.46656403
0.27420035 -2.835069 -0.2420749 -2.896977 -2.5024765 -1.3368175 -1.8473984 -0.57036066
-1.8242639 -3.0342767 -0.4482166 0.7962365 -2.6797142 -0.4648381 -1.0793434 0.5256565
-2.9347284 -0.20578508 0.21756081 -9.04283 -2.2753434 -0.8281132 -5.504007 0.9236399
-1.1405201 -3.0093136 -1.0199517 1.4923326 -1.9433529 0.046060473 1.0293344 -1.0305502
-0.5726218 0.08458802 0.07831346 -0.52177876 -0.06873163 0.77639276 0.49795535 -2.3727002
1.2241728 -1.2083987 0.7689656 -0.55410403 0.01673209 -0.10577974 0.56295305 1.3878624
-2.1712332 -1.5029798 0.34138402 -0.6786812 -6.188369 0.91420114 -1.5022954 0.50442475
-0.47778448 0.41227126 0.8073237 0.4222791 -0.29258484 -0.25225532 -0.44004795 0.649216
-0.26156214 0.063472345 1.9542587 -1.7749933 -0.8987009 0.04251401 -0.26888913 0.12935063
-0.8541023 -5.8996997 -1.4159348 0.6700484 -3.1121674 -0.40411085 0.895695 0.39286506
0.28821158 1.111316 -1.409293 -0.32094654 -0.38816455 0.04576778 -1.4116094 -0.33930126
1.4180167 0.5841985 -0.40536913 -0.059019286 -0.33890197 0.4205889 3.6359646 2.4251208
1.9391351 1.9828186 0.8587131 -0.100238256 1.0395191 -0.10723897 -0.10576554 0.48287874
1.4944786 -0.14508644 1.966294 0.035534464 1.016763 -0.45878354 0.9239042 -0.93360794
1.9433495 -0.6706199 -0.51373285 0.62876993 0.73678476 -0.6966965 -0.8664558 -1.0309681
3.0688312 -0.057193317 -0.8221041 1.1633971 0.37502924 0.82354754 2.9302268 -3.5107987
0.74452996 0.12485927 0.7271995 0.10602228 1.4905713 -0.18000403 -1.5642555 -0.09181268
1.3469672 -1.2024122 0.7715789 2.5816197 1.7609158 0.47801143 -0.3921655 -1.6998818
0.789013 -0.6457852 -1.417557 1.4183196 -0.6386117 0.09009002 2.913628 -0.056225773
1.0666425 1.7352462 -0.28096336 0.14128773 0.13572565 -1.1380329 0.17990196 -0.40006992
1.476862 0.5077642 1.6263671 0.6278566 1.0939486 1.8882289 1.6544971 0.26988596
0.37993142 -0.69046676 -0.6297059 2.4918652 -3.167992 -1.1295183 0.23305792 -0.29082257
0.153628 -0.5833104 0.34706363 -0.30887142 -0.44962847 0.017969523 -0.6276499 -0.45280117
00000000: dbd5 9d3f a771 c6bf aac0 94be bdfa 75bf
00000010: baf0 4b40 e2cc ddbe 75ec f93f 21cf 723f
00000020: eda4 a93f 371c 503f cbee 91be 9c79 2ebf
00000030: 8800 833f eb4c 93bf c168 213e ff9a 37be
00000040: 5085 f53e 348d 9e3f ed2b 8b3e 6414 ae3f
00000050: f084 1840 ba37 0040 47b8 46bf 1a3d 6c3f
00000060: 0365 223f 9c1e 463d c050 373e a097 943f
00000070: 438b a8c0 f281 393d bd38 43bf 39f6 ca3f
00000080: 53b5 b9be 1373 92bf 3424 d63e b673 e3be
00000090: 511b 443f dd2b 97bf 997b d0bf eb74 de3e
000000a0: eba9 59bd aa02 cfbe ebc1 153f b91f 983f
000000b0: 387e 8dbf 4e1c 4bbe 79ad 15c0 025a fa3d
000000c0: 645f 883e db07 0140 16fc 8a3f 6c8a e53d
000000d0: ca53 1e40 e70c 0d3f 33b7 153f 3455 ac3f
000000e0: 53c1 0b3f eeda 1b3f c3db c73d 2638 b2c0
000000f0: 64ce 57c0 3f18 84be 90c5 813f 9579 5fbf
00000100: a580 f73f 4fed c93f 82a7 473f 275d e2be
00000110: 6979 e23f 6922 1b40 67e8 66bc 7be1 ee3e
00000120: fd63 8c3e c571 35c0 7ce2 77be 1268 39c0
00000130: 9328 20c0 d61c abbf 8d77 ecbf 2803 12bf
00000140: 7b81 e9bf 9731 42c0 a57c e5be 28d6 4b3f
00000150: 7080 2bc0 42ff edbe ed27 8abf 6d91 063f
00000160: 97d2 3bc0 53b9 52be 43c8 5e3e 6faf 10c1
00000170: 3a9f 11c0 3aff 53bf d320 b0c0 aa73 6c3f
00000180: 90fc 91bf 9898 40c0 c78d 82bf c104 bf3f
00000190: cabf f8bf e8a9 3c3d 3bc1 833f 12e9 83bf
000001a0: 5897 12bf 7c3c ad3d cf62 a03d 4b93 05bf
000001b0: 2bc3 8cbd adc1 463f 01f4 fe3e 52da 17c0
000001c0: b2b1 9c3f cfac 9abf eeda 443f c3d9 0dbf
000001d0: bc11 893c 0ca3 d8bd b11d 103f 7aa5 b13f
000001e0: 7cf5 0ac0 a461 c0bf e3c9 ae3e 0dbe 2dbf
000001f0: 1e07 c6c0 1609 6a3f 374b c0bf fb21 013f
00000200: 2ba0 f4be 3815 d33e c4ac 4e3f f734 d83e
00000210: aecd 95be 9c27 81be f74d e1be 0533 263f
00000220: 79eb 85be cafd 813d 2625 fa3f fb32 e3bf
00000230: 4311 66bf 2c23 2e3d d6ab 89be 7e74 043e
00000240: 73a6 5abf 57ca bcc0 5a3d b5bf 4b88 2b3f
00000250: c02d 47c0 9ee7 cebe 444c 653f 9c25 c93e
00000260: 7890 933e 9a3f 8e3f b763 b4bf 1b53 a4be
00000270: 81bd c6be ff76 3b3d 9eaf b4bf e5b8 adbe
00000280: 9281 b53f 088e 153f 8b8c cfbe 35be 71bd
00000290: 8f84 adbe 6e57 d73e a5b3 6840 2e35 1b40
000002a0: 9435 f83f 00cd fd3f 9fd4 5b3f b749 cdbd
000002b0: f60e 853f 1ba0 dbbd 9a9b d8bd e23b f73e
000002c0: 134b bf3f 8a91 14be 86af fb3f 968c 113d
000002d0: 4a25 823f ade5 eabe fc84 6c3f ee00 6fbf
000002e0: adbf f83f bfad 2bbf ff83 03bf 11f7 203f
000002f0: ed9d 3c3f b45a 32bf 0cd0 5dbf c3f6 83bf
00000300: bb67 4440 8a43 6abd 6a75 52bf 32ea 943f
00000310: d503 c03e 03d4 523f d688 3b40 edb0 60c0
00000320: 8499 3e3f 38b6 ff3d bf29 3a3f 3622 d93d
00000330: 0acb be3f fa52 38be 8639 c8bf 4908 bcbd
00000340: 6c69 ac3f a5e8 99bf 3286 453f 4239 2540
00000350: b065 e13f eabd f43e ebc9 c8be ba95 d9bf
00000360: c2fc 493f 2e52 25bf 8272 b5bf 7f8b b53f
00000370: 0e7c 23bf 1e81 b83d e278 3a40 ff4c 66bd
00000380: be87 883f 8c1c de3f 6eda 8fbe bbad 103e
00000390: aafb 0a3e 10ab 91bf 3838 383e f7d5 ccbe
000003a0: d009 bd3f d6fc 013f cc2c d03f 36bb 203f
000003b0: 8206 8c3f 7cb1 f13f 90c6 d33f 7e2e 8a3e
000003c0: 5f86 c23e 6ec2 30bf 6834 21bf b87a 1f40
000003d0: 62c0 4ac0 0e94 90bf bca6 6e3e b2e6 94be
000003e0: a950 1d3e d553 15bf 53b2 b13e 6524 9ebe
000003f0: b435 e6be d234 933c aaad 20bf 8ed5 e7be

bias f4 [20]
-0.17263278 0.40794206 -0.41616747 0.84452033 -1.1152375 1.0069425 -0.9066625 -0.52549934
0.05266709 -0.70948267 -0.31586537 -1.1646122 0.44958046 0.05535447 -0.10542089 1.6867497
-0.008842095 -0.2336409 -0.74679196 -0.44837803
00000000: a6c6 30be c8dd d03e e713 d5be 7c32 583f
00000010: 1ac0 8ebf 7ee3 803f 091b 68bf 2087 06bf
00000020: 72b9 573d a8a0 35bf 1bb9 a1be 0312 95bf
00000030: 692f e63e 5ebb 623d e8e6 d7bd 6ae7 d73f
00000040: 6fde 10bc 8f3f 6fbe c22d 3fbf ce91 e5be

weight f4 [15, 20]
1.2363921 -0.18319994 3.3388538 1.4395432 0.7264612 -0.44991773 0.68394166 -0.4219057
1.0334425 0.7066612 0.18434247 -2.21301 0.47986773 0.38325217 -0.6604782 -1.3761741
0.049831454 0.9149955 -0.83125335 0.20173123 -1.3651665 0.78370726 -3.217098 -2.1499217
-0.24760218 0.9692543 0.12948574 0.2873086 1.5084062 -0.6232018 -0.0060185874 1.2006238
-1.615769 1.3264062 0.62183416 0.90033305 -0.48710984 0.19967714 0.09065633 0.56976473
0.39411387 -0.8750755 0.56411916 -1.1324561 -0.22771667 0.5283348 -0.7010702 0.32079473
0.7684551 -0.3633325 -0.4898324 -1.9066486 0.7415595 0.5094237 0.793047 0.31527612
0.7802439 -0.8504033 -0.57241505 -0.93467945 0.051731408 1.9697574 1.5434762 -0.5227287
0.65074056 0.29313716 -0.08379249 -4.6156087 0.99341244 0.51232904 0.95419276 -2.2609384
1.0348638 -6.1196303 -5.232867 -1.1911858 -1.6098204 -0.96551526 0.27464616 1.1174033
-6.4060793 -5.0710597 -3.9240844 1.5961187 0.39187977 1.5895061 0.1616373 0.9345805
-3.0903165 -1.8227392 -0.38901028 0.9113453 -2.5166826 2.0938208 1.273643 1.0285479
-0.40318453 -9.011524 -0.06313077 0.9594397 0.16313736 -0.13821729 -0.743666 0.014106899
-0.31253242 -0.25207463 -0.14909478 0.13162489 0.5188911 0.2107929 -0.18038213 0.28531998
-0.31418216 -0.22559148 0.1007661 -0.08709069 0.1949704 -0.0715195 -0.34131595 0.019296715
0.67666394 -0.5264527 5.1210246 1.1377969 0.40003428 -0.9462485 -0.12696171 -2.5185788
0.454736 0.41577113 -0.696533 -1.1488012 1.7000304 2.033074 -1.9191798 -1.2800132
0.32399005 -0.39956096 0.47942844 -0.99377733 1.8387842 0.28483275 1.2204347 2.9867842
-0.04774589 1.0882901 -6.265337 0.21925077 -4.732125 -4.1720853 -1.4274033 1.5306033
-0.0036928027 -0.6703395 0.23813778 1.1191303 -1.4404413 -0.72713464 -3.7122817 -0.2644856
0.26451162 -0.9201491 0.9735775 1.3348297 -0.18987243 -0.43321085 1.2951341 -0.43813735
2.8495228 1.1888808 -0.6335226 -2.6814609 -0.1585188 0.068827204 -0.39516678 -1.1683671
-0.36667594 -1.130725 1.021266 0.09268049 -0.2301357 -0.3536507 -0.9784408 0.09753219
0.88604283 0.12018876 1.1838468 -0.2594579 -0.06673385 0.7922732 1.59176 1.5324845
-0.59077936 -0.9487338 -0.3797092 -0.5433061 -0.67744076 0.082057305 1.1066931 0.6526284
0.975058 -0.09600289 1.8372785 0.0208213 -0.32630545 -2.4128952 0.13767354 0.6558996
-0.33195853 -0.013763308 -1.4535477 -0.39622587 -0.67741746 2.740703 1.3899076 -2.3112833
0.5609671 0.64286 0.103594884 -1.3371581 -1.0678337 -0.61638105 0.7258589 -0.34043583
0.20083849 0.41015172 -1.3617702 0.34818313 1.2975152 0.53663576 0.90652084 1.335973
-0.020397134 1.2845838 0.31130743 -0.22678089 0.8558608 -0.41761506 -0.42936048 1.2714381
-1.6369264 0.4897632 2.426977 -4.7010045 0.14564423 -0.0627017 -0.18722786 -0.32686883
-0.9203715 -1.2947375 -0.08914845 1.1869289 2.290864 -0.5127595 -0.43493062 0.8794369
00000000: 1942 9e3f c498 3bbe c8af 5540 f442 b83f
00000010: 5cf9 393f 9e5b e6be cd16 2f3f 0604 d8be
00000020: d847 843f c0e7 343f 46c4 3c3e f5a1 0dc0
00000030: 39b1 f53e a139 c43e 1915 29bf 7926 b0bf
00000040: 111c 4c3d 253d 6a3f 05cd 54bf a292 4e3e
00000050: c7bd aebf 0aa1 483f efe4 4dc0 5198 09c0
00000060: 6d8b 7dbe 0d21 783f e997 043e 1d1a 933e
00000070: 7413 c13f 278a 1fbf 9237 c5bb 0aae 993f
00000080: 85d1 cebf aec7 a93f 8630 1f3f 3a7c 663f
00000090: 7666 f9be 2a78 4c3e 07aa b93d 1adc 113f
000000a0: 4bc9 c93e f304 60bf 1d6a 103f 52f4 90bf
000000b0: 8f2e 69be f340 073f 5679 33bf 353f a43e
000000c0: 79b9 443f b806 babe 50cb fabe 100d f4bf
000000d0: d8d6 3d3f 9769 023f 2105 4b3f df6b a13e
000000e0: 10be 473f 08b4 59bf cb89 12bf 2747 6fbf
000000f0: 50e4 533d 0321 fc3f a190 c53f 8cd1 05bf
00000100: ef96 263f 1316 963e 669b abbd 11b3 93c0
00000110: 4750 7e3f ff27 033f fa45 743f 37b3 10c0
00000120: 6b76 843f 03d4 c3c0 a573 a7c0 c778 98bf
00000130: 980e cebf 022c 77bf 6c9e 8c3e 1207 8f3f
00000140: 9afe ccc0 1f46 a2c0 3324 7bc0 9e4d cc3f
00000150: 77a4 c83e f074 cb3f 4084 253e ab40 6f3f
00000160: bfc7 45c0 854f e9bf 5b2c c7be ed4d 693f
00000170: 5411 21c0 2901 0640 bc06 a33f 75a7 833f
00000180: 346e cebe 342f 10c1 b54a 81bd d79d 753f
00000190: 7b0d 273e d588 0dbe e560 3ebf 9f20 673c
000001a0: 4004 a0be ed0f 81be 4dac 18be adc8 063e
000001b0: 0cd6 043f 18da 573e 18b6 38be 7615 923e
000001c0: 7cdc a0be 7401 67be 755e ce3d 9b5c b2bd
000001d0: 52a6 473e d178 92bd f7c0 aebe 2514 9e3c
000001e0: d939 2d3f 9bc5 06bf 6fdf a340 54a3 913f
000001f0: 4bd1 cc3e 573d 72bf 4002 02be 6530 21c0
00000200: 28d3 e83e f4df d43e fd4f 32bf eb0b 93bf
00000210: 999a d93f e21d 0240 afa7 f5bf 79d7 a3bf
00000220: 06e2 a53e 4193 ccbe a577 f53e 3168 7ebf
00000230: 485d eb3f 99d5 913e 3437 9c3f 7927 3f40
00000240: 3291 43bd 174d 8b3f a47d c8c0 4683 603e
00000250: 916d 97c0 b981 85c0 27b5 b6bf cfea c33f
00000260: f302 72bb 5f9b 2bbf 64da 733e a93f 8f3f
00000270: 6160 b8bf 7f25 3abf 0696 6dc0 a86a 87be
00000280: 116e 873e e48e 6bbf 603c 793f b3db aa3f
00000290: eb6d 42be d0cd ddbe f4c6 a53f 8a53 e0be
000002a0: 955e 3640 3f2d 983f 8a2e 22bf 0e9d 2bc0
000002b0: c152 22be 47f5 8c3d 4d53 cabe 0e8d 95bf
000002c0: f3bc bbbe 99bb 90bf d8b8 823f 45cf bd3d
000002d0: b1a8 6bbe b411 b5be 197b 7abf f5be c73d
000002e0: b4d3 623f 8625 f63d 4b88 973f aad7 84be
000002f0: c2ab 88bd 6bd2 4a3f cbbe cb3f 7428 c43f
00000300: 513d 17bf 38e0 72bf 3f69 c2be 1c16 0bbf
00000310: c26c 2dbf a90d a83d 1fa8 8d3f a812 273f
00000320: 679d 793f 2a9d c4bd f12b eb3f 6e91 aa3c
00000330: 8211 a7be e06c 1ac0 4bfa 0c3e 09e9 273f
00000340: 78f6 a9be 7f7f 61bc da0d babf 1ede cabe
00000350: 3b6b 2dbf ae67 2f40 7ee8 b13f 11ec 13c0
00000360: 8a9b 0f3f 7992 243f 8e29 d43d ff27 abbf
00000370: c6ae 88bf 26cb 1dbf e4d1 393f 9b4d aebe
00000380: 9ba8 4d3e 68ff d13e 7c4e aebf 0f45 b23e
00000390: fa14 a63f f660 093f c011 683f 2a01 ab3f
000003a0: e417 a7bc 3e6d a43f b063 9f3e 4039 68be
000003b0: b219 5b3f a4d1 d5be 23d5 dbbe 7cbe a23f
000003c0: ce86 d1bf 3ec2 fa3e 9753 1b40 a16e 96c0
000003d0: c323 153e c069 80bd a9b8 3fbe 5a5b a7be
000003e0: 779d 6bbf f5b9 a5bf 7693 b6bd 49ed 973f
000003f0: 849d 1240 3544 03bf 3aaf debe c722 613f

bias f4 [15]
0.5105919 -0.05125507 -0.8024416 -0.8830322 0.109750755 -0.16150318 -1.1614668 0.70161897
-0.86699575 -0.540876 -0.019666605 -1.3465787 0.23385742 -0.13629016 -1.4713165
00000000: 27b6 023f d6f0 51bd d06c 4dbf 660e 62bf
00000010: 01c5 e03d 1761 25be f2aa 94bf 4d9d 333f
00000020: 6ff3 5dbf d976 0abf dc1b a1bc b15c acbf
00000030: 5278 6f3e a68f 0bbe 1954 bcbf

weight f4 [9, 15]
0.82003826 -1.27754 -0.11830448 -3.4728265 -33.173958 -0.081954725 1.2529252 -5.983253
0.45199138 -0.51676846 1.2953116 -1.3081297 0.24351662 -0.7673811 -1.1612805 0.37392727
-0.32079744 1.3132995 -1.4165547 -0.5232176 -0.27591467 -3.4028294 0.34036338 -0.93407196
0.7519428 -0.44035938 -6.1596174 -0.07954935 0.022591727 1.0396825 -4.384689 0.0972847
-1.2332017 -3.6020055 0.27475384 -0.04702546 2.2376783 -3.6836147 -1.5209246 0.81261075
-0.91786855 -0.106270306 0.6339548 -15.3534775 -3.0552897 -0.97478104 0.86285794 0.55901927
-2.792205 -0.8064476 0.2925875 -1.8721051 -1.3698673 1.5264488 -0.55668426 -1.8300214
0.2401084 -20.300888 -2.0201097 1.5189779 -1.0558932 -12.375728 0.2518299 -0.4866681
-10.641815 -0.25055194 -1.3635197 -14.407246 0.36049694 -0.29810607 -1.2607905 -1.8456999
0.0060095303 0.8788159 -0.4712283 -0.40577164 0.311576 -1.324865 -0.71413934 0.519807
-0.21774907 -6.447514 -0.33789876 0.9333055 -0.7586562 -1.0016482 -18.092628 0.09164568
0.011194257 -1.0464332 -7.079904 0.16685435 -3.438805 -10.606262 0.933756 -0.22941495
0.13132046 0.27617192 -4.2500944 -0.5572636 1.7420157 0.124190494 -6.2667546 -20.915943
-2.8240278 -1.7316681 -1.5783377 -2.4898267 1.8502365 -18.77089 0.05953901 0.563953
0.86434335 -1.2717234 0.5323843 -2.3161516 1.9388483 1.1044171 -3.7391756 -4.387912
-0.3702496 -3.8583772 -2.742397 2.1363537 -9.577447 -0.047574855 -0.059168607 -14.446337
-0.27578807 -0.33791462 -3.3750455 -0.73311764 -1.1672887 0.2575975 -0.5139924
00000000: 07ee 513f 6e86 a3bf 9f49 f2bd ca42 5ec0
00000010: 22b2 04c2 e1d7 a7bd da5f a03f cf76 bfc0
00000020: 6a6b e73e f04a 04bf c5cc a53f cb70 a7bf
00000030: 6c5c 793e 1673 44bf d7a4 94bf 6573 bf3e
00000040: 903f a4be 331a a83f aa51 b5bf 97f1 05bf
00000050: b044 8dbe f5c7 59c0 1c44 ae3e 571f 6fbf
00000060: 537f 403f c976 e1be 961b c5c0 c5ea a2bd
00000070: 4912 b93c 5114 853f 5f4f 8cc0 333d c73d
00000080: 8ed9 9dbf 4287 66c0 89ac 8c3e c59d 40bd
00000090: 1f36 0f40 58c0 6bc0 a8ad c2bf 4207 503f
000000a0: 6ff9 6abf 3fa4 d9bd dd4a 223f d8a7 75c1
000000b0: de89 43c0 408b 79bf 42e4 5c3f e31b 0f3f
000000c0: 7db3 32c0 5a73 4ebf 07ce 953e 24a1 efbf
000000d0: d057 afbf ad62 c33f dc82 0ebf 243e eabf
000000e0: fade 753e 3868 a2c1 7a49 01c0 de6d c23f
000000f0: 8227 87bf fb02 46c1 d9ef 803e 902c f9be
00000100: e044 2ac1 5848 80be d087 aebf 1484 66c1
00000110: 0e93 b83e 5ca1 98be 9561 a1bf e53f ecbf
00000120: 98eb c43b 14fa 603f d644 f1be 4dc1 cfbe
00000130: e486 9f3e 2d95 a9bf d6d1 36bf 1212 053f
00000140: 9df9 5ebe 0952 cec0 1101 adbe 1ced 6e3f
00000150: 4b37 42bf 0236 80bf b4bd 90c1 bbb0 bb3d
00000160: 1e68 373c 86f1 85bf 938e e2c0 dedb 2a3e
00000170: 6215 5cc0 40b3 29c1 a20a 6f3f c1eb 6abe
00000180: df78 063e 6866 8d3e c600 88c0 d4a8 0ebf
00000190: 5ffa de3f 9657 fe3d 4189 c8c0 da53 a7c1
000001a0: dfbc 34c0 4da7 ddbf f806 cabf 5259 1fc0
000001b0: 8dd4 ec3f c82a 96c1 2ddf 733d 395f 103f
000001c0: 9b45 5d3f d5c7 a2bf 564a 083f d43b 14c0
000001d0: 2e2c f83f 8a5d 8d3f a74e 6fc0 c669 8cc0
000001e0: 5b91 bdbe a7ef 76c0 6f83 2fc0 05ba 0840
000001f0: 393d 19c1 dadd 42bd c85a 72bd 3224 67c1
00000200: 1834 8dbe 2503 adbe bf00 58c0 99ad 3bbf
00000210: b769 95bf d2e3 833e 0295 03bf

bias f4 [9]
-1.1675998 -0.01693064 -5.382341 -1.374845 -0.9667742 0.028020596 -4.69951 -6.6894474
-0.9746407
00000000: e973 95bf 20b2 8abc 233c acc0 ecfa afbf
00000010: 847e 77bf 738b e53c 6362 96c0 f40f d6c0
00000020: 0e82 79bf
