models/current_model.pth (torch, 12144 bytes, 8 tensors)

weight f4 [24, 27]
-0.85965335 0.25877205 13.543716 -0.25483257 -0.0012926322 0.022601398 0.045890234 0.16542286
-0.18187949 0.18232173 -0.40437654 0.48533928 -0.081062905 0.34270427 -0.113362715 -0.1612886
0.5331585 -0.05171372 0.36543968 -0.4876059 -0.3213995 0.068275854 0.13003042 -0.023919206
-1.4134269 -0.17759122 -0.20484792 2.102702 0.17565864 3.4772856 -0.044296533 0.068449795
0.19822903 -0.18544553 0.10512633 -0.22352721 -0.030685674 0.000108867906 0.09689463 -0.9604572
-0.04108117 -0.17696173 0.5016442 -0.11702292 -0.5390541 -0.13803908 0.13715255 0.5274501
-0.7429304 -0.15824397 0.19308373 2.8486655 0.6381115 -0.17417379 1.9124198 -0.40185094
-1.3328635 0.6488708 -0.9853983 1.0475475 0.8212323 -1.253757 -1.579632 -0.40590528
-1.0021441 -0.35279474 -0.4725367 -0.13534306 -0.15506257 -0.2935485 -0.4170654 1.1285404
0.5810281 -0.48930866 -0.3974949 1.131681 -0.40644687 0.8799084 -0.034484103 -0.050883513
-1.7759736 -0.40436208 0.31241748 0.62348044 0.62669164 0.70496815 -0.29480252 -0.39426357
-0.012786839 0.0068438463 -0.8717327 0.18337655 0.2174358 -0.7529074 0.040238425 0.6425505
0.010342489 -0.009055268 0.38006118 0.2864795 -0.11773066 -0.381256 0.43599153 0.2792092
-0.22963886 0.19689952 1.1764543 0.33413628 0.111835875 0.9791321 -0.8100794 0.40561816
0.11495822 -0.43887752 0.5762819 0.50641006 0.6218906 0.47802898 0.40025145 0.62421286
1.036807 0.88950276 0.39777255 0.6540476 0.43362632 0.34734568 -1.0222094 0.6649095
1.1414713 0.4155513 0.50525403 -0.44884476 -0.13863488 0.79870754 1.8896164 2.7405837
0.1688498 2.2530155 -0.19944513 -0.7906894 0.3716904 -0.43376034 0.0049777464 0.2490167
-0.096664675 -0.23012424 -0.046502203 -1.3862735 0.44431746 -0.10036888 -0.117653355 -0.20062801
-1.2523445 0.73590577 -0.13981164 1.0485259 -1.0609119 -0.04947086 0.1283287 0.7858316
0.1539736 0.07006882 0.47914737 -0.4919554 -12.439098 -0.40635487 -0.65900236 -0.72112596
-0.6830489 -0.5681558 -0.91159225 -0.7517302 -0.8746393 -0.25728002 -1.9994975 -0.25136742
-0.61036116 -0.57053804 -0.32076624 0.20335402 -0.99681926 0.36381695 -0.80642074 0.18377225
-0.3130089 -0.60191184 -0.22977246 -0.54428685 -0.15710449 1.0714233 0.43270254 -2.6853352
0.2761542 0.2905294 -0.29331157 0.44297072 0.03030219 0.36589217 -0.37637967 0.32524037
0.55804956 1.0115238 0.39541677 -0.52658945 0.663619 0.56294185 0.41778463 -1.284153
1.1597574 -0.3673731 0.41039407 -0.2039338 -0.089599594 0.45643884 -0.22113521 0.4720383
0.1228541 -0.37830114 7.0599265 0.7147562 0.27796125 0.21332315 -0.050607942 0.12792721
-0.17497586 0.12938587 0.05355482 -0.4133479 1.7000953 -0.46421325 0.32736838 -0.30724508
-0.18008927 0.095725395 0.014931337 0.40451673 -0.35722136 0.20430614 -0.10692887 0.14555588
-0.88297653 0.48908466 -0.55417156 1.5479343 -0.55133724 -0.655413 0.41278726 -1.2790653
1.5221801 0.8885726 0.4430895 0.35640764 0.18520235 0.14650437 -0.53861046 -0.71889704
00000000: 3e12 5cbf c57d 843e 10b3 5841 6a79 82be
00000010: 8a6d a9ba 9126 b93c 66f7 3b3d 9c64 293e
00000020: 9e3e 3abe 8cb2 3a3e 710a cfbe 647e f83e
00000030: 4f04 a6bd ef76 af3e b62a e8bd d728 25be
00000040: 137d 083f c4d1 53bd e91a bb3e 7ba7 f9be
00000050: 7a8e a4be 36d4 8b3d b226 053e 36f2 c3bc
00000060: 2ceb b4bf 79da 35be a7c3 51be ab92 0640
00000070: dcdf 333e d98b 5e40 4870 35bd 682f 8c3d
00000080: 8dfc 4a3e 6fe5 3dbe 794c d73d 51e4 64be
00000090: 8660 fbbc 0350 e438 b170 c63d 86e0 75bf
000000a0: bb44 28bd 7535 35be c16b 003f b6a9 efbd
000000b0: 73ff 09bf 1e5a 0dbe b871 0c3e f806 073f
000000c0: b030 3ebf b50a 22be beb7 453e 8950 3640
000000d0: 465b 233f 9d5a 32be 2cca f43f 68bf cdbe
000000e0: 459b aabf 661c 263f 1043 7cbf 0916 863f
000000f0: 483c 523f 1c7b a0bf 6231 cabf d1d2 cfbe
00000100: 4246 80bf 83a1 b4be 55f0 f1be 5f97 0abe
00000110: b9c8 1ebe fd4b 96be 9989 d5be 0374 903f
00000120: 42be 143f aa86 fabe 7484 cbbe ecda 903f
00000130: ce19 d0be ad41 613f 343f 0dbd 3b6b 50bd
00000140: 1a53 e3bf 8c08 cfbe 2ff5 9f3e 6a9c 1f3f
00000150: dd6e 203f cb78 343f 5bf0 96be eadc c9be
00000160: e47f 51bc 5842 e03b e029 5fbf 10c7 3b3e
00000170: 7ea7 5e3e 8abe 40bf 0cd1 243d 317e 243f
00000180: 8b73 293c 8c5c 14bc 6197 c23e 71ad 923e
00000190: c61c f1bd fd33 c3be 483a df3e 82f4 8e3e
000001a0: 7326 6bbe 07a0 493e 0e96 963f e913 ab3e
000001b0: 350a e53d 67a8 7a3f 5d61 4fbf 2fad cf3e
000001c0: 376f eb3d 8eb4 e0be 3687 133f 17a4 013f
000001d0: 3934 1f3f 37c0 f43e c2ed cc3e 6acc 1f3f
000001e0: 17b6 843f 74b6 633f d8a8 cb3e aa6f 273f
000001f0: 4504 de3e 4bd7 b13e c2d7 82bf 8237 2a3f
00000200: bb1b 923f 24c3 d43e 5458 013f fbce e5be
00000210: 4df6 0dbe 1978 4c3f f3de f13f b965 2f40
00000220: f6e6 2c3e 6831 1040 583b 4cbe 9f6a 4abf
00000230: 344e be3e d615 debe 5d1c a33b 3cfe 7e3e
00000240: 21f8 c5bd b0a5 6bbe 1879 3ebd 6971 b1bf
00000250: 947d e33e 338e cdbd 3ef4 f0bd 6e71 4dbe
00000260: d34c a0bf 5264 3c3f c82a 0fbe 1936 863f
00000270: f6cb 87bf f5a1 4abd 9968 033e 422c 493f
00000280: 41ab 1d3e 3e80 8f3d ce52 f53e 94e1 fbbe
00000290: 8c06 47c1 bf0d d0be 61b4 28bf b69b 38bf
000002a0: 4bdc 2ebf a972 11bf 1c5e 69bf 6471 40bf
000002b0: 5ce8 5fbf 35ba 83be 89ef ffbf 3bb3 80be
000002c0: a140 1cbf c80e 12bf 793b a4be 093c 503e
000002d0: 8c2f 7fbf 3746 ba3e 9771 4ebf cb2e 3c3e
000002e0: b442 a0be e516 1abf 7949 6bbe 6256 0bbf
000002f0: 00e0 20be 6624 893f 308b dd3e 88dc 2bc0
00000300: 1564 8d3e 45c0 943e ef2c 96be 0fcd e23e
00000310: 4c3c f83c 3856 bb3e d6b4 c0be e885 a63e
00000320: 56dc 0e3f 9d79 813f 1174 ca3e 91ce 06bf
00000330: efe2 293f f51c 103f dee7 d53e 205f a4bf
00000340: ee72 943f 5418 bcbe 2c1f d23e 06d4 50be
00000350: fe7f b7bd 5ab2 e93e 4571 62be 01af f13e
00000360: ee9a fb3d b0b0 c1be ebea e140 43fa 363f
00000370: f050 8e3e 6271 5a3e 464a 4fbd 5aff 023e
00000380: df2c 33be bb7d 043e 4d5c 5b3d 56a2 d3be
00000390: b99c d93f 5cad edbe d49c a73e 3a4f 9dbe
000003a0: 5269 38be ad0b c43d 91a2 743c d11c cf3e
000003b0: b8e5 b6be a135 513e 86fd dabd 9a0c 153e
000003c0: c00a 62bf 4e69 fa3e 30de 0dbf b622 c63f
000003d0: 7024 0dbf 25c9 27bf da58 d33e 69b8 a3bf
000003e0: ccd6 c23f 7e79 633f a0dc e23e 107b b63e
000003f0: afa5 3d3e 3e05 163e 60e2 09bf a309 38bf

bias f4 [24]
-0.045640405 -0.18122655 0.05842615 -0.26375672 -1.0121839 0.09156305 0.58952075 -0.5801009
0.3444576 0.5413582 0.088415965 0.20803167 0.076688215 0.19039883 0.0958851 -0.22637168
-0.07139579 0.59549344 -0.6355796 0.21653554 -0.48566255 0.1512652 -0.040477592 -0.49981776
00000000: 6ff1 3abd 7493 39be 4250 6f3d 1f0b 87be
00000010: 3e8f 81bf 6985 bb3d d5ea 163f 7e81 14bf
00000020: bf5c b03e 7396 0a3f 6e13 b53d 4106 553e
00000030: b60e 9d3d e9f7 423e 685f c43d facd 67be
00000040: f537 92bd 4272 183f 58b5 22bf 7ebb 5d3e
00000050: c3a8 f8be 44e5 1a3e d5cb 25bd 1de8 ffbe

weight f4 [20, 24]
-0.3466738 -1.6829699 0.92262095 -1.1228441 0.29623374 -3.3761892 0.34348878 0.453172
-0.41345787 0.62500453 0.16165937 -3.7197614 -0.25701293 1.4566618 0.6842004 1.0719535
-1.4002651 -0.4375704 -0.54766893 -1.032698 -0.4726699 0.101618014 0.7841347 0.67063344
2.7528846 1.5724758 -0.59072137 -0.05640988 -0.3619355 0.37440178 -0.23613086 -0.39119902
-0.016190829 0.34376347 0.59395087 0.97916776 -0.0013693307 0.2231783 0.039683122 -0.12821895
2.4205146 -0.4992329 0.71272725 0.13430123 -0.6463056 0.30717745 0.79832214 -1.3066672
2.034797 -1.4075661 -1.7539221 0.14397715 0.121268876 -1.3850381 -0.06449682 0.131091
0.80949956 -0.16517681 -1.1438346 0.7056564 -1.1975929 1.0967426 1.8660827 1.7565911
1.9422814 -1.2117445 0.6646303 -0.8409567 -0.84806985 0.6382767 0.26583344 -0.48394173
-0.32502255 -2.0763526 1.3223681 -1.0175967 0.33646274 -4.1298013 0.43646875 0.15554513
-1.5951107 0.5504849 -0.32640734 -4.1382856 -0.11741058 1.5180976 0.6538855 0.29018745
-2.118841 -0.49219897 0.16661522 -2.1909862 -0.7340366 -0.55219716 0.7372323 1.0875075
0.38714495 -1.3200881 -0.91378367 -0.605219 0.5647751 -1.0628368 0.065716006 0.31076565
0.20095469 -1.1883156 -1.4578882 3.4823353 -0.91316795 -0.046771247 2.263805 2.429183
1.1808187 -1.1718135 1.3325503 -0.7141063 -0.5790692 0.9640286 0.7948818 -1.5878825
1.8013953 2.2773817 -0.4332702 -0.33721298 -0.4197921 0.6411897 -0.52575713 -0.11033096
0.7240677 0.39364937 0.7163411 1.9843205 0.31919736 0.6866476 -0.65452236 -0.9957243
2.3320215 0.37358597 0.09787304 -0.59994733 0.47576627 -0.12921263 -0.3499423 -0.2729309
-0.19073758 0.033276152 -0.14883305 0.0011673883 0.0006758371 -0.20951658 -0.11102996 -0.104923196
-0.21418 -0.18495114 -0.025453333 0.1478847 -0.10979295 0.078758866 0.10367498 0.05074148
-0.19233565 0.062237587 -0.15893058 0.028427746 -0.07549388 -0.23271346 -0.14818202 -0.2246813
1.237988 -1.8133241 -0.61785257 0.15808141 -0.09509509 -0.066830315 -0.1851597 0.12188154
-0.97804976 -0.8752473 -0.59023225 2.693041 -0.11877472 -0.041002683 1.8257759 2.2257867
1.7782797 0.16024616 0.86135566 1.7522962 -0.5382684 2.5425692 -0.052097075 -0.4159834
1.163117 2.245932 -0.77410144 -0.8002169 -0.38418296 1.1553875 -0.23736764 -0.08777733
-0.32721034 0.5851268 0.9819839 4.478857 0.5388801 -0.8976671 0.80340624 0.63092285
3.153143 1.0323377 0.026426362 0.7153523 0.039104935 0.7617452 -0.0825893 -0.36437508
-0.6719466 -0.030849125 0.9493779 -0.06444567 0.24662484 0.2947893 0.30601674 0.3016487
0.6963134 1.015629 1.4387648 1.7855744 0.1550116 0.97519577 0.18616857 -0.22790225
-0.42138025 -1.592124 -0.43378943 1.1113787 0.69108015 -8.438915 -0.94147176 0.5372837
0.09636331 1.4873343 -1.0632002 0.26192755 -0.80849564 0.776272 0.37061223 -0.5372617
-0.7868672 -0.58797324 0.116662346 4.32923 0.31059465 -2.1547775 -0.7420497 -0.6344925
00000000: 3a7f b1be 8f6b d7bf e330 6c3f 5bb9 8fbf
00000010: f3ab 973e 7c13 58c0 c3dd af3e 2906 e83e
00000020: c0b0 d3be 4c00 203f 098a 253e 9210 6ec0
00000030: 3397 83be e573 ba3f c227 2f3f c635 893f
00000040: e33b b3bf 3a09 e0be 0834 0cbf 732f 84bf
00000050: ca01 f2be 1b1d d03d 0dbd 483f a2ae 2b3f
00000060: 432f 3040 e346 c93f 8439 17bf 0c0e 67bd
00000070: 9c4f b9be 97b1 bf3e 4acc 71be 3d4b c8be
00000080: a1a2 84bc c401 b03e 2a0d 183f bdaa 7a3f
00000090: 1d7b b3ba da88 643e c58a 223d d44b 03be
000000a0: b6e9 1a40 749b ffbe 4b75 363f 4386 093e
000000b0: 4974 25bf 5d46 9d3e d75e 4c3f df40 a7bf
000000c0: 1d3a 0240 202b b4bf 8580 e0bf bf6e 133e
000000d0: d15b f83d ee48 b1bf e916 84bd b83c 063e
000000e0: 5d3b 4f3f 1c24 29be 2c69 92bf e6a5 343f
000000f0: b94a 99bf 1062 8c3f ccdb ee3f fad7 e03f
00000100: ad9c f83f 721a 9bbf 3625 2a3f f048 57bf
00000110: 1b1b 59bf 1a66 233f 521b 883e 36c7 f7be
00000120: 5b69 a6be f6e2 04c0 5c43 a93f 9c40 82bf
00000130: d844 ac3e 5527 84c0 d578 df3e 3947 1f3e
00000140: 962c ccbf 94ec 0c3f dd1e a7be d66c 84c0
00000150: f574 f0bd 0651 c23f 0a65 273f 7393 943e
00000160: 179b 07c0 8101 fcbe 2e9d 2a3e 1e39 0cc0
00000170: d3e9 3bbf cb5c 0dbf 42bb 3c3f 7233 8b3f
00000180: dd37 c63e a6f8 a8bf baed 69bf a2ef 1abf
00000190: 1a95 103f 090b 88bf 1d96 863d ad1c 9f3e
000001a0: 11c7 4d3e ba1a 98bf 159c babf 95de 5e40
000001b0: 60c5 69bf 3593 3fbd 2ee2 1040 bc77 1b40
000001c0: 1125 973f fcfd 95bf 0291 aa3f accf 36bf
000001d0: e13d 14bf 94ca 763f 607d 4b3f bc3f cbbf
000001e0: 1f94 e63f 9fc0 1140 97d5 ddbe 2ea7 acbe
000001f0: fdee d6be 0225 243f 0598 06bf 33f5 e1bd
00000200: 805c 393f 698c c93e 2162 373f 37fe fd3f
00000210: d66d a33e 23c8 2f3f c78e 27bf cae7 7ebf
00000220: d73f 1540 a946 bf3e a971 c83d 2696 19bf
00000230: a397 f33e 5150 04be a32b b3be 99bd 8bbe
00000240: b650 43be 934c 083d b167 18be 0d03 993a
00000250: a92a 313a 848b 56be ad63 e3bd f9e1 d6bd
00000260: 0052 5bbe d563 3dbe 8283 d0bc 166f 173e
00000270: 20db e0bd 544c a13d 8c53 d43d 4cd6 4f3d
00000280: a3f3 44be d7ec 7e3d b3be 22be 4ee1 e83c
00000290: 899c 9abd 704c 6ebe 07bd 17be db12 66be
000002a0: 6476 9e3f 011b e8bf 962b 1ebf 18e0 213e
000002b0: 37c1 c2bd 55de 88bd 819a 3dbe 079d f93d
000002c0: 7861 7abf 3510 60bf 7619 17bf c95a 2c40
000002d0: 2940 f3bd 6ef2 27bd 06b3 e93f 4a73 0e40
000002e0: ab9e e33f 9217 243e ce81 5c3f 3e4b e03f
000002f0: f5cb 09bf 74b9 2240 be63 55bd c7fb d4be
00000300: 05e1 943f 5abd 0f40 832b 46bf 04db 4cbf
00000310: a1b3 c4be bde3 933f 8110 73be 9ac4 b3bd
00000320: 1d88 a7be dfca 153f 4c63 7b3f cc52 8f40
00000330: 0cf4 093f 83cd 65bf 08ac 4d3f 2984 213f
00000340: 18cd 4940 a423 843f 197c d83c 5421 373f
00000350: 7f2c 203d bc01 433f 9424 a9bd 5f8f babe
00000360: b104 2cbf 4eb7 fcbc 6e0a 733f 17fc 83bd
00000370: 398b 7c3e a0ee 963e 3aae 9c3e b371 9a3e
00000380: 9841 323f 2200 823f 7229 b83f b48d e43f
00000390: 5cbb 1e3e 6ea6 793f f9a2 3e3e 355f 69be
000003a0: 27bf d7be b8ca cbbf a619 debe a841 8e3f
000003b0: a1ea 303f cc05 07c1 4b04 71bf 6d8b 093f
000003c0: 215a c53d f860 be3f f216 88bf 5e1b 863e
000003d0: 92f9 4ebf c3b9 463f e3c0 bd3e fc89 09bf
000003e0: 2170 49bf 6a85 16bf abec ee3d 0d89 8a40
000003f0: 4306 9f3e e0e7 09c0 f8f6 3dbf 1a6e 22bf

bias f4 [20]
-0.21837528 -1.0865523 -1.0132732 0.6133491 -0.537177 -1.1017742 -0.039488427 -0.33609617
-0.6832647 -0.44140628 0.020155275 0.6490421 -0.18329886 -0.42369947 -0.11221075 -0.43455687
0.5621078 0.50370806 -0.73720366 -0.8150352
00000000: c59d 5fbe 2514 8bbf f0b2 81bf 7204 1d3f
00000010: 6f84 09bf f006 8dbf 9ebe 21bd cc14 acbe
00000020: 6fea 2ebf 0100 e2be ad1c a53c a027 263f
00000030: b2b2 3bbe 23ef d8be c0ce e5bd 3d7e debe
00000040: 4ce6 0f3f 03f3 003f 61b9 3cbf 26a6 50bf

weight f4 [15, 20]
0.45016298 0.28791288 0.155758 0.49720332 -0.63674724 0.59797627 -0.032894522 -0.5338488
1.5703529 1.0521247 0.16186406 -1.4890035 -0.06291046 1.5175487 -0.9618312 -0.3230239
-0.774254 -0.51781785 0.21378867 1.201722 0.82462114 -0.48780176 0.49172565 0.5017226
3.1441052 -0.7065911 0.007089757 0.43253544 1.2002549 -1.5792392 0.22433138 0.08861535
0.83652884 0.33388647 -0.44478178 -0.7681194 -0.56940424 -1.6111743 -0.042855967 -0.43970925
0.20402147 0.35288066 1.1798528 -0.1518437 0.7095477 0.8566268 0.0895007 0.1698519
0.4633216 -4.7119074 0.8546688 -1.9138786 0.7474376 1.4712332 -0.2875109 0.42846912
-0.4048939 0.6531947 -0.90249157 -0.15378258 1.1557711 -0.50800806 0.88120234 0.562169
2.6548102 -0.31643096 -0.11035526 0.0039008467 -0.690062 -0.7058112 -0.2736192 0.06146435
-0.06884455 -0.027187109 0.83747596 0.29361877 0.7896796 0.6283816 -0.13278973 -1.1038721
-0.6148372 0.5195677 0.914543 -1.4930259 -0.7265994 0.8767329 -0.10981601 0.124420084
1.472462 -0.99353623 1.3840182 -0.2637916 0.5742752 0.62978154 -0.48034337 0.9755374
-2.2556732 -0.011385856 0.38054097 -0.36606944 -0.248515 -0.10433948 -0.035534445 -0.011002613
-0.09053865 -0.10521935 -0.026353674 -0.09709802 -0.0482941 -0.070634626 0.18243398 0.121493444
-0.1964975 -0.19846748 -0.17106867 -0.027801042 -0.20280132 0.043750636 -0.002437712 0.024852704
0.52438754 0.13452236 -1.0347571 0.4836571 -2.5206125 -0.20847906 -0.014620785 -0.47513855
-1.4173198 -1.3157129 0.26462898 0.77820694 -1.128675 -2.3239913 1.6245713 0.40940636
-0.5646726 0.35958198 0.24958427 1.0873396 -0.14187233 -0.68035406 -1.3244069 0.56200737
-2.9570267 0.54041773 -0.0050037648 -0.012600115 -0.2115932 -1.2186602 -0.49861887 1.3144041
0.7602878 -0.38312295 0.4136664 -0.023931826 1.0483854 1.3539941 0.27739692 0.41327992
0.9391603 0.85312104 0.63776714 0.38629916 2.7160773 -0.7296203 0.11353554 0.23122072
1.6727878 -0.004717526 -0.46664008 -0.789129 0.14057012 0.5267729 -0.2355387 -0.46043023
-0.9949744 -0.13735995 -0.21558207 0.15064117 1.4409921 0.7377597 0.8293364 1.3506144
0.43242738 0.078941494 -0.13114053 -1.5657363 -0.29250583 -0.72855896 -2.3821907 0.45137703
0.68904257 0.7664905 0.031743903 0.023598945 -0.07426712 1.5774989 -0.52323943 0.5711185
0.43131134 -0.10864547 -0.51062787 0.4328919 -0.8576897 -0.058211103 -0.19257091 -2.1218443
-0.46542382 0.916371 0.65315646 -2.506057 -0.097595766 -2.0441046 1.7410742 -0.3410567
0.35935795 1.9820853 -2.0858917 -0.12826386 -0.28923583 0.14605877 -0.5034118 -0.3418279
-0.7244814 1.2081836 0.10196346 -0.81371135 0.4072518 -0.8400351 0.26191765 -2.2844453
0.5696899 0.2571822 0.029990025 -0.33167428 -2.0705621 -0.038686797 -0.05071952 0.748936
0.98377347 -1.2486966 -2.6854327 0.48918468 0.35185647 -2.472729 0.016631277 -0.88887715
-1.5951698 -0.5580447 0.6665885 -0.46287426 1.3547672 -2.26678 1.8908406 -3.831392
00000000: c37b e63e 5169 933e 067f 1f3e 6f91 fe3e
00000010: de01 23bf f914 193f 68bc 06bd 51aa 08bf
00000020: 5301 c93f 06ac 863f b1bf 253e ab97 bebf
00000030: 33d7 80bd 093f c23f 923a 76bf 6363 a5be
00000040: 8335 46bf b68f 04bf 6beb 5a3e 07d2 993f
00000050: 5f1a 533f 27c1 f9be 77c3 fb3e e470 003f
00000060: 0539 4940 28e3 34bf 3151 e83b 4975 dd3e
00000070: f4a1 993f 8324 cabf 20b7 653e f77b b53d
00000080: c126 563f 2bf3 aa3e 70ba e3be 79a3 44bf
00000090: 7ac4 11bf f63a cebf bd89 2fbd 9221 e1be
000000a0: 01eb 503e c6ac b43e 6b05 973f ea7c 1bbe
000000b0: eba4 353f e54b 5b3f 254c b73d a8ed 2d3e
000000c0: 7d38 ed3e f2c7 96c0 93cb 5a3f f9f9 f4bf
000000d0: 1258 3f3f 5f51 bc3f a134 93be 4e60 db3e
000000e0: 414e cfbe c537 273f b009 67bf 2e79 1dbe
000000f0: 4ff0 933f d10c 02bf 7a96 613f 4fea 0f3f
00000100: 69e8 2940 3d03 a2be f001 e2bd 59a5 7f3b
00000110: e7a7 30bf 0bb0 34bf d117 8cbe 0bc2 7b3d
00000120: 5ffe 8cbd 80b7 debc d364 563f 3355 963e
00000130: 7128 4a3f 9edd 203f 08fa 07be ae4b 8dbf
00000140: f965 1dbf 6402 053f 7d1f 6a3f 791b bfbf
00000150: 6b02 3abf 9171 603f 37e7 e0bd f5cf fe3d
00000160: a379 bc3f 6458 7ebf 8227 b13f b10f 87be
00000170: b303 133f 5d39 213f 91ef f5be d2bc 793f
00000180: f35c 10c0 be8b 3abc 44d6 c23e 746d bbbe
00000190: b77a 7ebe f0af d5bd 918c 11bd 4e44 34bc
000001a0: 546c b9bd 3e7d d7bd a9e3 d7bc 54db c6bd
000001b0: 09d0 45bd e3a8 90bd f9cf 3a3e 8ed1 f83d
000001c0: a436 49be 0f3b 4bbe a02c 2fbe 03bf e3bc
000001d0: 26ab 4fbe de33 333d 05c2 1fbb e697 cb3c
000001e0: 433e 063f 3bc0 093e ec72 84bf e7a1 f73e
000001f0: b751 21c0 897b 55be 048c 6fbc 5c45 f3be
00000200: bc6a b5bf 4869 a8bf 737d 873e 9238 473f
00000210: 6c78 90bf 46bc 14c0 f4f1 cf3f b69d d13e
00000220: 628e 10bf 211b b83e 0593 7f3e f22d 8b3f
00000230: fb46 11be af2b 2ebf 2a86 a9bf b7df 0f3f
00000240: ed3f 3dc0 d158 0a3f 9ff6 a3bb b670 4ebc
00000250: e3ab 58be 0ffd 9bbf f94a ffbe 653e a83f
00000260: 39a2 423f b128 c4be 15cc d33e ad0c c4bc
00000270: 7e31 863f ae4f ad3f f806 8e3e 6d99 d33e
00000280: cf6c 703f 2466 5a3f b544 233f 01c9 c53e
00000290: 36d4 2d40 65c8 3abf 5285 e83d 20c5 6c3e
000002a0: e91d d63f 7a95 9abb 73eb eebe 5c04 4abf
000002b0: 9df1 0f3e 97da 063f 0f31 71be 83bd ebbe
000002c0: a4b6 7ebf 16a8 0cbe 8cc1 5cbe ae41 1a3e
000002d0: 6e72 b83f d2dd 3c3f 644f 543f efe0 ac3f
000002e0: 1f67 dd3e 14ac a13d b449 06be 0c6a c8bf
000002f0: 53c3 95be d782 3abf d075 18c0 e41a e73e
00000300: 1865 303f b938 443f e505 023d 9352 c13c
00000310: 5c19 98bd 7ceb c93f 05f3 05bf d234 123f
00000320: d7d4 dc3e 8481 debd 82b8 02bf 02a4 dd3e
00000330: 8d91 5bbf c46e 6ebd 4f31 45be 4ccc 07c0
00000340: 084c eebe 4a97 6a3f 4335 273f 3d63 20c0
00000350: 4ae0 c7bd 9cd2 02c0 85db de3f fc9e aebe
00000360: c4fd b73e f9b4 fd3f 407f 05c0 9a57 03be
00000370: b816 94be 6e90 153e 99df 00bf 1104 afbe
00000380: 9d77 39bf c3a5 9a3f 38d2 d03d 634f 50bf
00000390: 4f83 d03e 8a0c 57bf 121a 863e 5a34 12c0
000003a0: 33d7 113f 63ad 833e a4ad f53c 36d1 a9be
000003b0: 1784 04c0 0c76 1ebd 45bf 4fbd 45ba 3f3f
000003c0: 94d8 7b3f 4ad5 9fbf 21de 2bc0 6a76 fa3e
000003d0: 8826 b43e 3141 1ec0 513e 883c 748d 63bf
000003e0: 862e ccbf 04dc 0ebf 8ba5 2a3f dbfd ecbe
000003f0: 0369 ad3f ec12 11c0 1107 f23f 8735 75c0

bias f4 [15]
-1.2261919 -0.48445445 -0.12071556 0.3384309 -0.021603966 -0.23597378 0.34790984 -0.077006
-0.481997 0.12438448 0.81724185 -0.33449993 -1.0537074 0.76536083 -0.14230157
00000000: dbf3 9cbf 6a0a f8be b839 f7bd d146 ad3e
00000010: cdfa b0bc 1ca3 71be 3d21 b23e 52b5 9dbd
00000020: 50c8 f6be 4abd fe3d c336 513f 9343 abbe
00000030: e2df 86bf b0ee 433f 81b7 11be

weight f4 [9, 15]
0.71161824 -0.23176545 0.21170254 -1.4807252 1.4928316 -0.06901609 -2.4274282 -0.3146084
-0.5193478 -0.70877945 -7.403029 0.79351145 -4.473231 0.19280793 0.016491776 1.000006
-7.7575965 -1.7968025 0.5165506 0.5526252 0.03060901 0.120874 -0.18030107 -6.080538
-0.86113673 0.39189103 -0.79013115 -2.2779813 -0.062545165 0.013466412 -3.073718 0.18160789
-0.70529306 0.8706914 -0.7570933 -0.22919646 -8.094027 -2.8750117 -0.43762794 -1.1274024
-5.6802044 -0.65761787 -1.3929168 0.6108558 -0.24476857 0.089451075 0.24761975 0.26769778
0.76646584 -2.1095605 -0.13999926 -0.010344588 -0.9150875 0.6551853 0.7629248 -1.3551859
-4.7500715 -0.5492902 -4.6051497 -0.080574796 0.31947285 -0.32994467 -1.5189756 0.55638564
-1.9955161 0.224725 -7.7260675 0.5783256 -3.267317 0.55616885 -7.1999474 0.06740435
-2.7535024 0.180544 0.019474586 -1.1012005 -7.192616 1.844389 -0.44135454 -0.5774064
0.14295258 0.059382044 0.11126227 -7.0572605 0.8148799 -0.32250494 0.6895595 -5.3305297
-0.034464918 0.21202666 -7.066464 -1.9647788 -3.6266515 0.12861201 -0.2752569 0.17521279
0.60528105 0.33400726 -1.1418052 0.14173739 2.0128415 -1.8602552 1.2280283 -13.407353
0.19771104 -1.8730978 0.6420366 0.35563186 -4.603692 -0.34421656 -0.05246592 -7.63188
-0.53643024 0.030422496 0.6980536 -3.764774 0.40270105 2.0151935 -0.61265904 0.11128275
0.31757087 -1.4633017 -0.8544909 -6.142588 -2.4541361 0.10618939 0.40529227 0.11241206
0.2261828 0.5525742 -0.7121259 0.15935943 -4.538166 -15.74819 -0.13496879
00000000: 9d2c 363f ec53 6dbe 8dc8 583e 6788 bdbf
00000010: 1b15 bf3f 4f58 8dbd fc5a 1bc0 5a14 a1be
00000020: faf3 04bf 9272 35bf 9de5 ecc0 9123 4b3f
00000030: b524 8fc0 716f 453e c319 873c 3200 803f
00000040: 3b3e f8c0 a0fd e5bf a93c 043f d878 0d3f
00000050: bfbf fa3c ca8c f73d d8a0 38be c493 c2c0
00000060: 7573 5cbf f1a5 c83e 0946 4abf 72ca 11c0
00000070: ae17 80bd 3aa2 5c3c ccb7 44c0 6bf7 393e
00000080: 168e 34bf a2e5 5e3f ded0 41bf 7ab2 6abe
00000090: 2281 01c1 3100 38c0 c510 e0be b94e 90bf
000000a0: 3cc4 b5c0 a559 28bf 194b b2bf 0c61 1c3f
000000b0: 9da4 7abe 2032 b73d 0890 7d3e af0f 893e
000000c0: 1b37 443f 0a03 07c0 f75b 0fbe 597c 29bc
000000d0: 2d43 6abf 39ba 273f 0a4f 433f bb76 adbf
000000e0: 9600 98c0 489e 0cbf 635d 93c0 6604 a5bd
000000f0: f291 a33e 82ee a8be cb6d c2bf 4a6f 0e3f
00000100: 126d ffbf 4f1e 663e f23b f7c0 260d 143f
00000110: b91b 51c0 1561 0e3f f865 e6c0 4b0b 8a3d
00000120: 6239 30c0 87e0 383e 2b89 9f3c 23f4 8cbf
00000130: e929 e6c0 f014 ec3f 39f9 e1be e8d0 13bf
00000140: 2962 123e 963a 733d 79dd e33d 14d5 e1c0
00000150: f89b 503f 5e1f a5be f986 303f b393 aac0
00000160: 162b 0dbd 841d 593e 7920 e2c0 df7d fbbf
00000170: 0f1b 68c0 deb2 033e 79ee 8cbe fb6a 333e
00000180: b3f3 1a3f 0003 ab3e ac26 92bf 9b23 113e
00000190: 65d2 0040 d81c eebf 0830 9d3f 8584 56c1
000001a0: c374 4a3e abc1 efbf 835c 243f 6115 b63e
000001b0: 7251 93c0 273d b0be 81e6 56bd 5c38 f4c0
000001c0: 7e53 09bf 9938 f93c a4b3 323f 0ff2 70c0
000001d0: d52e ce3e eef8 0040 39d7 1cbf 36e8 e33d
000001e0: a698 a23e 784d bbbf eabf 5abf 1590 c4c0
000001f0: 9110 1dc0 d379 d93d 7882 cf3e 4b38 e63d
00000200: 779c 673e 8175 0d3f e24d 36bf 1e2f 233e
00000210: a838 91c0 96f8 7bc1 4235 0abe

bias f4 [9]
-0.13100784 -0.13431574 -2.419388 -1.0441521 -0.8032376 0.12658359 -0.3750917 -2.4409163
-0.9969751
00000000: eb26 06be 118a 09be 41d7 1ac0 c7a6 85bf
00000010: fba0 4dbf 219f 013e 050c c0be f937 1cc0
00000020: c339 7fbf
