models/final_model.pth (torch, 12132 bytes, 8 tensors)

weight f4 [24, 27]
000000 95 d1 97 3f 25 d8 9f 3e f8 5a f5 bd 8c df 35 3f
       1.1860834 0.31219593 -0.119802415 0.7104423
000010 e4 06 49 3f 00 91 1b bf 0d 69 de 3f 06 a5 72 bf
       0.7852614 -0.6076813 1.7375809 -0.94783056
000020 05 0f 12 3f 3d 5e fb be 6f fe fc be 79 29 00 bf
       0.5705417 -0.49095336 -0.49412867 -0.5006328
000030 be cb b4 be 54 45 1a 3f 52 b6 9f 3f 3f 7d 5c bf
       -0.35311693 0.60262036 1.2477515 -0.8612861
000040 93 4e 9e be c2 ad 02 3f d1 db 04 3f 61 66 5d bf
       -0.30919322 0.51046383 0.51897913 -0.8648434
000050 7a ac bc bf 39 ff 84 3f a8 5d b8 3f 91 39 de be
       -1.4740136 1.0390388 1.4403582 -0.43403295
000060 a0 26 ca 3f e4 4f 93 3e 17 c0 44 bf bc 02 33 3f
       1.5793037 0.2877189 -0.76855606 0.6992605
000070 45 78 16 3f 69 7b 85 41 e8 43 67 3f 59 d5 02 bd
       0.58777267 16.685259 0.9033799 -0.031941745
000080 ce 13 bd be 10 01 fd bd a4 d3 27 3d f4 6d f4 be
       -0.36929172 -0.12353718 0.04097332 -0.47740138
000090 61 40 b2 be 8e 95 d3 be 22 ce 62 3f b0 13 fe 3f
       -0.34814742 -0.4132504 0.88595784 1.9849758
0000a0 19 6f 10 3f 16 35 37 3f 9c de 3b 3f b8 36 6e 3e
       0.5641952 0.7156538 0.7338655 0.23263061
0000b0 3c 2b 64 3f 6a d9 7d bf 59 5c 09 3f 62 6e 00 bf
       0.8912847 -0.9915987 0.53656536 -0.5016843
0000c0 35 13 00 be ca 95 59 3f aa c1 d4 be 48 c8 69 bf
       -0.12507327 0.84994185 -0.41554004 -0.9132123
0000d0 72 d8 a9 3e 67 86 91 3f 9e fb 05 bf 43 4b 95 3e
       0.33172947 1.1369141 -0.5233706 0.29158983
0000e0 34 f4 a5 41 05 87 44 be 9e de 74 be ef ce ba bd
       20.74424 -0.19192131 -0.23913047 -0.09121501
0000f0 28 95 59 be 22 3c 58 bd 39 e8 29 bf d4 ab 47 be
       -0.21248305 -0.052791722 -0.6636997 -0.19499141
000100 98 c0 fe be e9 74 e2 be 81 11 c9 bf 75 f6 92 3e
       -0.49756312 -0.4422982 -1.5708467 0.28703657
000110 7d f1 4f 3e 36 1c dd be 74 5b 00 bf 8a a0 f4 3e
       0.20306964 -0.43185586 -0.50139546 0.47778732
000120 53 70 0b bf ef 88 cf bc 15 01 22 3e 7e ea 9e be
       -0.5446827 -0.02533385 0.15820725 -0.31038278
000130 39 d2 fb 3d fa 13 2a 3e 6f b1 38 bf 78 3e 93 be
       0.12295956 0.16609183 -0.7214574 -0.28758597
000140 96 fc b6 bd de bd 05 be e8 6a b3 bf 2f 88 5a 40
       -0.08934896 -0.1306071 -1.4017 3.414562
000150 ec dd 05 40 74 27 26 be f9 9f b3 3f 8b 2d de 3d
       2.09167 -0.16225988 1.4033195 0.108485304
000160 ed c8 46 3e a5 0a 81 3e 8b 44 ae 3e 28 fa 18 bf
       0.19412585 0.25203434 0.3403667 -0.5975671
000170 c6 b1 4d be c4 7c 57 bf 2c 80 9f bf c5 d5 e9 3f
       -0.20087346 -0.8417475 -1.246099 1.8268362
000180 00 ff 9e be 28 af 9c 3d 5b c7 ff 3e b4 69 c5 3d
       -0.31053925 0.07650596 0.49956784 0.09639302
000190 2e f8 0e 3f f7 eb 6b bf c7 03 fc 3d fa e3 85 3f
       0.5584744 -0.9215693 0.12305408 1.0460198
0001a0 d2 d4 a1 3f f8 b0 2c 40 09 77 cf bc 87 6b 63 bf
       1.2643073 2.6983013 -0.025325315 -0.8883595
0001b0 f8 bd a3 bf bc 18 c7 be 05 9c 9d c1 02 4a 19 bf
       -1.2792349 -0.38886058 -19.701181 -0.5987855
0001c0 de 81 e8 3e a7 cc 85 be b1 16 68 3e 6e 9d c4 be
       0.4541158 -0.261327 0.22664906 -0.3840136
0001d0 9f 69 5b bf da 51 99 be 20 d4 c9 be 56 7f bf 3e
       -0.8570804 -0.2994526 -0.3941965 0.37401837
0001e0 8b 68 2b 3f 1a b7 ee be a1 bf b1 be 94 2b 42 be
       0.66956395 -0.4662407 -0.34716514 -0.18961936
0001f0 43 8e e9 be 9e d2 7e bf f0 a2 97 bf 4a dd bf 3f
       -0.4561635 -0.99540126 -1.18466 1.4989407
000200 0d af f2 3e 72 c9 65 be 2c 57 1b bf bb cf c2 be
       0.47399178 -0.22440127 -0.6067989 -0.3804911
000210 a5 64 42 bf c3 ee 2c bf b6 f7 91 3f 4c 97 a4 40
       -0.7593482 -0.6755182 1.140372 5.143469
000220 b6 07 3e bf 45 75 17 3f 3c 44 49 3e ca 78 58 3e
       -0.74230516 0.59163314 0.19654936 0.21139827
000230 ad ed c7 3e 3a 03 4c 3e 6f 9c 81 3c 45 cd 40 3c
       0.3904852 0.19923106 0.015821664 0.01176769
000240 2a 2b dc 3e 38 61 11 3d 12 77 06 3f 5f 38 5e 3f
       0.43001682 0.035493106 0.52525437 0.86804765
000250 b2 19 e6 be 27 10 03 bd 8a 4f 0d bf f3 e1 67 3e
       -0.4494148 -0.031997826 -0.5519949 0.22644787
000260 8a b4 7f bf 70 47 95 bf 62 ab 26 3d 54 5c b0 3e
       -0.99884856 -1.1662426 0.040690787 0.3444544
000270 2c e8 03 bc 38 0d 4e bd fc 0c f6 3e d7 2d d9 be
       -0.00805096 -0.050305575 0.4805678 -0.42417786
000280 ff 74 43 3f c7 7d fb bf 30 9f de bd 36 9e 91 be
       0.76350397 -1.9647759 -0.10870206 -0.28441018
000290 ac 47 69 41 c9 72 bc 3e 94 80 51 3f 21 60 80 be
       14.579998 0.36806324 0.8183682 -0.2507334
0002a0 94 01 5e be 2f 93 05 3e 3b 77 2f bf c3 88 9d be
       -0.2168029 0.13044427 -0.68541306 -0.30768403
0002b0 c5 fa 17 bf 84 11 29 3e 01 da 22 bf df f9 f0 bd
       -0.5936702 0.16510588 -0.636139 -0.11766409
0002c0 be f7 92 be 16 2a 87 be d9 1a 8e be 86 97 3c 3f
       -0.28704637 -0.26399297 -0.27754858 0.73668706
0002d0 07 23 81 3f 08 73 f4 be 59 5f 7b 3f 76 14 ca 3e
       1.0088814 -0.47744012 0.98192364 0.39468735
0002e0 6b 8a b4 be 78 f9 0c be aa 27 02 c0 55 6e c3 3e
       -0.35261855 -0.1376704 -2.033671 0.38170114
0002f0 04 fb 5b 3e ef fa 49 c0 e2 c3 ec 3e 19 eb 41 40
       0.21482474 -3.1559408 0.46243197 3.0299742
000300 30 4c 1a be bb 94 76 3e 0e 1b d8 3e 04 44 bc be
       -0.15068126 0.24080174 0.4220814 -0.36770642
000310 9a 3b db 3d 20 80 14 3e 76 b5 35 be 8f 9d 8a 3e
       0.107047275 0.14502001 -0.17745003 0.27073333
000320 88 7d 03 bf 21 61 83 40 a8 f1 3f be 73 a4 3a be
       -0.5136342 4.1056066 -0.18744528 -0.18226795
000330 6f af 39 3e fd 6b 1f bf e6 20 c1 3e 58 1e a0 3e
       0.18133329 -0.6227415 0.37720412 0.3127315
000340 d4 3d 6d 3d 5e e1 eb be 11 84 3c 3b ed 63 03 be
       0.057920292 -0.4607038 0.002876524 -0.12831087
000350 eb c8 d4 3e b6 45 84 bf fe 2a 57 3d 31 02 7e bf
       0.41559538 -1.0333774 0.052531235 -0.99222094
000360 33 4a b5 3e 3b 40 9d bf 87 15 dc 3f 44 27 c2 3f
       0.35408172 -1.2285227 1.719407 1.5168233
000370 c7 e6 05 40 a9 cd 63 3f 0a 84 0f 3e cc ef 92 3f
       2.0922105 0.8898569 0.14015213 1.147943
000380 f1 c0 78 be 9a 72 2d 3e 7c 0e 01 3f c6 6c 56 3f
       -0.24292351 0.16938248 0.50412726 0.83759725
000390 2c 92 2f bf 4f bc a2 bf 2a 2c ba 3f c0 60 17 bf
       -0.68582416 -1.2713717 1.4544728 -0.59132004
0003a0 e4 51 5a bd ef 0e 89 bf 43 79 a6 bf bb 42 d4 3d
       -0.053300753 -1.0707682 -1.3005756 0.1036429
0003b0 91 ee 31 bf 27 72 9c 3d d5 3d 60 3f 47 bb 8f 3f
       -0.6950465 0.0763896 0.8759435 1.1229028
0003c0 ae 4b ef bf 25 61 8e 3f dd 30 42 c0 fd 83 03 bf
       -1.8694971 1.1123396 -3.0342324 -0.51373273
0003d0 7c 34 98 3d 2c 86 a1 bd b5 b8 00 c0 42 1a 25 be
       0.074318856 -0.078869194 -2.0112736 -0.16123298
0003e0 90 9e 6f bc 4a f6 dc be 11 0a 9f 3e 54 87 e3 3e
       -0.014625207 -0.43156654 0.31062368 0.44439185
0003f0 0e f9 dc 3d 18 1b d7 3e 37 4a 29 3f 10 2f 75 3f
       0.10789691 0.42012858 0.6612887 0.95774937

bias f4 [24]
000000 2b e0 f9 3e 82 23 7a be ac 46 22 3e 32 57 a0 3e
       0.4880384 -0.24427608 0.15847272 0.31316525
000010 8b 5e bf 3e 98 27 05 3e 41 cf c1 3d 0e df 65 bd
       0.37376818 0.13003385 0.09463359 -0.056120925
000020 2d c3 26 3f 96 24 04 3b 25 3e 4a 3d 23 e9 3c bf
       0.65141565 0.0020163408 0.049375672 -0.7379324
000030 d9 b2 1e bf f6 94 2d be 99 55 c0 3e 4b 90 33 bf
       -0.6199165 -0.16951355 0.37565306 -0.7014205
000040 93 be 06 3e 20 4e 5e 3e 18 c5 f4 3d af eb 5f 3e
       0.13158636 0.2170949 0.11951655 0.2186725
000050 62 cb 50 3d b8 01 6a 3e 65 6b 94 bd d7 40 6f 3e
       0.05097521 0.22852218 -0.072470464 0.23364578

weight f4 [20, 24]
000000 78 57 9e bf 56 ae 21 3f 89 4d 1a c0 61 70 bd bf
       -1.2370443 0.6315664 -2.4109824 -1.479992
000010 67 ec c1 3f 72 95 f6 bf 28 86 b8 bd fa ae 88 bf
       1.5150269 -1.9264357 -0.09009963 -1.0678399
000020 38 fb 1e bf 9b 96 36 bf ea db 95 bf 5c f0 c1 be
       -0.6210208 -0.71323556 -1.1707737 -0.37878692
000030 e9 99 95 bf 22 98 0e c0 0c 2b 30 c0 91 4f 5a 3f
       -1.1687595 -2.2280354 -2.7526274 0.8527766
000040 28 53 ad bf 2c f9 ff bd 2f 41 0f c0 fa 39 b1 be
       -1.3541002 -0.12498698 -2.2383535 -0.34614545
000050 47 36 16 3f 3c f5 65 3f 91 18 22 c0 a4 3d 8d 3e
       0.5867657 0.8982732 -2.5327494 0.2758609
000060 5a aa ef bf 79 ab 7a 3f 8a 06 df 3f c0 b1 92 3f
       -1.8723862 0.97917897 1.742387 1.1460495
000070 c9 e6 7e bf 63 e0 18 40 4a e1 04 3f 83 7d 63 be
       -0.995709 2.3886955 0.51906264 -0.22215848
000080 33 06 5d c0 28 7d 33 c0 29 4c e2 3e 41 3e 26 be
       -3.4535034 -2.804514 0.4419873 -0.16234685
000090 93 1b a3 3e 95 2b c7 3e 44 4c ec 3f 09 e9 7c bf
       0.31856975 0.38900438 1.8460774 -0.98793083
0000a0 da 8e db 3d 9a 9a a3 bf 69 c0 16 40 a5 6c 8b 3d
       0.10720606 -1.2781556 2.3554938 0.06807832
0000b0 96 4d 1b 3f 85 2c 6b 3e 25 ac ea 3e 8f 7a 5a 3e
       0.6066526 0.22966202 0.4583446 0.21335815
0000c0 0c db 49 be 77 bf 8f be c0 8e 9f 3f 91 4d 44 3e
       -0.19712466 -0.28075764 1.2465439 0.19170214
0000d0 d0 f7 8a 3e 3c 76 b6 3f b5 4e ab 3e e4 36 9f c0
       0.2714219 1.4254832 0.33458486 -4.9754505
0000e0 d0 8c 8f 3f e4 a5 d4 3e 4a 6d 86 3f 7e b8 ca bf
       1.1214848 0.41532815 1.0502102 -1.5837553
0000f0 ca 6f 14 be 35 7d 70 3f 81 77 17 3e 34 c1 98 3e
       -0.14495769 0.9394105 0.14791681 0.29834902
000100 f4 20 50 3f 48 fa f1 bf da 30 f8 3d 90 36 31 3e
       0.8130028 -1.8904505 0.12118693 0.1730597
000110 3e 3e 4d bf 0e bb 4c c0 d3 fd ac 3e bb 29 e7 3e
       -0.801731 -3.198917 0.33787403 0.45149025
000120 8f 4c 71 bf 56 4e d3 be 8a 04 01 40 c2 bb fb 3f
       -0.94257444 -0.41270703 2.015902 1.9666674
000130 ec d4 9a bf 6e 84 28 40 ce 9f a6 3d 8c 43 b3 3f
       -1.2096229 2.6330829 0.08135949 1.4004989
000140 61 47 a0 3f 93 af 3d 3f 22 7c 8c 3f 24 97 ce be
       1.2521783 0.7409603 1.0975382 -0.40349686
000150 7d d2 71 3e ae 8b 2e be 68 5c 6b 3f 20 00 67 be
       0.23615451 -0.17045471 0.91937876 -0.22558641
000160 77 9e 5e 3f 93 b0 ed bf db b3 80 3f 9f 85 c9 be
       0.8696055 -1.8569511 1.0054888 -0.39359757
000170 f2 68 c7 bc 87 9c 06 3f d6 06 7c 3f 51 f3 33 3f
       -0.024342034 0.5258259 0.9844793 0.70293146
000180 7d 9d 9a 3f a4 2a 47 c0 b9 57 d9 be 7d a2 8b 3f
       1.2079312 -3.1119776 -0.4244974 1.0908962
000190 5c aa 17 bf 8e dc 79 3e 64 36 ab c0 0e 3e 11 3f
       -0.5924432 0.24400541 -5.3503895 0.5673531
0001a0 a7 80 8c 3f aa 09 13 c0 21 da 9a 3f 19 78 53 3f
       1.0976762 -2.2974648 1.2097818 0.8260513
0001b0 c5 09 f5 bf 16 73 99 3e 2d 08 39 c0 f2 cd ce bf
       -1.9143606 0.29970616 -2.891124 -1.61566
0001c0 b6 50 25 bf ab 1e ca be 59 72 0d c0 a2 a5 30 3f
       -0.6457628 -0.39476523 -2.2101042 0.69002736
0001d0 00 d7 81 3f e9 21 aa bf 87 7f 9e be e1 9d 49 bf
       1.0143738 -1.3291599 -0.3095667 -0.7875653
0001e0 af 21 05 40 94 c5 13 c0 cd a7 11 c0 3c 17 57 bf
       2.080181 -2.3089342 -2.2758667 -0.8401983
0001f0 62 43 b4 3f 9b bf d7 c0 6f d4 8a 3f 8e 69 9c bf
       1.4083064 -6.7421393 1.084608 -1.2219713
000200 fe fa 33 3f 50 7f a5 bf d8 27 86 bf 68 d6 26 bf
       0.7030486 -1.2929478 -1.0480909 -0.6517091
000210 0d 96 b1 3f ac d0 be bf 94 37 9f bf bb 5d 21 3f
       1.3873917 -1.4907432 -1.2438836 0.63033646
000220 46 01 3f c0 7a de 91 3e 37 0c 75 bf d0 83 27 3f
       -2.9844527 0.2849005 -0.95721763 0.65435505
000230 1a da 90 3d 9d f2 c5 3f fa 23 a8 bf 68 57 29 bf
       0.070728496 1.5464665 -1.3135979 -0.66148996
000240 55 ef 72 be c8 57 c7 bf 08 89 9f 3f 11 55 c0 3f
       -0.2372411 -1.5573664 1.2463694 1.502596
000250 2a b1 97 bf 75 11 12 40 9f 6e 4f bd e0 5b 9a 3f
       -1.1850941 2.2823155 -0.050642606 1.2059288
000260 98 2b b6 3e 6c 4d 10 3f c9 1d 21 3f 2d d3 35 be
       0.35580134 0.56368136 0.62936074 -0.17756338
000270 2b 93 df 3e d5 9e 20 bf a7 4c b9 3e be 97 2a 3e
       0.43666968 -0.6274236 0.36191294 0.16659448
000280 ab 99 d9 3e 18 8e e7 be b5 0b 18 bc 31 0a c0 bf
       0.42500052 -0.45225596 -0.009280135 -1.500311
000290 72 14 07 bf 98 f3 6b 3e a6 40 c1 3f d3 97 15 3f
       -0.5276557 0.23042142 1.5097854 0.5843479
0002a0 1b 15 4a 3f 71 1a 10 40 68 df 7a 3e 42 8d 7e 3d
       0.78938454 2.2516139 0.24499285 0.062146433
0002b0 f9 72 d2 3e c5 1a b6 bf 3c 48 bb 3e bc b7 fa bf
       0.41103342 -1.422692 0.36578548 -1.9587321
0002c0 74 ee e9 bf b1 22 42 bf 96 4d 77 3d 27 df 93 3e
       -1.8275895 -0.75834185 0.060376726 0.2888119
0002d0 06 8d a5 3f 5c e9 46 be f2 2a 04 be 81 c0 f2 bc
       1.2933662 -0.19424957 -0.12907007 -0.029632809
0002e0 6c 01 a9 bf 6f c5 2c bf 3f 82 22 3f 82 e6 8e 3f
       -1.3203559 -0.6748876 0.6347999 1.1164095
0002f0 21 da 94 3f 0d f5 2d 3e 00 6e ad 3e c5 24 a9 be
       1.1629068 0.1698801 0.33872986 -0.33035865
000300 f7 af 8f 3e d9 fe 86 3f f3 78 e4 3f 6a 19 06 c0
       0.28063938 1.0546523 1.7849411 -2.0953012
000310 af 95 8f bf c2 0b 68 c0 a2 98 5e 3f 38 eb b9 bf
       -1.1217555 -3.6257176 0.8695165 -1.4524908
000320 d7 00 80 3e ef 04 b0 be 88 81 db 3e 77 7d 0b 3f
       0.2500064 -0.34378764 0.42872262 0.5448832
000330 64 4c 7f 3e 7f 39 f3 be 2b 5d 84 3e d9 63 66 bf
       0.24931484 -0.47504804 0.25852332 -0.89996105
000340 d4 e7 5b 3d 71 ac a8 bf c1 8d 58 3f 08 e8 02 40
       0.053687885 -1.3177625 0.845913 2.045412
000350 14 eb b1 3e 62 d8 99 3e a8 e8 97 3e aa 51 5e 3f
       0.34749663 0.300479 0.2966969 0.8684336
000360 f7 db 9b be ae 81 a1 bf 40 89 22 3e a1 c0 17 bd
       -0.30441257 -1.26177 0.15872669 -0.03704894
000370 a0 0c b6 bd 71 e2 88 3f bd a4 35 3f e2 f8 bd bf
       -0.08889127 1.0694104 0.70954496 -1.4841578
000380 b5 54 60 3e 43 04 c7 3f 25 dc f1 3e f1 14 57 3e
       0.21907313 1.5548176 0.4723827 0.21004082
000390 a0 4a 93 3e 60 11 cb 3f d6 f0 db 3e d6 b6 7c 3e
       0.28767872 1.5864677 0.4295718 0.24679121
0003a0 c3 0e 8d 3f 53 8b 0d bf 89 cd 8f 3f 18 8f 83 40
       1.102013 -0.55290717 1.1234599 4.1112175
0003b0 29 e5 91 bf f3 bd f8 bf 20 69 85 bc 8d b0 98 3f
       -1.1398059 -1.9432968 -0.01628548 1.1928879
0003c0 ba 3e 45 3e e2 85 b2 bf ee 2a ea bc d0 73 ce 3f
       0.1926221 -1.3947108 -0.028584924 1.6129093
0003d0 25 c8 25 bf d8 b1 c1 3f ef 76 0d ba f5 8d 3f 3f
       -0.6475852 1.5132399 -0.00053964456 0.74825984
0003e0 68 7f 80 3f 13 c9 a7 3f 84 4f 8b 3f d9 a0 4e bf
       1.0038881 1.3108238 1.0883641 -0.80714184
0003f0 f8 11 85 3f 0d 4c 37 3f b8 04 0b 40 17 4d 36 3f
       1.0396109 0.7160042 2.172163 0.7121138

bias f4 [20]
000000 3f 2a 7e 3f 27 9a 08 bf 86 5c 66 3f e4 b3 86 bf
       0.9928321 -0.5336022 0.8998493 -1.0523648
000010 ce 53 0f bf e6 b7 20 3f 1e 43 ee be c7 13 23 bf
       -0.5598725 0.62780607 -0.4653558 -0.6370205
000020 08 ab 88 bf 07 1b ed 3e 8c 43 c0 be cf 43 53 bf
       -1.0677195 0.46309683 -0.37551534 -0.8252534
000030 a0 a3 1e 3f 02 b0 56 3f c3 7d 93 3c b3 b5 58 bf
       0.6196842 0.83862317 0.018004304 -0.8465225
000040 70 8d 27 bf 78 d8 19 bf fc 7e 37 3d f5 90 81 3f
       -0.6545019 -0.6009593 0.044798836 1.0122362

weight f4 [15, 20]
000000 71 40 f5 be 4f 30 23 3f ff 3a 00 40 25 c0 a4 3e
       -0.47900727 0.6374559 2.0036008 0.32177845
000010 48 7f 43 3f bb 15 b5 bf 0e 60 af 3f 0b 42 28 c0
       0.7636609 -1.4147257 1.3701189 -2.629031
000020 20 46 bc 3f ef ed 2b 3f 5a e3 ba 3f 8b c8 bd bf
       1.47089 0.6715993 1.4600632 -1.4826826
000030 d3 25 d7 bf f7 b2 33 3f 74 10 0a 3c d2 06 63 3f
       -1.6808418 0.70194954 0.008426774 0.8868228
000040 70 a9 96 3f a7 d2 4c 3f f9 49 61 3f ed a6 aa bf
       1.1770458 0.8000893 0.880035 -1.3332192
000050 28 79 f2 bf f6 2c 36 3e 9b 99 80 bf f2 c2 45 3f
       -1.8943224 0.17790589 -1.0046877 0.7725059
000060 3d 93 ed be 12 78 9e 3c 63 dd b8 3f 1b 13 0e c0
       -0.46401396 0.019344363 1.4442562 -2.219916
000070 a6 d8 66 bd 9d 87 d1 3f e2 e3 20 3f 39 d9 81 c0
       -0.056358956 1.6369511 0.6284772 -4.0577664
000080 cf e3 c1 3e 4e b7 bd bf ac ee 43 3f 60 8b 6c 3f
       0.37869117 -1.4821565 0.7653606 0.9240017
000090 62 ce 09 3f ed 35 09 3f 43 3a 9c 3e fd c3 4e c0
       0.5383054 0.5359791 0.305132 -3.2307122
0000a0 81 47 b0 bd 60 08 88 bf 79 da 28 3f 9c b7 f6 3e
       -0.08607388 -1.0627556 0.6595836 0.48186958
0000b0 72 cc 8b 3d ab ac 11 3e b0 14 d5 3e 31 15 20 3f
       0.06826104 0.14226024 0.41617346 0.62532336
0000c0 d3 6b b2 3f a6 7c 12 c0 27 ff 08 be 12 a0 4c 40
       1.3939155 -2.288858 -0.13378583 3.19727
0000d0 2d 2c 54 bf ea 13 57 bf f3 df bc 3f 79 1e 52 bf
       -0.82879907 -0.8401476 1.4755844 -0.8207775
0000e0 a3 0f 87 3c 0f 6b 9d bf 9c ec cb bf f4 4a 80 bf
       0.016486948 -1.2298297 -1.5931582 -1.0022874
0000f0 13 fb 2d bf 8c 33 e2 3e e6 34 29 c0 ae 13 22 3f
       -0.67961234 0.44179952 -2.6438537 0.6331128
000100 f0 7d 41 3f 12 fb 9d 3e 1b a0 4d be bf cd 91 3e
       0.7558279 0.30855614 -0.20080607 0.28477284
000110 09 79 32 3f 93 7c c2 3f 2a fe 9f bd 1b 87 bb 3f
       0.69715935 1.5194267 -0.0781215 1.4650606
000120 6c 52 d0 3f cb a3 93 be 19 75 35 bf 1e ff d0 bf
       1.6275153 -0.28835902 -0.708818 -1.6327856
000130 4e aa d3 3f 25 67 c1 3f 38 e2 a2 bf 8f 79 84 bf
       1.6536348 1.5109602 -1.2725286 -1.0349597
000140 6e 0f 09 3f 58 16 73 3f c5 28 de be 9c 7f 57 3e
       0.5353917 0.9495597 -0.4339048 0.21044773
000150 3e 0f 48 3e 3e 6a f9 be a8 9d 37 bf 26 ba 70 3f
       0.19537064 -0.4871387 -0.7172494 0.9403404
000160 c2 d9 8a bd 27 a6 c6 c0 dc 12 71 bd e8 d4 37 3f
       -0.06779815 -6.2077823 -0.058855876 0.71809244
000170 d7 63 69 bf 7d 66 03 c0 32 44 90 3f d5 08 3c be
       -0.9116797 -2.0531304 1.1270812 -0.18362744
000180 cc d3 86 c0 f9 32 ab be 38 f8 a1 be 19 98 80 3f
       -4.213354 -0.33437327 -0.31634688 1.0046417
000190 d6 44 e9 bd 25 30 4c c0 b2 6c b5 bf 76 53 cc bf
       -0.113900825 -3.1904385 -1.4173796 -1.596297
0001a0 7a ae 34 be 0c ad 0d 3f 37 91 99 3e ec bb 7c 3e
       -0.17644683 0.55342174 0.29993603 0.24681062
0001b0 43 39 69 bd 75 36 bd 3f de c2 8c 3f 16 9d 6b 3f
       -0.056939375 1.4782244 1.0996969 0.9203657
0001c0 bb 34 b1 3f b4 92 bb bf 88 1d 04 bf c2 fb b0 3f
       1.3844217 -1.4654145 -0.5160756 1.382683
0001d0 95 8e 9a 3f 6c 80 0f c0 86 27 ea be ec e7 fc 3f
       1.2074763 -2.2422132 -0.4573328 1.9758277
0001e0 0e 9a 07 3f 35 e8 c2 be 81 7b c4 3f a4 44 c9 3d
       0.52969444 -0.38067785 1.535019 0.09827545
0001f0 ad 8c 72 be a4 a9 01 c0 53 60 ef 3e 7c b7 d3 bf
       -0.23686476 -2.025979 0.46753177 -1.654037
000200 ee f6 3e bf b0 56 c1 3e 4b a7 aa bf 89 cf 88 bf
       -0.74595535 0.3776145 -1.3332304 -1.0688335
000210 e4 a0 08 bf 2f 85 d4 be c5 89 16 be 28 2d 14 3e
       -0.533705 -0.4150786 -0.14700992 0.1447035
000220 ed 47 83 3f b5 07 04 3d 1d 4a 81 3f 41 f4 af be
       1.0256325 0.032233912 1.0100743 -0.34366038
000230 64 15 57 be e3 bd fa 3e 77 23 ab 3e 83 9f cf bd
       -0.21004254 0.48972997 0.33425495 -0.10137846
000240 26 65 1d 40 16 b7 e9 be 0d 9e 3a 3e 49 95 10 3d
       2.4592986 -0.45647496 0.18224354 0.03529862
000250 6e 24 85 bc da 12 62 bf a1 9e 3a bf ed 72 92 bd
       -0.016252723 -0.88310015 -0.728983 -0.071508266
000260 f3 31 a1 3e 24 88 6c be 04 39 03 3f 2a 49 04 be
       0.3148342 -0.23098809 0.51258874 -0.12918535
000270 29 a0 48 bf b2 89 8d 3f 0b 34 dd be 22 27 45 3e
       -0.78369385 1.1057646 -0.43203768 0.19253209
000280 6f d8 98 bf 7c d4 0f 40 23 32 8a bc 8d 46 d0 be
       -1.194105 2.247344 -0.01686961 -0.40678826
000290 7f 34 a7 3d e4 b2 94 bf 8e cd 05 3f f9 2a 5b bf
       0.0816431 -1.1617093 0.52266777 -0.85612446
0002a0 c3 5c 3d 3f ed 6b 18 3f 7e 74 88 be 32 ee 38 3f
       0.7396967 0.5953968 -0.26651376 0.7223846
0002b0 33 07 b5 3e b8 8b 93 bf a1 c3 58 bf 90 8a 93 3d
       0.35357055 -1.1527014 -0.84673506 0.07204163
0002c0 29 06 b5 3f 51 70 86 be 7e d3 ba bd 20 d9 16 3f
       1.4142505 -0.26257566 -0.0912237 0.58925056
0002d0 e2 ca 3f 3e fc 95 2b 3d 27 98 4e bf cd db 30 bd
       0.18729737 0.041891083 -0.80700916 -0.04317837
0002e0 3e 64 d6 be 44 fb 70 3e 58 b7 41 3f 1f b3 8c bf
       -0.41873354 0.2353335 0.75670385 -1.0992163
0002f0 de 60 03 3f 63 72 b3 3e 04 52 bc 3d 06 8b 54 c0
       0.5131968 0.35048208 0.09195331 -3.3209853
000300 bb f4 66 3a 4b 14 b8 3d dc dc 0a 3f 35 e5 8a be
       0.00088102714 0.089882456 0.54243255 -0.27127996
000310 24 b6 4f 3f b7 70 03 3f 5e 2b c7 3e 34 7a 87 3e
       0.811373 0.51343864 0.38900274 0.2646042
000320 bf f9 b5 be 96 45 fe 3d a3 29 6c 3f 0c 08 5e 3f
       -0.35542104 0.12415616 0.9225103 0.8673103
000330 3d 63 1e c0 08 8e 05 3f e3 ed 54 3f 51 3f 7e bf
       -2.474807 0.5216985 0.83175486 -0.99315363
000340 e3 be 12 3f 46 bb 58 3f 0d f0 10 40 eb 64 53 be
       0.5732252 0.84660757 2.2646515 -0.20643966
000350 b1 45 4b bf 48 09 27 c0 50 1d 4d 3f cd c3 a4 3e
       -0.79403216 -2.6099415 0.8012285 0.32180634
000360 72 fe 02 3f cd b0 ab be 5a fd 95 3f cd 62 7b bf
       0.511695 -0.33533326 1.1717942 -0.98197633
000370 a4 d4 ee be 2e 33 14 bf f6 8d b7 be c2 43 02 3f
       -0.46646607 -0.57890594 -0.35850495 0.5088464
000380 19 44 75 be 19 b7 2c bf e3 84 49 3e 4e 99 93 be
       -0.23951758 -0.67466885 0.19679599 -0.288279
000390 15 69 0d bf 96 0c 5c bf 0b 63 9f bf 35 af 7f bd
       -0.5523847 -0.85956705 -1.24521 -0.06242295
0003a0 15 dd 18 3e 91 ab 8d 3c 5f d1 e2 be ba 7b a6 3e
       0.14928086 0.017293723 -0.44300362 0.3251627
0003b0 41 a7 4b be e0 7b b4 3e 90 94 2f bf f1 b8 80 bb
       -0.19888021 0.3525076 -0.68586063 -0.0039282967
0003c0 d6 d0 38 be 81 2d 77 3f a0 c2 93 c0 37 17 4a be
       -0.18048415 0.9655381 -4.617508 -0.19735418
0003d0 b6 f3 0a be dc a3 20 bf 06 08 ce 3e 9f bd de 3e
       -0.13569531 -0.6275003 0.40240496 0.43504044
0003e0 19 1f 8e be 10 d3 ad 3f 37 bf fc 3e 14 c8 00 be
       -0.277581 1.3580036 0.49364635 -0.12576324
0003f0 e0 23 16 bd 98 7c 3f bf 57 ef 44 3f 5b 43 a3 3e
       -0.036655307 -0.7479949 0.76927704 0.31887326

bias f4 [15]
000000 19 97 97 bf 6d 7e 7a be 91 0a 51 bf 55 1c d0 bf
       -1.1842986 -0.2446229 -0.8165675 -1.6258646
000010 95 bd 25 3d 64 c6 ad bd 13 ec 25 3f 85 f4 de be
       0.040464003 -0.08485106 0.64813346 -0.4354593
000020 2d 0d a8 bd 58 ce 22 bf b4 8a 3e bc 5f 2d 2f 3f
       -0.08205638 -0.63596106 -0.011629749 0.68428606
000030 e4 3a 78 3e 63 58 a6 bf fa ca 1c bf
       0.24241215 -1.2995723 -0.6124722

weight f4 [9, 15]
000000 97 94 12 3f c1 fd 08 40 21 7a da bf 88 bb a0 3e
       0.5725798 2.140488 -1.7068521 0.31393075
000010 74 2a 18 c0 d6 41 ce bf 6f a8 27 c0 32 8d b0 bf
       -2.3775911 -1.6113842 -2.6196554 -1.3793089
000020 55 22 3c 3f da e5 88 3f 26 5b c0 bd d5 65 42 c1
       0.73489887 1.0695145 -0.09392385 -12.149861
000030 9f 8c 1f 3f 67 a5 15 bf b3 83 a4 3e ff 58 fd 3e
       0.62323946 -0.5845551 0.3213173 0.4948196
000040 46 53 22 3d 37 57 b0 bf 1d 09 14 c1 c9 06 10 bf
       0.039630197 -1.3776616 -9.252225 -0.56260353
000050 29 e4 a4 bd 51 ed 8a be 95 02 20 bd d0 62 62 3f
       -0.080513306 -0.27134183 -0.039064962 0.88432026
000060 a8 33 bb 3e dc 48 fc be 42 4a 41 3f 27 60 51 3f
       0.36562848 -0.49274337 0.75503933 0.8178734
000070 e3 d1 0a 3f 05 ac 8e c0 c2 a3 de bf 82 2d c9 bf
       0.5422651 -4.4584985 -1.7393725 -1.5717013
000080 21 32 20 bf a6 c9 de bf 69 ee 56 c1 ef db db 3e
       -0.6257649 -1.7405288 -13.433206 0.42941234
000090 c7 b8 c6 c0 18 01 b9 c1 13 7f 27 c0 9b fb c1 be
       -6.210056 -23.125534 -2.617131 -0.37887272
0000a0 20 5e 8e 3f 4d d2 98 c0 78 34 82 3d 68 de 05 c0
       1.1122475 -4.7756715 0.06357664 -2.0916996
0000b0 7a d1 60 bd 99 6b e7 3d d4 c5 0d c0 1c 52 eb be
       -0.054887272 0.112998195 -2.2151995 -0.45961082
0000c0 7a 58 92 3f 0d 6d 22 be 84 2a d1 bf b2 a1 cf c0
       1.1433251 -0.15861912 -1.63411 -6.488488
0000d0 4a 5c f8 bd e9 bd 12 3f 15 85 24 c1 d4 33 cd bf
       -0.12126978 0.5732103 -10.282491 -1.6031442
0000e0 95 12 24 c1 52 8a 4b be 24 57 91 be 77 3a 22 bf
       -10.254537 -0.19876984 -0.28386796 -0.6337046
0000f0 46 ee b7 bf 90 3b 33 c0 07 7b 81 3f 3e 7b 60 c0
       -1.436959 -2.8005104 1.011567 -3.507522
000100 1d 69 f9 3f 4f d3 a8 c0 aa 70 a2 c0 51 c8 e4 be
       1.9485203 -5.2757945 -5.076253 -0.4468408
000110 d3 1a 35 c1 19 5d c8 bf 29 ce cc 3e 5d 75 0d c1
       -11.319049 -1.5653411 0.40001038 -8.841153
000120 b6 6c be bd 25 3a ee 3e 4b 9d 17 3f da 14 01 bf
       -0.09298079 0.46528736 0.59224385 -0.5042244
000130 c0 3f 04 3e 5e 02 e9 bf d1 c8 6f c1 b6 94 0f 3f
       0.12914944 -1.8203847 -14.986527 0.5608629
000140 4f 62 81 bd f1 94 8f 3e 82 1c df 3c 84 d6 bd be
       -0.06317579 0.2804332 0.027235273 -0.37077725
000150 40 62 95 3e 66 d1 fd 3e 98 36 35 bf a6 8d 73 bf
       0.2917652 0.4957382 -0.7078643 -0.95138013
000160 a6 13 13 bf 08 d7 c2 c0 2d 30 55 bf 54 de 6f c0
       -0.57451856 -6.088749 -0.83276635 -3.7479448
000170 84 a9 e6 be 51 95 49 bf a7 2c 0e bf 74 54 d5 3f
       -0.45051205 -0.78743464 -0.55536884 1.6666398
000180 01 e3 29 c1 3f c4 73 3c be 4f e8 bb a4 68 e0 c1
       -10.617921 0.014878332 -0.007089584 -28.051094
000190 51 8b d1 c0 bd 29 64 c0 2d 08 5b bf ef df 39 c0
       -6.5482564 -3.5650475 -0.8555935 -2.9042928
0001a0 38 5b fd bf cb f3 27 3e 63 5b 13 3e ca 06 05 c0
       -1.9793463 0.16401593 0.1439033 -2.0785394
0001b0 64 62 f6 3d 5b a0 18 c2 1e 97 62 3e 3c 7c 90 c0
       0.12030485 -38.156597 0.22127959 -4.5151653
0001c0 37 40 a8 bf c4 e3 1f 40 a4 dc 0b c0 05 7a a4 bd
       -1.3144597 2.4982767 -2.1853418 -0.08031086
0001d0 b4 1b 19 c1 4f 00 18 bf 8d 9d 58 c0 63 24 ff bf
       -9.569263 -0.5937547 -3.3846161 -1.9932979
0001e0 7f 92 09 c0 ca 9c 9c bf 3d 16 a3 3f 0e 09 dd 3e
       -2.1495664 -1.2235348 1.2741162 0.4317097
0001f0 2b 28 a7 c1 5e ec 71 be bd d9 e0 c0 e1 0c 60 c0
       -20.894613 -0.23625323 -7.0265794 -3.500786
000200 02 6f 76 c0 bf 2b 08 c1 9d e2 60 3e d4 6e c5 c0
       -3.8505254 -8.51068 0.21961446 -6.169779
000210 9d d0 c0 bf bf 72 9b bf 64 14 95 be
       -1.5063664 -1.2144393 -0.2911712

bias f4 [9]
000000 69 23 f0 bf 2e bd 28 be 37 8e ff c0 fb 89 5d 3f
       -1.8760806 -0.16478416 -7.98611 0.86538666
000010 19 94 eb bf c7 61 21 3e 61 fa 00 c0 f4 a1 b0 c0
       -1.8404571 0.15759955 -2.015282 -5.5197697
000020 0f da 29 c0
       -2.6539342
